code_tidy/model_step2/zy_f08.pt (torch, 10706 bytes, 2 tensors)

networks.0.w f4 [20, 100]
0	0x3f104501	0.5635529
1	0x3f19c5d6	0.600675
2	0xbd5dbf12	-0.054137297
3	0x3f206828	0.6265893
4	0xbd58fae6	-0.05297365
5	0x3e730ad2	0.23734596
6	0xbe5078a1	-0.20358516
7	0x3ee04faa	0.4381078
8	0x3f215fdd	0.630369
9	0xbec72faa	-0.38903552
10	0x3f1eb2aa	0.6199137
11	0x3e52b99e	0.2057862
12	0x3f038cc4	0.51386666
13	0x3e4679db	0.19382422
14	0x3ecd1de6	0.40061873
15	0xbd0f837c	-0.035037503
16	0x3f169197	0.588159
17	0x3e3b9958	0.18320215
18	0xbe606711	-0.21914317
19	0x3e838c66	0.25693053
20	0xbe269882	-0.16269115
21	0x3c730f96	0.014835259
22	0xbe0e770b	-0.13912599
23	0x3eee2aa1	0.46516898
24	0xbec2f89f	-0.38080308
25	0xbe256cc8	-0.16154778
26	0xbd421bec	-0.04738991
27	0xbe86ffe5	-0.26367107
28	0x3e15ec78	0.14640987
29	0xbeeb8cbd	-0.46005812
30	0x3f362d93	0.7116329
31	0xbed6b51b	-0.41935048
32	0x3f0c34f4	0.547683
33	0x3e3fa98d	0.18717022
34	0xbde774d5	-0.11301581
35	0x3ee7f2d0	0.4530244
36	0x3e36b40c	0.1784212
37	0x3f1205b6	0.57039964
38	0x3e0c8e98	0.1372627
39	0xbdf655a5	-0.12028054
40	0x3e6c3216	0.23065981
41	0xbd8dd21a	-0.06924839
42	0x3eb4041d	0.35159388
43	0x3f2176c8	0.6307187
44	0x3ee6440d	0.44973794
45	0xbe27f56b	-0.16402213
46	0x3ec6d911	0.38837484
47	0x3e1fbf64	0.15600353
48	0x3edf5856	0.43622082
49	0xbe916c4d	-0.2840294
50	0xbf00b904	-0.5028231
51	0xbdcd31c1	-0.100192554
52	0xbebd3d29	-0.36960724
53	0x3f1930cc	0.59840083
54	0x3eb3c41c	0.35110557
55	0x3ead7656	0.33879346
56	0x3ea9e266	0.3318054
57	0x3d0741e4	0.033021823
58	0x3f16be2c	0.5888393
59	0xbea9b6b8	-0.33147216
60	0x3de37965	0.111071385
61	0xbebe070b	-0.37114748
62	0x3ea02d68	0.31284642
63	0xbdc340ef	-0.095338695
64	0x3e864711	0.26226094
65	0xbd577211	-0.052599017
66	0x3f13e61f	0.5777301
67	0xbe9bc763	-0.30425557
68	0xbe97a444	-0.29617512
69	0xbe6e1921	-0.23251773
70	0x3f2df354	0.67949414
71	0x3ebb9228	0.36634946
72	0x3f1ed305	0.6204074
73	0xbeddb3a6	-0.43301123
74	0xbf077afc	-0.52922034
75	0xbee056e8	-0.43816304
76	0xbea610b3	-0.32434615
77	0x3ea94f94	0.33068526
78	0x3ead29b2	0.33820873
79	0x3f1985e6	0.5996994
80	0xbe6fcdd2	-0.23418358
81	0xbe8faf87	-0.28063604
82	0x3ebc190d	0.36737862
83	0xbe09c183	-0.13452725
84	0x3ee12994	0.43977034
85	0xbd44ba05	-0.048028965
86	0x3ec58cab	0.38583884
87	0xbece4600	-0.4028778
88	0xbe67ad8c	-0.22624797
89	0x3e6db5aa	0.2321383
90	0x3e604768	0.2190224
91	0x3bd17e38	0.0063932203
92	0x3ed5e55f	0.4177656
93	0x3eeee73b	0.4666079
94	0xbec0f748	-0.3768866
95	0xbe29cc82	-0.1658192
96	0x3f290e50	0.66037464
97	0xbe1a32bf	-0.1505842
98	0xbe29625e	-0.1654143
99	0xbf08277c	-0.5318525
100	0xbe6b2cdb	-0.2296633
101	0x3e643e10	0.222893
102	0x3c55e348	0.013054676
103	0xbeac4d72	-0.33652836
104	0x3dd5f3a5	0.10446862
105	0xbe96a017	-0.29419014
106	0xbf02f267	-0.51151127
107	0xbe6c9069	-0.23101963
108	0xbed47b41	-0.41500285
109	0xbea9e7b8	-0.331846
110	0x3f44cf37	0.76878685
111	0x3e505bf4	0.20347577
112	0x3e87b3e3	0.2650443
113	0xbee936d5	-0.45549646
114	0xbe8fcb36	-0.28084725
115	0xbe2c2c7f	-0.16813849
116	0x3e6073cb	0.21919172
117	0xbee0a294	-0.43874037
118	0xbe422575	-0.18959601
119	0xbe8b5a03	-0.2721711
120	0x3e090188	0.1337949
121	0xbde0bb1a	-0.10973187
122	0x3d7b6b12	0.061381407
123	0xbea6973f	-0.32537267
124	0xbeaa3f25	-0.332513
125	0xbe62d0ca	-0.22149959
126	0xbdbcbb53	-0.09215417
127	0xbeca7968	-0.3954575
128	0x3f169982	0.58827984
129	0xbc10cec7	-0.008838362
130	0x3f1c9118	0.61158895
131	0x3e988871	0.29791597
132	0xbee10c9f	-0.43954942
133	0x3f026190	0.5093012
134	0xbd8386c4	-0.06422189
135	0xbe17d3c3	-0.14826874
136	0xbed1631b	-0.40895924
137	0xbf03cc7b	-0.5148389
138	0x3e79351e	0.24336669
139	0xbdbfa0d3	-0.09356847
140	0x3ea42ef4	0.32067072
141	0xbecff788	-0.4061854
142	0x3f0e5773	0.55602187
143	0xbea7cced	-0.32773533
144	0xbb00e248	-0.0019666124
145	0x3e6770a9	0.2260157
146	0x3ec53f31	0.38524774
147	0x3f05bd6a	0.5224215
148	0x3f2825f6	0.65682924
149	0xbec942ba	-0.3930872
150	0x3e65a466	0.22425994
151	0xbe002779	-0.12515058
152	0x3d3d3885	0.04619648
153	0xbeb04b4a	-0.3443244
154	0x3f39f57d	0.7264021
155	0xbeaffd0b	-0.34372744
156	0x3ee523bb	0.44753823
157	0x3e89ca6b	0.26912245
158	0x3eaecd1a	0.34140855
159	0xbe587b00	-0.21140671
160	0x3f1a9935	0.60390025
161	0x3e30e201	0.17273714
162	0x3e3cc230	0.18433452
163	0xbedd64f4	-0.43241084
164	0x3eac43e6	0.33645552
165	0xbd0f7014	-0.035018995
166	0xbe2c2d39	-0.16814126
167	0x3f116c3b	0.5680577
168	0x3e46bfe2	0.19409135
169	0xbe776837	-0.24160849
170	0xbe5b2f8f	-0.21404861
171	0x3d9eeeaf	0.07760369
172	0x3ebc6e48	0.36802888
173	0xbdc71a5d	-0.09721825
174	0xbe885ab3	-0.26631698
175	0xbe2b42e5	-0.16724737
176	0xbebc5245	-0.36781517
177	0x3e9e8931	0.30964044
178	0x3f186d4b	0.5954177
179	0xbef12412	-0.47097832
180	0x3e82edcc	0.2557205
181	0x3ed296a1	0.41130546
182	0x3e5054f1	0.20344903
183	0xbdf456df	-0.11930632
184	0x3ecb44de	0.3970098
185	0x3ed8e682	0.42363364
186	0x3e8fd9ab	0.28095755
187	0xbd2a4281	-0.04156733
188	0xbda4a784	-0.080397636
189	0x3e2a69db	0.16641943
190	0xbc7ecef9	-0.015552276
191	0xbd23ac03	-0.039958965
192	0x3edc60f0	0.43042707
193	0x3f138280	0.57621
194	0xbbf0713f	-0.0073377187
195	0x3d3e95bb	0.046529513
196	0x3defbedb	0.11706325
197	0x3c849c50	0.016187817
198	0x3e369db7	0.17833601
199	0x3e700856	0.2344068
200	0xbee26f49	-0.4422553
201	0xbe057aae	-0.1303508
202	0x3f15ddf1	0.5854178
203	0x3e953e40	0.29149055
204	0x3d29ba11	0.041437212
205	0xbe7b23a2	-0.24525312
206	0xbeaa9f7f	-0.3332481
207	0xbee44254	-0.44581854
208	0xbdbfc649	-0.09363992
209	0x3e6a5124	0.22882515
210	0x3efdb4d3	0.4955202
211	0x3ebe97d9	0.37225226
212	0xbedeb25b	-0.4349545
213	0xbe82a017	-0.25512764
214	0x3cc2aca1	0.023763957
215	0x3f1eed8b	0.6208121
216	0x3e3a8732	0.18215635
217	0xbd59a7ef	-0.05313867
218	0x3e9272c7	0.28603193
219	0xbe030c20	-0.12797594
220	0xbeaf158a	-0.3419612
221	0x3f0075a6	0.5017952
222	0xbe321bc1	-0.173934
223	0xbd0acdbf	-0.03388762
224	0xbf05d9e3	-0.52285594
225	0x3f03eb51	0.5153094
226	0x3f140232	0.5781585
227	0x3e9f91d5	0.3116595
228	0xbea980b8	-0.33106017
229	0xbef5cd9a	-0.48008424
230	0xbead0d90	-0.3379941
231	0x3f110e80	0.5666275
232	0x3ebb684d	0.36603013
233	0x3f1741e0	0.5908489
234	0x3ec05137	0.37561962
235	0x3e73ee7a	0.2382144
236	0x3d925751	0.071455605
237	0xbec3772e	-0.38176864
238	0xbee4b8cd	-0.44672242
239	0xbf04a1f9	-0.5180965
240	0x3ea9ca6d	0.3316225
241	0xbe46dfce	-0.19421312
242	0xbcf500bc	-0.029907577
243	0xbe80306a	-0.25036937
244	0xbc6cc3c4	-0.014450971
245	0xbeaa67bd	-0.3328227
246	0xbeaead93	-0.34116802
247	0x3e897c80	0.26852798
248	0xbdaeb224	-0.085300714
249	0x3eebeca9	0.46078995
250	0xbdee982b	-0.116501175
251	0xbe9f1f55	-0.31078592
252	0xbb87992e	-0.0041381335
253	0xbe6ed838	-0.23324668
254	0x3c539547	0.012914008
255	0xbef17034	-0.47155917

networks.1.w f4 [100, 3]
0	0xbc426544	-0.011864964
1	0xbb1d5637	-0.0024007687
2	0x3c38999b	0.011267091
3	0xbb96c4b9	-0.004601088
4	0xbabceca1	-0.0014413783
5	0xbbb9a5f7	-0.0056655365
6	0xbb648143	-0.0034867085
7	0xbbc99e90	-0.0061529353
8	0x3c27cad2	0.010241227
9	0xbb8a6ae3	-0.0042241677
10	0x3b515bfc	0.0031945696
11	0xbb1998d7	-0.0023437047
12	0xbcb81334	-0.022470094
13	0xbb8d21e5	-0.004307019
14	0x3c3d8ecf	0.011569693
15	0xbbe740ec	-0.0070573
16	0x3b42b8e3	0.0029712252
17	0xbb17eb8f	-0.0023181175
18	0x3d3253eb	0.04353706
19	0xbd2dfa45	-0.042475004
20	0xbc8a2ebd	-0.01686799
21	0xbbfdcb9f	-0.007745221
22	0x3b7f5dc0	0.0038965791
23	0x3b815aa7	0.003947574
24	0xbb4811cc	-0.0030528186
25	0xb9206be2	-0.00015298979
26	0xbac1c5f1	-0.0014783723
27	0xbbdef952	-0.0068046236
28	0x3aa09c25	0.0012253566
29	0x3bb6582f	0.0055647115
30	0x3c4fba97	0.012678764
31	0x3c009d46	0.007849997
32	0xbc3cab5b	-0.011515464
33	0xbbdd3a12	-0.0067513073
34	0xb9666f24	-0.00021975912
35	0xbbc92697	-0.0061386335
36	0xbb1677fe	-0.0022959705
37	0xbbd05de1	-0.0063588475
38	0x3b08931e	0.0020839642
39	0x3bc593fb	0.0060296035
40	0x3aa951db	0.0012918072
41	0xbbd9bc7c	-0.0066447835
42	0x3b823678	0.0039737783
43	0xbbdc8840	-0.0067301095
44	0xbbbd6d15	-0.005780826
45	0xbb0d442f	-0.0021555533
46	0x3b382481	0.002809793
47	0x3c38e8b3	0.011285949
48	0x3c1bcd84	0.009509448
49	0x3bb7bdc6	0.0056073396
50	0xbc1b659d	-0.009484676
51	0xba6d9a47	-0.00090638216
52	0x3b0dd830	0.002164375
53	0xb9dec266	-0.00042487978
54	0xbbef0fc8	-0.0072955824
55	0xb909271a	-0.00013079905
56	0x3baf74da	0.005354506
57	0xba21fa72	-0.0006178982
58	0xba53fbdc	-0.0008086541
59	0xbc141a2b	-0.009039442
60	0x3dc84e30	0.09780538
61	0xbdd9fcb9	-0.10643906
62	0x3b0f4147	0.0021858977
63	0x3a51c0af	0.00080014294
64	0x3c1b9fd1	0.009498552
65	0xbb8844dd	-0.0041586
66	0x3ab2b8e1	0.001363542
67	0xbb0eb5cb	-0.0021775838
68	0x3c015dc9	0.007895895
69	0xbb9a58d9	-0.0047102985
70	0xbaadb151	-0.0013251697
71	0x3beeb29a	0.0072844746
72	0xbbb7e664	-0.0056121815
73	0x3bc4cf7a	0.0060061784
74	0xbac26e0c	-0.0014833822
75	0x3dda159e	0.106486544
76	0xbdf712e9	-0.12064154
77	0xbbd0aea2	-0.006368474
78	0x3c7d0366	0.015442705
79	0x3be12404	0.0068707485
80	0xbc99c1ea	-0.018769223
81	0x3c9b4937	0.01895581
82	0xbc53d8f8	-0.012930147
83	0xbbb3c5b7	-0.005486216
84	0xbbcfbb4b	-0.0063394657
85	0x3b2ee0a5	0.0026684192
86	0x3c11af9c	0.008891966
87	0xbc549d8f	-0.012977018
88	0x3a20f771	0.0006140387
89	0x3be185b3	0.0068823933
90	0x3c8da9b6	0.017292839
91	0xbac81b9e	-0.001526702
92	0xbc28bf85	-0.010299568
93	0x3b05f0f3	0.0020437806
94	0xbc295f56	-0.010337671
95	0x3baa98e2	0.0052062133
96	0x3cd9e4de	0.02659839
97	0xbbccb770	-0.0062474534
98	0xbca1e8c2	-0.019764308
99	0xbc060d74	-0.008181918
100	0x3c2633eb	0.010144214
101	0xbb1bd83f	-0.0023780016
102	0xbc49d292	-0.01231827
103	0xbbdba23f	-0.006702691
104	0x3c30c2df	0.010788648
105	0xba5ad0c9	-0.00083471515
106	0xba3b083c	-0.0007134711
107	0x3c6c4058	0.014419638
108	0x3c666a78	0.01406347
109	0xbc9238fb	-0.017849436
110	0x3c027caf	0.007964297
111	0xbc08bf34	-0.008346368
112	0xbb31fabb	-0.0027157504
113	0x3c5ca23e	0.013466416
114	0x3c05ca0a	0.008165846
115	0x3b8cd651	0.0042980094
116	0x3bb82648	0.005619798
117	0xba31e4fd	-0.0006786136
118	0x3ac2f3fa	0.0014873736
119	0x3c3a322d	0.011364502
120	0xbc2cc33a	-0.0105445925
121	0x3b44b5f4	0.003001568
122	0x3ca6d73e	0.020366307
123	0x3c09ba46	0.008406227
124	0x3ab37fa3	0.0013694655
125	0x3b09c997	0.0021024698
126	0x3c242da2	0.010020645
127	0xbba9af9c	-0.005178405
128	0x3b8c3de1	0.0042798375
129	0x3b54a749	0.0032448343
130	0x3c0fb4da	0.008771146
131	0xba814023	-0.0009861033
132	0xbc101be9	-0.008795717
133	0x3b6c054c	0.00360139
134	0xba7c4b6c	-0.0009624276
135	0x3c57f815	0.013181706
136	0x3b105c56	0.0022027693
137	0xbc5c8aef	-0.013460859
138	0xba9c7c63	-0.0011938926
139	0x3a520fe3	0.00080132316
140	0x3bb5af2a	0.005544563
141	0xbc07338f	-0.008252039
142	0x3ba4d0ee	0.005029789
143	0x3c15668e	0.009118689
144	0x3c2ce1a9	0.010551848
145	0x3c01744e	0.007901264
146	0xbaddb8a6	-0.0016915991
147	0x3c7a5a5f	0.015280335
148	0x3b1c8e3e	0.0023888494
149	0xbcab017b	-0.02087473
150	0xbbc30b1e	-0.005952253
151	0xbc019aeb	-0.0079104705
152	0x3b29442c	0.0025827987
153	0x3c4e3fa3	0.012588414
154	0x3b9103f2	0.004425519
155	0xbb160b08	-0.0022894759
156	0x3ad655b7	0.0016352449
157	0x3c1d72c8	0.0096098855
158	0xbb489a0d	-0.00306094
159	0x3b879cd8	0.0041385703
160	0xbb63ef97	-0.0034780258
161	0xbc4c7334	-0.012478638
162	0x3cadbd94	0.021208562
163	0x3aa8e677	0.0012886067
164	0xbb2ff210	-0.0026847161
165	0xbc9d95e5	-0.019236514
166	0xbae0c813	-0.001714947
167	0x3c10a811	0.008829133
168	0x3c442f66	0.011974191
169	0x3be4d9df	0.00698398
170	0xbb16ce97	-0.002301132
171	0xbc57b47f	-0.013165592
172	0xbc45b37c	-0.012066718
173	0x3c113d6e	0.008864744
174	0x3c2818eb	0.010259847
175	0xb9f1b96b	-0.0004610525
176	0xbb44d9cc	-0.0030037044
177	0x3bc49326	0.005998987
178	0xbb33d6f8	-0.0027441364
179	0x3b0ff666	0.0021966933
180	0xbbf7b508	-0.0075594224
181	0xbbb140c6	-0.005409333
182	0x3bb268b4	0.0054446105
183	0xbc8db555	-0.01729838
184	0x3a7ee20b	0.0009723014
185	0x3c338f11	0.010959403
186	0xbbd55c7c	-0.006511269
187	0x3bd25835	0.0064192065
188	0xbbf3b222	-0.0074370066
189	0xbc88c284	-0.016694315
190	0xbc83a9b8	-0.01607214
191	0x3c481aec	0.01221345
192	0xbaaa1612	-0.0012976548
193	0x3ca4bd40	0.020109773
194	0xbc58dd58	-0.013236366
195	0xbbcb048c	-0.0061956104
196	0x3b3ed4bb	0.0029118496
197	0xbb6731a9	-0.0035277402
198	0xbc88f6ca	-0.01671924
199	0x3c228793	0.009920019
200	0x3cd0b8ea	0.025478799
201	0xbc1805f2	-0.009278761
202	0xbc110012	-0.008850114
203	0x3b05ab8f	0.0020396446
204	0xbb9074db	-0.0044084615
205	0x3ac0a03b	0.001469619
206	0x3aca3031	0.0015425739
207	0x3c0cc55a	0.008591974
208	0x39965b51	0.00028678266
209	0x3a4a8712	0.00077258155
210	0x3c3de368	0.011589862
211	0x3bba41ba	0.0056841047
212	0xbc731974	-0.0148376115
213	0x3cb37e43	0.021910792
214	0xbc04f92a	-0.008116046
215	0xbc05a719	-0.008157515
216	0xbc8e8f7d	-0.017402405
217	0xbc19d99c	-0.009390261
218	0x3c15342b	0.009106676
219	0xbb0d596e	-0.0021568197
220	0x3b695e61	0.0035609233
221	0x3c4e3102	0.012584927
222	0x3b80df91	0.003932901
223	0xbc7fcf96	-0.015613457
224	0x3bc58792	0.006028124
225	0x3a328636	0.000681016
226	0xba678863	-0.0008832274
227	0x3bf02e1f	0.007329717
228	0x3c9f4c25	0.019445488
229	0xbbefa4c4	-0.0073133428
230	0xbc5dcbdb	-0.013537372
231	0xbb0fb51b	-0.0021928016
232	0x3a51c2c7	0.00080017414
233	0xbc5eab6b	-0.013590674
234	0x3c740668	0.0148941055
235	0xbc011b9b	-0.007880117
236	0xba81dccf	-0.0009907725
237	0xb96f07da	-0.00022795741
238	0xbbdc7c0d	-0.006728655
239	0xb8ee76ee	-0.00011370877
240	0x3b0bab47	0.0021311806
241	0xbafb3c65	-0.0019167779
242	0x3a2cb0be	0.0006587616
243	0x3c3d05cf	0.011537029
244	0x3c29358d	0.010327709
245	0xbd0e3aee	-0.03472417
246	0xbbf8779f	-0.0075826193
247	0xbb03383b	-0.002002253
248	0x3bcfc170	0.006340198
249	0xbb63ea96	-0.0034777275
250	0xbb469387	-0.0030300335
251	0xbc00c5c7	-0.007859654
252	0xbc0ca2d8	-0.008583747
253	0xbc19047d	-0.009339449
254	0x3baa9c62	0.0052066306
255	0x3b3b15ad	0.0028546855
