code_tidy/model_step2/zy_f02.pt (torch, 10706 bytes, 2 tensors)

networks.0.w f4 [20, 100]
000000 ca 7f 12 3f af c9 02 3f 18 61 fa bc d9 af 16 3f
       0.5722624 0.51088995 -0.030563876 0.5886207
000010 e3 13 6a bd 96 14 62 3e c2 1e 19 be 54 e6 cd 3e
       -0.05714787 0.22078165 -0.1495314 0.4021479
000020 6d 4c 18 3f e1 32 cf be ea 16 32 3f b9 d8 04 3e
       0.59491616 -0.40468505 0.69566214 0.12973298
000030 57 28 e8 3e fe 52 5c 3e 42 40 c3 3e 6b f6 b9 bd
       0.45343277 0.21516034 0.38134962 -0.090802036
000040 22 24 23 3f 60 d7 1b 3e 32 3f 82 be ea eb 92 3e
       0.6372701 0.15218878 -0.2543884 0.28695613
000050 5b e9 e1 be 09 d0 2e bd d0 15 ff bd 4e 97 e2 3e
       -0.4412335 -0.042678867 -0.12455332 0.4425606
000060 2d fa e3 be ca fb b1 bd e9 5e 92 3d b6 52 8e be
       -0.44526806 -0.08690603 0.07147009 -0.27797478
000070 89 1e 12 3e 6e 66 fc be d0 a4 56 3f 36 e7 da be
       0.1426946 -0.49296898 0.83845234 -0.42754525
000080 79 60 12 3f 81 6d 10 3e 6f 3d d7 bd a6 4f cd 3e
       0.57178456 0.14104272 -0.105097644 0.4009983
000090 ad 7c 62 3e 3a 3f 0d 3f e2 67 0d 3e 76 bb d9 bd
       0.22117873 0.551746 0.1380916 -0.106314585
0000a0 eb 6e 5d 3e d8 ec 88 bd 31 d8 bf 3e 33 5e 11 3f
       0.21624343 -0.06685799 0.37469628 0.5678436
0000b0 55 3c e4 3e c3 dc 2b be 87 14 bd 3e 22 aa 13 3e
       0.4457728 -0.16783433 0.36929724 0.1442037
0000c0 e9 98 b9 3e 8c ff 65 be 9a a3 f8 be 69 68 ce bd
       0.36249474 -0.22460765 -0.48562318 -0.100785084
0000d0 97 2e b9 be 52 19 4e 3f 8e 1c 04 3f 8c 92 9e 3e
       -0.36168358 0.80507386 0.5160607 0.3097118
0000e0 70 6d a7 3e 77 ff 78 3d 80 dc 40 3f ed 81 61 be
       0.32700682 0.060790505 0.75336456 -0.22022219
0000f0 2c 7a 09 3e be b6 b3 be 23 d7 8b 3e 3f d4 c1 bd
       0.13425511 -0.3510036 0.27312574 -0.09464311
000100 5b 17 9e 3e e2 6f d5 bd a7 6b 11 3f d5 dc a2 be
       0.30877194 -0.104217306 0.5680489 -0.31809106
000110 85 03 94 be 4c 2a 8c be db ad 57 3f 3d d9 09 3f
       -0.28908935 -0.2737602 0.8424966 0.53847104
000120 87 97 17 3f bd 33 df be 24 b6 00 bf d0 27 dd be
       0.5921559 -0.4359416 -0.50277925 -0.43194437
000130 26 b9 90 be 24 95 ab 3e 72 66 0c 3f af c8 14 3f
       -0.28266257 0.33512223 0.5484382 0.5811872
000140 c3 e7 83 be 1e c2 9b be 8d 71 ba 3e 41 69 a3 bd
       -0.25762758 -0.30421537 0.36414757 -0.0797906
000150 26 a0 c3 3e ae bf 82 3d c5 d7 db 3e 60 a0 c4 be
       0.3820812 0.06384216 0.42938057 -0.38403606
000160 6f cd 6c be 3d 62 54 3e 7b 0b 27 3e 2d eb 77 3d
       -0.23125242 0.207406 0.16312973 0.060527015
000170 aa 77 b2 3e 6f 2c df 3e 2e a0 bf be a2 d7 1c be
       0.3485692 0.43588588 -0.37426895 -0.15316632
000180 90 91 2d 3f 59 0a 2e be e0 87 25 be 8b ea 03 bf
       0.67800236 -0.16996135 -0.16165113 -0.5152976
000190 81 64 54 be 1d de 36 3e df 27 2d 3d 8d f0 b8 be
       -0.20741464 0.17858167 0.042274352 -0.36121026
0001a0 ae 77 ce 3d 72 60 8f be b4 c9 cf be 7b 1d 5e be
       0.10081421 -0.2800327 -0.40583575 -0.21690933
0001b0 57 0d dd be ee e4 ad be 41 9b 4b 3f 4d 0c 17 3e
       -0.4317424 -0.33963722 0.79533774 0.14750786
0001c0 18 68 52 3e 37 7a d8 be 42 ec 9d be a8 d6 2b be
       0.20547521 -0.42280743 -0.30844313 -0.16781104
0001d0 7e 37 86 3e d0 a0 dc be cc 22 7f be 08 69 5c be
       0.26214212 -0.4309144 -0.24915618 -0.21524441
0001e0 9b dd 9d 3d 7d 07 50 be 7f 38 9d 3d 3f 6b a7 be
       0.077082835 -0.20315357 0.076767914 -0.3269901
0001f0 cc 95 b6 be 4d 62 2f be 0d 1d 38 3d 96 d9 cd be
       -0.3566116 -0.17127343 0.04494958 -0.40205067
000200 ed 9a 11 3f 20 64 05 bc 98 fc 55 3f 41 ab 7e 3e
       0.56877023 -0.008141547 0.8358855 0.24870016
000210 03 bc c7 be f8 9c d4 3e de 15 6f bd a4 f5 39 be
       -0.3901063 0.41526008 -0.058370464 -0.1816011
000220 64 bf b7 be c1 56 02 bf d1 5a 86 3e 60 ca 79 bd
       -0.35888207 -0.50913626 0.26241162 -0.060984015
000230 1f 25 a0 3e 76 31 c5 be 74 dd 0e 3f 37 85 b5 be
       0.3127832 -0.38514298 0.5580666 -0.35453197
000240 21 1b be 3b 44 e5 68 3e f6 5a af 3e b9 44 04 3f
       0.005801574 0.22743708 0.34249085 0.5166736
000250 4b 2c 1b 3f e6 61 a2 be 0d 50 77 3e 07 43 09 be
       0.6061446 -0.31715316 0.2415163 -0.13404475
000260 9a fc 19 3b 0c a7 df bd cf b9 5e 3f 2c 31 b8 be
       0.002349651 -0.109205335 0.8700227 -0.35975015
000270 3c a3 cf 3e 09 f2 9b 3e fd 6d fd 3e a4 65 18 be
       0.40554225 0.30458096 0.49497977 -0.14882523
000280 81 9e 1e 3f 34 ff 18 3e 63 17 1c 3e 7e 03 d4 be
       0.6196061 0.14941102 0.15243296 -0.41408914
000290 7d 56 bc 3e e6 2f 8f bd 2c 44 1a be 89 34 05 3f
       0.36784735 -0.06991558 -0.15065068 0.5203329
0002a0 5d bd 27 3e ca 91 67 be f5 ea 43 3d e8 89 96 3e
       0.1638083 -0.22614208 0.047831494 0.2940209
0002b0 af f3 c0 3e ee 5d af bd 14 2b 6f be 81 12 4d be
       0.37685916 -0.085628375 -0.23356277 -0.2002659
0002c0 1d 01 a3 be b6 65 88 3e 17 47 42 3f ad 34 ed be
       -0.31836787 0.266401 0.75889724 -0.4632925
0002d0 12 db 36 3e b3 69 e4 3e ad 8a 27 3e 99 13 8d bd
       0.17857006 0.44611892 0.16361494 -0.068885036
0002e0 5e f5 a8 3e 77 bd 07 3f d9 df 9c 3e fc 97 34 bd
       0.329997 0.53023475 0.30639532 -0.044090256
0002f0 ef 2b 94 bd f0 e0 a4 3d 96 35 33 bd 53 42 30 3d
       -0.07234942 0.08050716 -0.043752275 0.043032
000300 ef e5 c7 3e c6 b9 0c 3f ca ac df bc 60 1c 91 3c
       0.39042613 0.5497097 -0.027304072 0.017713726
000310 bb 14 04 3e 11 54 2f 3a 2f e8 59 3e 58 c6 6f 3e
       0.12898533 0.0006688247 0.21279977 0.23415506
000320 cb 16 d3 be ba fa 1f be db 1d 1f 3f 34 30 92 3e
       -0.41228327 -0.15622988 0.6215493 0.285524
000330 ff ea 91 3d 2a 66 7c be e2 48 8b be 67 d1 d3 be
       0.071249 -0.24648347 -0.27204043 -0.413707
000340 b4 7a de bd 94 3c 51 3e 61 6a 11 3f 8f a6 95 3e
       -0.108632475 0.20433265 0.56802946 0.29228637
000350 d4 b9 f4 be fa de 83 be c3 cf d8 bb 94 90 17 3f
       -0.47798026 -0.25756055 -0.006616564 0.59204984
000360 d8 11 82 3e 7c 36 a1 bd e4 a1 88 3e c1 0d a6 bd
       0.2540424 -0.0787172 0.26686013 -0.08108092
000370 b9 a1 d0 be 8e 33 ce 3e e5 b4 06 be 0b 11 cd bc
       -0.40748385 0.40273708 -0.13154943 -0.02503254
000380 0d 99 07 bf ec 02 1a 3f 5e 5e 33 3f f6 a5 a2 3e
       -0.5296791 0.6016071 0.7006587 0.31767243
000390 73 c0 9f be 68 1c ee be 5e d4 0b be a1 39 05 3f
       -0.31201515 -0.46506047 -0.1365523 0.5204106
0003a0 55 1d db 3e ba 1f 05 3f 74 82 cc 3e a1 c3 4d 3e
       0.42795816 0.52001536 0.39943278 0.20094158
0003b0 e2 46 05 3e 8c cc b9 be c7 97 d4 be 27 e0 f4 be
       0.13015321 -0.3628887 -0.41522047 -0.47827265
0003c0 e5 98 9e 3e 13 61 30 be 2d 42 eb bc 9f 56 96 be
       0.30976024 -0.17224531 -0.028718079 -0.29362962
0003d0 c8 79 96 3c 8e f4 b4 be a0 c8 af be 1a ff 73 3e
       0.018368617 -0.3534283 -0.34332752 0.23827782
0003e0 c4 fc ce bd a5 49 04 3f eb bd fe bd fa a8 b0 be
       -0.10106805 0.5167487 -0.12438568 -0.3450392
0003f0 db 77 23 bd b7 1a 29 3d e0 d9 13 3e 1e 67 fe be
       -0.039909225 0.041285243 0.14438581 -0.49688047

networks.1.w f4 [100, 3]
000000 25 0d ee bc 57 6a a9 bc 7a 41 1d 3d 2d 13 e2 bc
       -0.029059002 -0.02068059 0.03839252 -0.027597034
000010 9b 3e ee ba db 30 84 3c 84 26 5f bc 3b ed ba bc
       -0.0018176617 0.016136577 -0.013620023 -0.022818198
000020 4d e8 f8 3c 9c 86 48 bc e3 c0 6b 3c 73 34 54 bb
       0.030384207 -0.012239125 0.0143892495 -0.0032379895
000030 24 bc 21 bd 14 90 62 bc 34 7c 06 3d 77 00 92 bc
       -0.039486066 -0.013828296 0.032833293 -0.017822487
000040 ee 8d 2e bc 0f 2f 93 3c ac 15 c6 3d 8f 1f 45 bc
       -0.010653956 0.017966775 0.09672102 -0.01203145
000050 5b 54 bc bd bd b6 c3 bc 0c 6b fb bb ce 19 e6 3c
       -0.09195777 -0.023890847 -0.007672673 0.028088477
000060 bc 7f 88 bc d4 f8 6c 3c 82 b8 f1 ba 82 9f bd bc
       -0.016662471 0.014463622 -0.0018441828 -0.023147348
000070 8a f2 10 3c 83 d5 7e 3c 9c 73 bb 3c 88 1a 89 3c
       0.008846888 0.015553835 0.022882275 0.016736284
000080 34 f2 e4 bc a9 95 cd bc 6d 17 1f 3c 5c b6 c5 3a
       -0.027947523 -0.025095778 0.009710175 0.0015084255
000090 c8 1f 7a bc 57 1d 9c 3b 9f e2 8d 3b 8f 8e 62 bb
       -0.015266366 0.00476424 0.004329994 -0.0034569835
0000a0 1b 1a a3 3c 48 22 87 bc 1e 7b 9b 3a d6 df 37 3c
       0.019909909 -0.016495839 0.0011862253 0.0112228
0000b0 21 8c 98 bc f5 b3 51 bc 82 dc 2c 3c 4e c1 69 3c
       -0.018621506 -0.012799253 0.01055062 0.014267279
0000c0 1e 79 89 3c a9 3e 8d 3c 03 dc d3 bc 3b b3 69 bc
       0.016781386 0.017241793 -0.025861746 -0.014263923
0000d0 0f d0 43 3b 67 97 17 3c b9 41 8e bc 12 18 e1 3b
       0.0029878651 0.009252406 -0.017365323 0.0068693245
0000e0 34 0c 15 3c 3a e1 95 bb d4 f6 95 3c 08 f1 bf bc
       0.009097148 -0.0045739682 0.018306173 -0.023430362
0000f0 75 1f e5 3c 40 33 89 bd c6 88 8d 3b 27 44 46 bc
       0.027969101 -0.06699228 0.004319283 -0.01210121
000100 4c 83 b8 3c 5e cd 1e bb f1 17 55 bc 59 e4 de bc
       0.022523545 -0.0024231295 -0.013006196 -0.027208494
000110 14 36 25 3d e4 ea 9d bc 8f c6 82 bb b0 61 bb 3c
       0.040334776 -0.019277044 -0.003990955 0.02287373
000120 78 6f 1f bc 19 04 3b 3c ba cf 02 38 ce af 08 3e
       -0.009731166 0.011414551 3.1187876e-05 0.13348314
000130 f0 83 c7 bd 1f 9a 9d bd 74 1e 26 3d d4 c2 3e ba
       -0.09741962 -0.07695412 0.040556386 -0.00072769565
000140 55 d5 04 bd de d5 67 3d 92 61 8a ba f4 3c 5c bd
       -0.03243001 0.056600444 -0.0010557643 -0.053769067
000150 30 3a 35 bc 21 4c 3b bc 4c 4c bc 3c 3a 8b a3 bc
       -0.011061236 -0.011431725 0.0229856 -0.01996385
000160 d9 2d 82 bc be bb db 3c 61 d8 37 3d d5 f2 57 bc
       -0.015891002 0.02682292 0.04488409 -0.013180454
000170 c9 a6 b9 bc e9 1d 93 bc a5 bb 08 3c 19 df c1 3b
       -0.022662537 -0.017958598 0.008345519 0.005916488
000180 24 9e 38 3a e7 b0 dd bc 0a 61 c6 3c b0 14 72 bc
       0.0007042608 -0.027061893 0.024216194 -0.01477544
000190 b8 b1 c6 3c 15 03 01 bc 57 71 c0 bc 23 29 24 bc
       0.024254665 -0.00787427 -0.023491545 -0.010019573
0001a0 38 d4 ad 3c 95 be de bb 5b be a9 bb 08 e9 d4 3c
       0.021219358 -0.0067976215 -0.005180163 0.025990024
0001b0 22 21 76 bc 74 b4 a8 bb ab 4e b3 3c 45 de 6e bc
       -0.015022548 -0.005148465 0.021888098 -0.01457936
0001c0 b0 ec 39 bc 72 16 cc 3c ba aa e5 bb a6 3d 26 bc
       -0.011347935 0.024913047 -0.0070088776 -0.010146534
0001d0 71 2e fe 3c 3a 28 31 bc a4 2b fe bb e7 57 f0 3c
       0.031028004 -0.010812813 -0.007756667 0.02933879
0001e0 3e 2d e9 bc 58 65 11 bc 56 67 38 3d 8d 18 d8 bb
       -0.028463956 -0.00887426 0.045020424 -0.0065947236
0001f0 b8 93 8a b9 01 09 8c 3c a8 54 40 39 2a 90 9f 3c
       -0.0002643147 0.017094137 0.00018342084 0.019477922
000200 ee cb 30 bc 9c d3 6b bc 33 25 e2 3b e0 34 8e 3c
       -0.010790808 -0.014393713 0.006901407 0.017359197
000210 f6 ec b0 bc d5 a2 46 bc 41 98 b4 3c a7 b5 b4 3d
       -0.021597367 -0.012123783 0.022045257 0.0882371
000220 75 86 41 bd 31 3a 80 bd 7c b5 16 bc 1c 50 1c 3c
       -0.04724737 -0.06261099 -0.009198543 0.009540584
000230 db 18 d1 3b aa 1d b3 bc e1 39 c3 3b b2 83 ac 3c
       0.006381137 -0.02186473 0.0059578274 0.021058891
000240 20 52 9a bb 9d 7c 96 3c 67 03 fb 3a bd 61 da bc
       -0.004709497 0.018369967 0.0019150794 -0.026657933
000250 88 54 e0 bc 27 2a 40 3d 2f 1e 82 bc 4e 11 fa 3b
       -0.027384058 0.0469152 -0.015883533 0.0076314574
000260 48 d0 0f bb ac 53 56 3d a0 36 8d bb f7 24 33 bd
       -0.0021944214 0.05232589 -0.0043094903 -0.043736424
000270 b0 b3 62 bc 70 db 86 3c 1d b6 94 3b b9 d3 05 3d
       -0.013836786 0.016462058 0.004538311 0.032672618
000280 c9 48 3e bc 93 12 e3 bc 2c 30 34 3d 6b 20 5b bb
       -0.011614033 -0.027718818 0.043991253 -0.003343607
000290 0c 4a 84 bc 35 ab 88 bc 82 8f 26 bc a6 09 5c 3c
       -0.01614859 -0.0166832 -0.010166051 0.013430035
0002a0 2f 14 31 3b c3 a7 da 3c be 13 5d bc 00 cf 91 bc
       0.0027020087 0.026691323 -0.013493476 -0.0177989
0002b0 a6 14 18 bc f4 fa 0e 3c c0 ff ea 3c 92 d0 f5 b9
       -0.009282267 0.008726824 0.028686404 -0.00046885438
0002c0 14 44 92 bc 64 d9 64 3c 47 c9 09 3c 51 95 6d bc
       -0.017854728 0.013967846 0.008409805 -0.014500932
0002d0 c1 08 81 bc ed 93 c4 bc 7f 01 dd 3c 31 18 ad bc
       -0.015751245 -0.023996318 0.026978252 -0.0211297
0002e0 98 26 9f bb 60 71 aa 3c 87 d2 0e bc 5a c4 ef 3b
       -0.0048568957 0.020806015 -0.008717186 0.007317108
0002f0 f5 db ad bb fd 2d de bc f5 a8 b8 bc f2 f1 dc 3c
       -0.005305762 -0.027121538 -0.022541502 0.026970837
000300 84 0d 87 3c 5c 96 f7 bc 43 fc 63 3c 59 f1 72 bc
       0.016485937 -0.030223064 0.013915124 -0.01482805
000310 cc 5e 30 3c 9e c6 59 ba 8d af bd bc ed 33 20 bc
       0.010764789 -0.00083074893 -0.023154998 -0.009778005
000320 d7 b7 3d 3d 56 ee 85 bc 20 cb 99 b9 5d 8c 21 3b
       0.0463179 -0.016348999 -0.00029333774 0.0024650313
000330 5b 07 59 bc 71 a7 31 3c be b8 4c 3b 74 30 81 bb
       -0.013246383 0.010843144 0.0031238045 -0.0039425436
000340 fa 3d 4b 3c 93 4b 9c 3a 7b b0 3c 3d 46 b5 5a bc
       0.012404913 0.0011924378 0.046066742 -0.013348883
000350 32 ca d6 bc ba 30 52 3d d0 b4 aa bc 3f e5 a8 bc
       -0.026219461 0.051316 -0.020838171 -0.020617126
000360 b4 1f c4 bc 81 63 36 bc 90 c4 88 3c 68 8b cf bb
       -0.023940898 -0.011132122 0.01669529 -0.006333757
000370 3d 42 92 bc 92 c5 0e 3d 28 fe c0 bc 20 fe 68 bc
       -0.01785385 0.034856386 -0.023558691 -0.014220744
000380 10 eb dc 3c 6b e5 1e bc 0b 34 49 3c ec b8 fd 3b
       0.026967555 -0.009698252 0.012280474 0.0077429917
000390 58 7c 0d 3a 3a b5 e6 bc 20 45 c8 3c 8b 8e 0c bc
       0.0005397252 -0.028162587 0.024447024 -0.008578907
0003a0 44 94 c1 3c 73 fd ea bc 27 ea 17 3d 6a ad 43 bc
       0.023630269 -0.028685307 0.03708854 -0.011943201
0003b0 66 95 6c bc f0 45 ab bc 13 b0 e1 bb a5 d1 85 3c
       -0.014439916 -0.020907372 -0.0068874448 0.016335318
0003c0 82 a4 0f bc d3 f8 b2 3c 71 d8 29 bc 98 c6 be 3d
       -0.008767249 0.021847164 -0.010366545 0.093152225
0003d0 2a 42 ac bd 60 8d 28 bd 5d a3 92 bc 37 f5 1e bc
       -0.08411057 -0.04115045 -0.017900163 -0.009702018
0003e0 4f 80 a9 3c 32 13 69 bb 0c ee 27 3c ab b5 b8 bc
       0.020691065 -0.003556442 0.010249626 -0.022547564
0003f0 87 77 b5 bc 3b e5 84 bb 2a ad 64 3c 2b 38 64 3c
       -0.022151722 -0.0040556467 0.013957301 0.013929407
