code_tidy/model_step2/zy_f07.pt (torch, 10706 bytes, 2 tensors)

networks.0.w f4 [20, 100]
000000 b6 08 05 3f e5 69 11 3f 0b 64 b8 bd 81 bc 18 3f
       0.51966417 0.5680221 -0.09003457 0.59662634
000010 67 f7 51 bd 9e 86 4e 3e 9f c3 37 be 06 a0 e3 3e
       -0.051261332 0.2016854 -0.17945717 0.44458026
000020 73 d7 1f 3f d3 d0 dd be 56 bc 29 3f 43 0c 7b 3e
       0.62438124 -0.43323383 0.66303 0.24516396
000030 c0 3f fe 3e 5c a3 4d 3e 24 99 dd 3e 95 02 5a bd
       0.49658012 0.20081848 0.432809 -0.05322512
000040 49 44 2e 3f f7 4c 3e 3e ec 5b 62 be e3 e6 9a 3e
       0.68072945 0.18584047 -0.22105378 0.30254278
000050 94 0c f9 bd 61 19 23 3c 5e 7c 20 be 06 0b f2 3e
       -0.12160602 0.009954781 -0.15672442 0.47274035
000060 49 68 c4 be 04 b4 2f be 0e a2 88 3c 9c a4 81 be
       -0.38360813 -0.17158514 0.016678836 -0.253209
000070 15 7f ff 3d 22 f5 f1 be 51 13 3b 3f 68 08 d3 be
       0.12475411 -0.47257334 0.7307635 -0.4121735
000080 61 17 0f 3f 71 f8 2a 3e 91 73 0b be d1 73 d1 3e
       0.5589505 0.16696335 -0.13618304 0.40908673
000090 8f 29 5d 3e 1a f0 0d 3f 6a 95 04 3e 67 25 11 be
       0.21597885 0.5544449 0.12947622 -0.14174424
0000a0 95 82 62 3e 98 59 dc bd 50 7d d2 3e c5 1d 1e 3f
       0.22120126 -0.10759276 0.4111123 0.61764175
0000b0 70 1e e6 3e a2 ca 1e be 2e 8d d8 3e 3f 41 05 3e
       0.44945097 -0.15506986 0.42295212 0.1301317
0000c0 95 c8 cb 3e 5b d7 96 be 71 fd 09 bf 8a 88 10 be
       0.3980147 -0.29461178 -0.53902346 -0.14114586
0000d0 2c 68 b2 be 03 9d 3a 3f 87 0c d5 3e 13 19 b2 3e
       -0.34845102 0.7289583 0.4161112 0.34784755
0000e0 94 9a bc 3e f3 42 39 3d 0d 02 22 3f 0e b2 a7 be
       0.36836684 0.045229863 0.6328438 -0.32753032
0000f0 ae 3c 06 3e 6e 2d b4 be df 29 87 3e 07 12 b1 bd
       0.13109085 -0.3519091 0.26399133 -0.086460166
000100 3e cb 98 3e 20 d8 75 bd b0 45 18 3f fe cd a8 be
       0.2984256 -0.060020566 0.59481335 -0.3296966
000110 51 5e 9b be 83 54 8a be 03 96 3a 3f e2 b1 da 3e
       -0.30345395 -0.27017602 0.7288515 0.4271384
000120 4f bf 1e 3f a3 e0 e0 be 7b 05 04 bf 2f 6a de be
       0.62010664 -0.43921384 -0.5157086 -0.43440387
000130 9a 86 a1 be 23 d8 ab 3e 95 20 d5 3e 05 55 16 3f
       -0.31548005 0.33563337 0.4162642 0.5872348
000140 7d ae 41 be 18 7d 98 be 30 82 bd 3e c2 74 fe bd
       -0.18914218 -0.2978294 0.37013388 -0.124246135
000150 32 d5 d8 3e 49 fc 39 3d 81 5e c9 3e 28 14 c7 be
       0.42350155 0.045406613 0.39329913 -0.38882565
000160 d2 37 74 be 42 71 87 3e 49 d4 31 3e 39 20 f2 3c
       -0.23849419 0.26453596 0.17366137 0.02955638
000170 eb 7f c3 3e 0f 9e e3 3e 87 15 c2 be 05 7d 38 be
       0.3818353 0.44456527 -0.3790705 -0.18016441
000180 7c 72 26 3f 5f 09 1b be 53 4f 17 be 61 42 01 bf
       0.6501844 -0.15140294 -0.14776354 -0.5049191
000190 a4 b5 8d be 93 07 4e 3e da fa 04 bd 6e 9e ba be
       -0.27677643 0.20120077 -0.032465793 -0.36448997
0001a0 fa bb 9c 3d 49 6a a0 be 73 54 c5 be 33 45 6f be
       0.07653041 -0.3133109 -0.38540992 -0.23366241
0001b0 a4 e0 d5 be be 3f bb be b1 af 3e 3f bf 3f 75 3e
       -0.4177295 -0.3657207 0.74486834 0.23950098
0001c0 66 35 76 3e 6f 99 e4 be 4b 76 98 be f2 b6 16 be
       0.24043807 -0.4464831 -0.2977775 -0.14718226
0001d0 29 99 95 3e 5d 69 dd be 6a 03 54 be 31 a5 77 be
       0.29218414 -0.43244448 -0.20704427 -0.2418411
0001e0 e2 2d da 3d 9c 17 06 be 4d 53 5b 3d 84 80 a9 be
       0.10653283 -0.13094944 0.05354624 -0.33105862
0001f0 da ff a7 be db bc 5f be 46 92 d4 bc d9 b0 be be
       -0.32812387 -0.21849386 -0.025948655 -0.372443
000200 cf bf 12 3f 15 fc b0 3b 26 7e 37 3f 06 27 9e 3e
       0.57323927 0.0054011443 0.7167686 0.30889148
000210 f6 09 da be 6b 75 fd 3e 6c 68 9d bd 2f c9 40 be
       -0.42585725 0.49503645 -0.076859325 -0.18826745
000220 46 e9 c5 be 49 1c 00 bf 30 5a 7f 3e 8a 7c 5b bd
       -0.38654536 -0.5004316 0.24936748 -0.053585567
000230 27 07 a1 3e b4 1b e1 be 31 37 18 3f a3 90 b1 be
       0.3145077 -0.43966448 0.59459215 -0.34680662
000240 3b 21 11 3c 73 56 72 3e 35 87 ba 3e 0d 29 01 3f
       0.00885802 0.2366579 0.3643128 0.50453264
000250 20 26 26 3f 8e 61 cd be 9d e8 43 3e c5 ab 24 be
       0.64901924 -0.4011349 0.19131704 -0.1608115
000260 41 9e 44 3d 3c 05 80 be 1e f7 39 3f 76 d0 b8 be
       0.048002485 -0.25003994 0.72642696 -0.36096543
000270 42 32 e3 3e 31 43 90 3e 33 13 af 3e 31 43 71 be
       0.4437428 0.28176263 0.34194335 -0.23560788
000280 15 36 23 3f 95 cd 1e 3e ed 4b 36 3e e8 86 c6 be
       0.637544 0.15508111 0.17802401 -0.387748
000290 fc 3f bd 3e ea 2c d1 3c 93 69 25 be a7 7a 05 3f
       0.3696288 0.025534112 -0.16153555 0.5214028
0002a0 44 43 29 3e 96 96 72 be 4c 84 de bd fc bc 2c 3e
       0.16529566 -0.23690256 -0.108650774 0.16868967
0002b0 74 43 c8 3e 47 3f e8 bd 92 6e 69 be bd 30 34 be
       0.39113963 -0.11340194 -0.22796085 -0.17596717
0002c0 d7 73 be be 7a 07 ac 3e d8 aa 23 3f 89 c8 f9 be
       -0.37197754 0.33599454 0.6393256 -0.4878581
0002d0 81 b8 66 3e d7 c5 d4 3e 93 e0 24 3e a1 73 af bd
       0.2253132 0.4155719 0.16101293 -0.08566976
0002e0 c0 99 cb 3e 78 10 01 3f ba 39 8d 3e 5b 7c 9a bc
       0.3976574 0.50415754 0.27583104 -0.018858125
0002f0 62 37 b3 bd 98 7d df 3d 87 60 14 bd 2d 52 85 3b
       -0.08750798 0.10912627 -0.03622487 0.004068634
000300 9a fe dc 3e 8d 91 0b 3f 74 82 d9 bc 66 2f 93 3c
       0.43162996 0.5451897 -0.026551463 0.017966937
000310 d1 22 f0 3d 1d 42 b5 3c d4 08 60 3e fe c4 6e 3e
       0.11725391 0.022126252 0.21878368 0.23317334
000320 f3 2c eb be 9d ac 09 be 4f 46 15 3f f3 d1 8d 3e
       -0.4593273 -0.13444753 0.5831041 0.2769924
000330 bf 4c 33 3d ab 1b 8c be 57 b7 82 be 4b 7f e3 be
       0.043774363 -0.2736486 -0.25530502 -0.44433054
000340 06 cb e0 bd 68 85 61 3e 7e dd 08 3f b1 8f b7 3e
       -0.10976224 0.22023547 0.5346297 0.35851815
000350 c6 e6 f7 be 01 d3 71 be 5b b2 9b 3c 0e b1 21 3f
       -0.48418254 -0.23615648 0.019005945 0.6316079
000360 77 88 8b 3e 97 19 5d bd 23 00 95 3e 5f be bd bd
       0.27252552 -0.053979483 0.29101667 -0.09264826
000370 63 f9 9d be ea 8f 01 3f d9 be 2c be bb ed 59 bd
       -0.3085433 0.5061022 -0.16869678 -0.053205233
000380 1c 1e fe be 75 3e 07 3f c0 a2 26 3f 15 a2 a1 3e
       -0.49632347 0.52829677 0.65092087 0.3156897
000390 4e 94 a7 be 0c 4e ea be 9c 99 99 be 1b 2c 0d 3f
       -0.32730335 -0.4576267 -0.30000007 0.55145425
0003a0 a4 ed c2 3e c3 f7 1d 3f a0 98 c6 3e 7a 3e 5d 3e
       0.3807193 0.6170618 0.3878832 0.21605864
0003b0 87 f0 d8 3d d0 39 b8 be 33 8f da be b4 cc f9 be
       0.10592752 -0.35981607 -0.42687377 -0.4878899
0003c0 75 1d a1 3e 6c 7b 4d be f9 18 34 3c c2 07 7b be
       0.31467786 -0.20066613 0.010992282 -0.24514678
0003d0 06 da c1 3b 76 d3 ab be 78 ca 9f be 47 49 62 3e
       0.005915883 -0.3355977 -0.3120916 0.22098266
0003e0 35 fa 6b bd 3d a1 e3 3e e7 98 0f be f3 de b5 be
       -0.057611663 0.44458953 -0.14023171 -0.3552166
0003f0 a9 86 9d 3c b4 14 d9 bd 24 37 54 3c 41 9f f3 be
       0.01922925 -0.10599652 0.0129526 -0.4758244

networks.1.w f4 [100, 3]
000000 cd e7 96 bb 73 8e 1a bc 5b b5 22 3c 99 29 54 bc
       -0.0046052695 -0.009433377 0.009930934 -0.012949371
000010 da 3f 0d 3a f2 3d f1 3a 21 2e 73 3c 6e f8 2a bc
       0.0005388238 0.0018405302 0.014842541 -0.010435207
000020 4a bf ad bb ff 9f 32 bb 68 13 d2 39 ed 8b f6 39
       -0.0053023444 -0.002725601 0.0004006878 0.0004702503
000030 d5 c6 98 bc 03 e0 71 bc 35 7a 89 3c 31 21 26 bc
       -0.018649498 -0.014762881 0.016781906 -0.010139749
000040 0a 93 35 ba a5 6e 8c 3b e1 79 8e 3d d1 aa 14 bd
       -0.00069265126 0.004285651 0.0695684 -0.036295716
000050 2b 6e 41 bd 34 cb 96 bc 1f e7 29 3c d8 af 0f 3c
       -0.047224205 -0.018407442 0.010370045 0.008769952
000060 e3 6e fb bb 37 38 87 3b 89 94 1b 3a c4 a7 32 bc
       -0.007673131 0.0041265744 0.0005934914 -0.010904256
000070 84 6a a9 3a bf 46 16 3c 44 f8 8c 3c ab 04 20 3c
       0.0012925421 0.009172141 0.017208226 0.009766738
000080 8a 09 8b bc c5 27 2a bc 4c ef a5 3b 47 03 06 bc
       -0.016972322 -0.010385458 0.005063927 -0.008179492
000090 fe d1 e9 bb 8d ce 94 bb ba 0b 94 3b 6d d8 d5 3b
       -0.0071356287 -0.0045412243 0.0045179995 0.006526044
0000a0 3e 32 2e 3a cd b0 90 bb 37 07 8f 3b d2 35 07 bb
       0.000664506 -0.0044156075 0.0043648737 -0.0020631445
0000b0 28 04 1f bc 1b 08 9b bb 04 c7 d0 3b 65 b2 1c 3c
       -0.009705581 -0.004731191 0.0063713808 0.009564017
0000c0 f1 09 94 3c b7 c4 66 3b a8 a2 78 bc 4d d6 ae bb
       0.018071147 0.0035212466 -0.015175499 -0.0053356052
0000d0 29 56 2c 3b 04 c5 42 3b f5 e6 ea bb 93 67 64 b8
       0.0026296473 0.0029719481 -0.0071686455 -5.4455897e-05
0000e0 c0 6f 9d 3b 62 03 9c 3b 2b 34 85 bb 5d 0e 17 bc
       0.0048045814 0.0047611455 -0.004065057 -0.009219733
0000f0 10 6c 67 ba ae 6b 91 bd 24 95 6e 3d 45 2b 05 3b
       -0.0008828053 -0.071006164 0.0582477 0.002031998
000100 83 6c 26 3c 0f 42 c5 bb 86 e4 8c bb 7f df 04 bc
       0.010157707 -0.0060198377 -0.004299703 -0.008109926
000110 aa 04 85 3c 3a 5c 80 bb e4 79 05 bc 47 3a 50 3c
       0.016237576 -0.0039172443 -0.008146737 0.012709207
000120 cf c8 97 bb 1d 67 73 3b c2 3a a4 38 bc e8 02 3e
       -0.0046320925 0.0037140318 7.831074e-05 0.12784094
000130 8e f5 a1 bd a8 1b 90 bd 85 3f c4 3c b0 50 8b 3b
       -0.07908164 -0.07036525 0.02395607 0.004251562
000140 9a 05 c1 bc ba 70 19 3c 5b bd c1 3b d2 e4 3c bc
       -0.023562241 0.009365255 0.0059124655 -0.011529164
000150 a9 e9 52 bb cd 2b f1 bb 6e 64 6c 3c 23 6c d8 bc
       -0.003218273 -0.007359958 0.014428241 -0.026418751
000160 33 57 42 ba b4 7d 9c 3c 56 46 ca 3c 02 a4 1b bb
       -0.00074135064 0.019102909 0.024691742 -0.002374888
000170 77 bb 7f bc ef 5e d4 ba d7 9a 98 bb 19 04 43 3b
       -0.01560866 -0.0016202609 -0.00465713 0.002975708
000180 86 50 4d 3c 85 a5 ae ba 95 0e b0 bb f9 7f 33 bb
       0.012531405 -0.0013324475 -0.005372832 -0.002738951
000190 f1 1a 27 3c 1a 3a f9 bb 47 bb b2 bc 37 a8 90 ba
       0.010199294 -0.007605803 -0.021817816 -0.001103646
0001a0 30 55 57 3c 5a c5 6d bb 20 87 0b bb 66 fd 92 3c
       0.013142869 -0.003628096 -0.0021290258 0.017943095
0001b0 bb f7 c9 ba a2 40 0c bc 40 9a 47 3c 30 f6 53 bc
       -0.0015408912 -0.008560332 0.012182772 -0.012937114
0001c0 13 1e 4f bb 56 3e 92 3c 1d 72 d5 bb 13 85 85 3b
       -0.003160362 0.01785199 -0.0065138475 0.0040747016
0001d0 50 c0 9c 3c f3 bb c2 bb 67 6b 9f ba 54 24 92 3c
       0.01913467 -0.0059428154 -0.0012162746 0.017839588
0001e0 a1 87 8c bc 81 86 52 3a 5c 0c ec 3c 51 b3 14 3b
       -0.017154517 0.0008030907 0.028814487 0.0022689889
0001f0 cf 58 0b bb 4b 04 60 3c 39 9d 5f 3c 17 6c 2a bb
       -0.002126265 0.0136728985 0.013648325 -0.0026004368
000200 1a 25 dc ba 01 dd 05 3b 60 ed ca 3b 50 73 1a 3b
       -0.0016795725 0.0020425918 0.006192848 0.0023567267
000210 c8 50 a2 bc 48 36 39 3b ce 86 1d 3c f0 93 28 3d
       -0.01981391 0.0028261114 0.0096146595 0.04115671
000220 d0 7a ea bb d1 d6 0a bd 90 11 e0 3a 4a 01 c4 ba
       -0.0071557537 -0.03389627 0.0017095078 -0.0014953997
000230 78 57 cb 3b 5f 8c 10 bc c7 b4 d2 3a b2 c4 46 3c
       0.0062054954 -0.00882253 0.0016075604 0.012131857
000240 44 05 c3 3b bf 7d 10 3c fb 03 f8 3a 51 3c 57 3c
       0.0059515554 0.008819043 0.0018922085 0.013136939
000250 ea 10 8a bb 2c 04 22 bc 35 22 21 bc 91 9f 00 bc
       -0.004213442 -0.00988869 -0.009834816 -0.007850544
000260 62 16 ea 3b 0f 74 b3 3d 5d b1 3a bd 50 ea 20 bd
       0.0071437815 0.08762371 -0.045579303 -0.039285958
000270 8f 7e 0c bc 74 e0 2c 3c 8d 00 e6 3b eb da 86 3c
       -0.008575096 0.010551561 0.0070191086 0.01646181
000280 29 44 9b bb 09 e0 b2 bc 2f 41 cd 3c f7 50 a2 3b
       -0.00473835 -0.021835344 0.025055496 0.0049534994
000290 32 86 0f bc 98 b2 6b bc 8f f9 08 bc 60 9f 35 3c
       -0.008760022 -0.014385842 -0.008360281 0.011085361
0002a0 ce 7b 53 3c 7c c5 23 3c 7c b2 71 bb a5 cb 95 bc
       0.012907935 0.009995814 -0.0036880067 -0.018285582
0002b0 3d 96 9d bb 7f 3c 8a 3b ba b0 8c 3c 54 5f b8 bb
       -0.0048091696 0.0042186375 0.017174114 -0.0056265984
0002c0 31 08 96 bb 09 3a 0b 3c 0b 38 b5 bb 79 2f 23 3b
       -0.004578613 0.008497723 -0.0055303625 0.0024900122
0002d0 02 b3 b5 bc 2c 0b 04 ba af a9 7f 3c db 36 ac bc
       -0.022180084 -0.0005037065 0.015604421 -0.02102225
0002e0 21 60 60 3b ab a7 3b 3c a8 52 ce bb 0f 9d 5d 3b
       0.0034236985 0.011453549 -0.0062964745 0.0033815538
0002f0 cf c0 53 bb e8 2f 04 bd 84 51 db bb 59 d4 9f 3c
       -0.0032310968 -0.03227225 -0.006693067 0.019510435
000300 f1 1a 63 3c 07 eb fa bb b7 41 6e bb 34 8a 11 bc
       0.013861404 -0.007657412 -0.0036355087 -0.008883048
000310 75 ca c4 3b e1 19 82 bb 5a 72 c1 bc 0a a2 8b 3c
       0.00600558 -0.00397037 -0.023614097 0.01704504
000320 10 e0 c1 3c 1c 14 33 bc 00 9b e8 bb d9 bc 4c 3b
       0.023666412 -0.010930087 -0.0070985556 0.0031240492
000330 5d db e6 bb 96 1c 90 3b 33 3b 40 3b 22 32 a8 39
       -0.007045193 0.004397939 0.002933216 0.0003208081
000340 6e 3b e0 3b 8f be 31 3b 8f 92 b3 3c 71 93 4a 3a
       0.006843022 0.0027121638 0.02192047 0.0007727659
000350 10 2e 9c bc d5 89 f3 3c 44 1a 14 bc 0e 8d 57 bc
       -0.019064933 0.02972881 -0.009039465 -0.013156189
000360 0f 26 68 bc 35 ef 0d bc a8 8d ec 3b a3 be 0d bc
       -0.01416923 -0.008662988 0.007219035 -0.008651408
000370 d3 f4 7c ba 4e 39 c1 3c 2b 2c 75 bc 17 c6 03 bc
       -0.0009649519 0.023586895 -0.014964144 -0.008042834
000380 3b ae 80 3c 7b 98 a3 b9 0a 67 29 39 58 db e3 3b
       0.01570808 -0.0003120339 0.00016155481 0.006953638
000390 7e 1e 85 3c c5 08 a2 ba c7 c2 6a bc 2d 20 92 ba
       0.016249891 -0.0012362233 -0.014328665 -0.0011148505
0003a0 cf 23 22 3b d0 69 85 bc c7 60 93 3c 01 59 8b bb
       0.0024740582 -0.016285807 0.017990483 -0.0042525535
0003b0 9d d2 d6 bb 68 d8 bd bb e0 1d a3 bb 95 ea d3 3a
       -0.006555869 -0.00579362 -0.0049779266 0.0016167933
0003c0 0b 32 1f 3b ba 78 a3 b9 fe 95 93 ba 03 77 7e 3d
       0.0024291303 -0.0003117973 -0.0011259911 0.062125217
0003d0 33 7c 1d bd 38 e6 16 bd 7d 36 a1 bc 00 81 0a 3b
       -0.038448524 -0.036840647 -0.019679302 0.002113402
0003e0 27 ce 38 3c 7b 39 58 3b c2 66 f0 bb 63 99 10 bc
       0.011279619 0.0032993245 -0.0073364684 -0.008825633
0003f0 8d a4 5b bc 65 9c b9 bb 93 bb b8 3b b4 74 46 3c
       -0.013405931 -0.0056643956 0.005637595 0.012112785
