code_tidy/model_step1/zy_f01.pt (torch, 7634 bytes, 2 tensors)

w f4 [10, 100]
0.5528745 0.64943117 -0.13176699 0.5673415 -0.0034765163 0.21374623 -0.06147402 0.42612863
0.63204056 -0.41014567 0.6558621 0.23825769 0.56677544 0.15682115 0.41787687 -0.033623725
0.6681912 0.11690667 -0.23571524 0.24154289 -0.17977892 0.05192112 -0.19046766 0.47324127
-0.4284611 -0.21970849 0.004697219 -0.28680745 0.17010568 -0.5512599 0.60513425 -0.49426228
0.61818445 0.17455281 -0.17060798 0.4403091 0.3364411 0.60158974 0.13737163 -0.12857503
0.2657449 -0.043091606 0.33419877 0.6263647 0.4279333 -0.17326976 0.40155277 0.20059454
0.3888135 -0.40823334 -0.5792476 -0.15155783 -0.42143822 0.7123608 0.2577098 0.35194296
0.29609334 0.07190403 0.5262675 -0.2553934 0.17047347 -0.3779154 0.28989497 -0.021580638
0.24558884 -0.08994319 0.61696696 -0.28362876 -0.3366626 -0.30960295 0.7364853 0.3287196
0.7197994 -0.34049517 -0.52814645 -0.46154732 -0.29911205 0.34350318 0.34130895 0.6051995
-0.14159964 -0.3452511 0.41735253 -0.119833045 0.4769255 0.017124493 0.4634375 -0.43710256
-0.2951473 0.30544636 0.28024626 -0.0063644093 0.48659396 0.48919046 -0.28049508 -0.29113954
0.6463693 -0.12526049 -0.21846 -0.52051216 -0.26129663 0.26812384 -0.059169196 -0.41642952
0.14338791 -0.32446155 -0.2855556 -0.34089664 -0.4895784 -0.35169587 0.7542622 0.24413837
0.26825318 -0.45141643 -0.22259693 -0.15702966 0.16636308 -0.46697 -0.19238417 -0.1722844
0.11344246 -0.08005168 0.03812109 -0.23070887 -0.3310147 -0.30120072 -0.03440747 -0.38746467
0.61949646 -0.024840413 0.53663373 0.2724278 -0.38917482 0.53163934 -0.13924614 -0.013352225
-0.28904226 -0.5311552 0.26707578 -0.08444145 0.35159826 -0.31515917 0.5328312 -0.41885105
-0.04402851 0.27237538 0.37041542 0.570507 0.56372577 -0.4743346 0.20271999 -0.21584201
-0.039179754 -0.2879086 0.6778197 -0.40324396 0.42710754 0.29312178 0.24268275 -0.21685019
0.6912804 0.2089872 0.20056334 -0.37949842 0.31768233 -0.057328347 -0.15044941 0.64704293
0.18314196 -0.22625329 -0.10311416 0.067335986 0.44132796 -0.005156962 -0.27784535 -0.14897189
-0.33785012 0.33873376 0.6531226 -0.5380612 0.27586406 0.47669598 0.20581019 -0.12020563
0.3858254 0.45821264 0.2887642 -0.0625347 -0.15297222 0.23616593 0.065222956 -0.0004100676
0.48082584 0.55788946 0.020554317 -0.0626007 0.102339186 -0.03548028 0.19563621 0.2570332
-0.50507504 -0.08178044 0.55810964 0.2585614 0.051311746 -0.30074754 -0.124334395 -0.50979745
-0.11750795 0.28774914 0.4411786 0.39390656 -0.4053257 -0.31273022 0.01621732 0.6382745
0.1386297 -0.08911442 0.31675282 -0.105020694 -0.30605793 0.4491624 -0.19507386 0.010152445
-0.5006538 0.5655412 0.6276723 0.34679493 -0.36039716 -0.51839364 -0.43678272 0.5419677
0.42328867 0.5340065 0.36766267 0.25827184 0.24491376 -0.451571 -0.4826389 -0.5336231
0.34777448 -0.19423978 -0.09818567 -0.30234435 -0.027487496 -0.3011389 -0.35420755 0.27957928
-0.12700094 0.4313903 -0.15755926 -0.39379388 -0.03300963 -0.11766151 -0.046401672 -0.5345676
00000000: 2f89 0d3f 1f41 263f eded 06be 4b3d 113f
00000010: 44d6 63bb 4be0 5a3e 2fcc 7bbd 882d da3e
00000020: 69cd 213f 9dfe d1be 94e6 273f d3f9 733e
00000030: 3218 113f b995 203e f5f3 d53e 08b9 09bd
00000040: 940e 2b3f c46c ef3d 565f 71be 0557 773e
00000050: f717 38be 3eab 543d f409 43be ae4c f23e
00000060: 415f dbbe 43fb 60be 21eb 993b 6dd8 92be
00000070: 2f30 2e3e 5e1f 0dbf 14ea 1a3f f20f fdbe
00000080: 5641 1e3f f9bd 323e dcb3 2ebe 3270 e13e
00000090: 0242 ac3e c901 1a3f 26ab 0c3e 2ca9 03be
000000a0: b70f 883e d380 30bd 1a1c ab3e 7059 203f
000000b0: 131a db3e a16d 31be 5398 cd3e a868 4d3e
000000c0: 9012 c73e f603 d1be 9249 14bf fa31 1bbe
000000d0: c0c6 d7be 475d 363f 8af2 833e de31 b43e
000000e0: 8c99 973e 6c42 933d 78b9 063f ecc2 82be
000000f0: 9990 2e3e 217e c1be 1d6d 943e e1c9 b0bc
00000100: a47b 7b3e 2334 b8bd 8cf1 1d3f ca37 91be
00000110: 0a5f acbe 4784 9ebe 4d8a 3c3f ef4d a83e
00000120: c644 383f 6255 aebe 9b34 07bf ee4f ecbe
00000130: 3725 99be a6df af3e 0cc0 ae3e 5bee 1a3f
00000140: 7fff 10be c1c4 b0be 3baf d53e 076b f5bd
00000150: 942f f43e aa48 8c3c ae47 ed3e e8cb dfbe
00000160: 8c1d 97be 7763 9c3e 707c 8f3e 898c d0bb
00000170: d822 f93e 2c77 fa3e 0d9d 8fbe 3e10 95be
00000180: 7578 253f 4944 00be fab3 5fbe 4940 05bf
00000190: acc8 85be 8747 893e 665b 72bd 4036 d5be
000001a0: 48d4 123e d31f a6be 5834 92be 018a aebe
000001b0: 05aa fabe 7b11 b4be 5417 413f 69ff 793e
000001c0: 7b58 893e 0e20 e7be 73f0 63be 62cc 20be
000001d0: 155b 2a3e b116 efbe 5b00 45be 526b 30be
000001e0: 8554 e83d 23f2 a3bd dc24 1c3d f23e 6cbe
000001f0: c27a a9be fb36 9abe d9ee 0cbd c561 c6be
00000200: 5297 1e3f 1f7e cbbc d460 093f a87b 8b3e
00000210: ec41 c7be 8419 083f 8a96 0ebe 4ac3 5abc
00000220: 59fd 93be caf9 07bf 28be 883e a4ef acbd
00000230: b004 b43e 8b5c a1be a067 083f a573 d6be
00000240: 3d57 34bd c974 8b3e 17a7 bd3e bf0c 123f
00000250: 5550 103f fcdb f2be d495 4f3e b005 5dbe
00000260: f37a 20bd c268 93be 9885 2d3f fe75 cebe
00000270: d7ad da3e 0f14 963e d481 783e fa0d 5ebe
00000280: c1f7 303f be00 563e 7a60 4d3e 9e4d c2be
00000290: 42a7 a23e 21d1 6abd 690f 1abe 9ba4 253f
000002a0: 9189 3b3e f1ae 67be 842d d3bd 73e7 893d
000002b0: bdf5 e13e bcfb a8bb bf41 8ebe 168c 18be
000002c0: b1fa acbe 836e ad3e 0b33 273f 61be 09bf
000002d0: 0e3e 8d3e 7f11 f43e e8bf 523e 5f2e f6bd
000002e0: e88a c53e d99a ea3e e7d8 933e 3112 80bd
000002f0: c0a4 1cbe 7bd5 713e 9d93 853d 57fe d6b9
00000300: ce2e f63e d8d1 0e3f 8761 a83c cc34 80bd
00000310: 3597 d13d c553 11bd dc54 483e db99 833e
00000320: 994c 01bf 817c a7bd 46e0 0e3f 2962 843e
00000330: 442c 523d 95fb 99be 08a3 febd 1682 02bf
00000340: 02a8 f0bd db53 933e 29e2 e13e 1fae c93e
00000350: da86 cfbe 2d1e a0be 2fda 843c f565 233f
00000360: f2f4 0d3e 9f81 b6bd 6d2d a23e 1715 d7bd
00000370: a0b3 9cbe 9df8 e53e 71c1 47be 7156 263c
00000380: d92a 00bf 4fc7 103f 22af 203f 1b8f b13e
00000390: fa85 b8be 72b5 04bf fca1 dfbe 65be 0a3f
000003a0: 4bb9 d83e a6b4 083f 483e bc3e 353c 843e
000003b0: acca 7a3e 5034 e7be 721c f7be 869b 08bf
000003c0: 7f0f b23e cbe6 46be 9215 c9bd e1cc 9abe
000003d0: 752d e1bc e12e 9abe b15a b5be 0425 8f3e
000003e0: 890c 02be 30df dc3e 3757 21be 5a9f c9be
000003f0: 1b35 07bd 85f8 f0bd ae0f 3ebd 6cd9 08bf

w f4 [100, 2]
-0.021887755 0.02193342 0.008644667 -0.01144213 -0.043274306 0.033434078 -0.013384593 0.006258299
0.0021444503 -0.009017701 -0.07436022 0.068866745 -0.15000547 0.14409862 -0.023619296 0.030532878
-0.04411286 0.040280364 -0.012732723 0.023969227 0.0036436848 -0.016773961 0.0026796756 -0.017603468
0.0019853057 0.0020913128 -0.012901224 0.0112782465 0.018356413 -0.022885405 -0.027533155 0.028158268
0.016924977 -0.028108895 -0.05208375 0.061611544 -0.05258524 0.052103594 0.010362507 -0.011324529
-0.06419032 0.063980475 0.021738498 -0.019471342 -0.08761451 0.07889699 0.015359373 -0.010013392
-0.04544306 0.042866573 -0.101694144 0.109931104 0.0015771393 -0.012378438 -0.07394293 0.0837876
-0.08740073 0.08188164 -0.055454332 0.044410598 -0.0059268456 0.0038328853 -0.07538948 0.093487
-0.09797239 0.09616158 -0.0036291913 0.0034051058 -0.0015875872 0.016541816 0.019115755 -0.005659533
-0.09396686 0.098756306 -0.04244896 0.04322559 -0.046274472 0.042892534 -0.04302162 0.03170308
0.0067676683 -0.015399623 -0.0966825 0.08130213 -0.014230804 0.02137175 -0.005266634 0.02020965
-0.0617782 0.04670472 -0.07065548 0.08005175 -0.010201187 0.0052019143 0.00091781816 0.008142704
-0.010893777 0.013067936 -0.03005382 0.040945973 -0.011787758 0.010844335 -0.08789133 0.09095549
-0.057770684 0.059559334 0.017899092 -0.013246575 0.012939697 -0.01036592 -0.06135313 0.047759563
0.010241505 -0.0062481696 0.0040426706 -0.0035321994 -0.00090842316 0.004712634 0.01444821 -0.0049331896
-0.0013293053 -0.011953623 -0.016435226 0.010945116 0.0003049494 -0.0016927918 -0.078954645 0.09339246
-0.00010769189 0.008525746 -0.012626813 0.012624265 -0.0036804483 -0.0073741325 -0.054846425 0.06064874
-0.03142192 0.039867178 -0.09281248 0.07880554 0.018649299 -0.018361691 0.011507478 -0.01759114
0.015035692 -0.019184241 -0.0038545702 -0.010217918 -0.03447708 0.041705605 -0.039170463 0.038651533
-0.12914538 0.13401721 0.017024541 -0.02138789 0.020767989 -0.0042737573 -0.06136309 0.06270257
0.022305828 -0.016721088 -0.05312443 0.069416255 0.006413479 -0.005452205 0.0054650814 -0.011507192
-0.039602064 0.030422082 0.0068812543 -0.008532055 -0.03523571 0.03444464 -0.023994902 0.039669182
-0.02138798 0.030985136 0.037004843 -0.029724564 0.0381162 -0.035263117 0.013481363 -0.03025825
0.011887466 -0.014573983 -0.012218449 0.009740343 0.011206713 -0.0031439604 -0.07168618 0.076378375
-0.0045310874 0.004751703 -0.025130747 0.009317706 -0.042882834 0.033509873 -0.0507887 0.047604077
00000000: f34d b3bc b7ad b33c 5da2 0d3c c677 3bbc
00000010: 6640 31bd 2cf2 083d 0d4b 5bbc 6b12 cd3b
00000020: e889 0c3b fbbe 13bc 2c4a 98bd 020a 8d3d
00000030: 099b 19be 978e 133e 417d c1bc 1620 fa3c
00000040: b0af 34bd 06fd 243d e99c 50bc 1d5b c43c
00000050: e3ca 6e3b 8c69 89bc 7f9d 2f3b 2635 90bc
00000060: e71b 023b 680e 093b a85f 53bc 65c8 383c
00000070: 3060 963c 2c7a bbbc 368d e1bc 2bac e63c
00000080: 40a6 8a3c a044 e6bc c555 55bd 635c 7c3d
00000090: 9f63 57bd 946a 553d 81c7 293c 848a 39bc
000000a0: 3776 83bd 3208 833d ef14 b23c 5d82 9fbc
000000b0: 3c6f b3bd bf94 a13d e1a5 7b3c 360f 24bc
000000c0: 8122 3abd dc94 2f3d 0545 d0bd 8f23 e13d
000000d0: 03b8 ce3a efce 4abc 646f 97bd d598 ab3d
000000e0: 27ff b2bd 90b1 a73d 1524 63bd e3e7 353d
000000f0: fc35 c2bb 2531 7b3b cd65 9abd 1d76 bf3d
00000100: c0a5 c8bd 5df0 c43d bad7 6dbb 3228 5f3b
00000110: 9616 d0ba b482 873c a598 9c3c 9b73 b9bb
00000120: b271 c0bd bf40 ca3d f6de 2dbd 510d 313d
00000130: 4d8a 3dbd 15b0 2f3d 7037 30bd 17db 013d
00000140: 51c3 dd3b b34e 7cbc 7901 c6bd bb81 a63d
00000150: 5128 69bc cf13 af3c ba93 acbb b58e a53c
00000160: 230b 7dbd 734d 3f3d d2b3 90bd 2cf2 a33d
00000170: e122 27bc d274 aa3b bc99 703a fa68 053c
00000180: d07b 32bc e51a 563c 6e33 f6bc f7b6 273d
00000190: 7121 41bc 70ac 313c 5f00 b4bd df46 ba3d
000001a0: f4a0 6cbd 7df4 733d 1ea1 923c 2a08 59bc
000001b0: 0601 543c d2d5 29bc 6b4d 7bbd 889f 433d
000001c0: fccb 273c 72bd ccbb 6178 843b 797c 67bb
000001d0: 3f23 6eba 706c 9a3b 2fb8 6c3c 98a6 a1bb
000001e0: 163c aeba 21d9 43bc 2ba3 86bc 2553 333c
000001f0: 9ee1 9f39 abe0 ddba f9b2 a1bd 8c44 bf3d
00000200: a5d8 e1b8 92af 0b3c b1e0 4ebc 01d6 4e3c
00000210: ad33 71bb b5a2 f1bb a5a6 60bd d06a 783d
00000220: 45b4 00bd c44b 233d 7814 bebd cd64 a13d
00000230: 6ac6 983c 426b 96bc dc89 3c3c 4b1b 90bc
00000240: 4358 763c 4528 9dbc f59c 7cbb 0e69 27bc
00000250: d737 0dbd 7fd3 2a3d 3571 20bd 1251 1e3d
00000260: b03e 04be cf3b 093e 0d77 8b3c a835 afbc
00000270: a121 aa3c e00a 8cbb dd57 7bbd 346a 803d
00000280: b6ba b63c aafa 88bc 0199 59bd 1c2a 8e3d
00000290: 2928 d23b 69a8 b2bb 6d14 b33b a988 3cbc
000002a0: c635 22bd bb37 f93c 257c e13b 08ca 0bbc
000002b0: 5253 10bd d315 0d3d f590 c4bc 277c 223d
000002c0: d835 afbc 8ad4 fd3c 6492 173d ee80 f3bc
000002d0: bc1f 1c3d 0f70 10bd efe0 5c3c 26e0 f7bc
000002e0: a5c3 423c b7c7 6ebc e42f 48bc f695 1f3c
000002f0: 5c9c 373c e70a 4ebb 34d0 92bd 446c 9c3d
00000300: 8479 94bb 2cb4 9b3b ffde cdbc 4ba9 183c
00000310: e9a5 2fbd a641 093d d007 50bd 7efc 423d
