code_tidy/model_step1/zy_f03.pt (torch, 7634 bytes, 2 tensors)

w f4 [10, 100]
00000000: 20c0 123f 907c 1c3f f38d a0bd 14fc 1e3f
00000010: 2c81 563d d3cb 733e f276 c7be 4e3a e73e
00000020: ebbb 233f 91fa e2be 0b4b 083f 0b91 793e
00000030: 507d 0c3f 0b07 143e 9cc7 ca3e ba4a ba39
00000040: 8586 1f3f 7d30 2f3e 8265 7fbe 1d24 833e
00000050: b03a eebd 865b 663d 6660 1ebe 4ea0 f33e
00000060: 8783 e1be e2f4 86be bb37 19be c7e5 99be
00000070: 19cf 2b3e b8e0 05bf c02b 1b3f 7e36 dabe
00000080: fbbe 193f 6222 5d3e ce61 95bd 6725 e63e
00000090: 66b1 873e 27b7 133f 8b4d 123e 35b3 24be
000000a0: 4933 883e 556e 68bd 63bd a73e 638f 1c3f
000000b0: f667 e73e a212 57be 7d3e ea3e bd35 623e
000000c0: 2eeb c53e 9221 b8be 700d 0ebf 278c 37be
000000d0: 132b e5be 79ea 2e3f 0f8e 893e e81d ab3e
000000e0: 269d 853e 2cef b83d d9e6 0a3f e846 8cbe
000000f0: 6101 0f3e 8a8f b7be c32e 933e 7bed 8bbd
00000100: 2bc3 993e aac9 97bd b9fe 1e3f 5bc0 a5be
00000110: 0864 a7be 15d6 9ebe 6ac9 373f 96c0 9e3e
00000120: 5fe0 333f 1216 8ebe 39b7 16bf fda8 f0be
00000130: 1283 8bbe 4530 b43e 0dcf 983e d4b5 183f
00000140: 7cbf 3abe e444 adbe 6241 c63e 5f5a 07be
00000150: 55a4 f73e 03dd e1bd 91d2 dd3e 3ff4 66be
00000160: 0322 97be 2e55 973e 1f15 8c3e 3e1f 0bbd
00000170: d59a ef3e a56e fb3e 4479 a4be 8307 7dbe
00000180: 232b 273f b2e6 e8bc 5902 21be 093d 05bf
00000190: 2ba1 62be 71cb 873e 219d c3bb 0172 d4be
000001a0: 77c4 023e 2c4d b1be 5fe4 1abf 0894 94be
000001b0: c1fa ffbe ff9e b1be 09e3 233f 4c4b 6b3e
000001c0: 7f88 8d3e 276f f5be 9487 6bbe 181d e5bd
000001d0: 9773 283e 6706 ebbe 8f82 22be 1c05 41be
000001e0: 3a23 9e3d 42ad d9bd 76c7 8d3d 0b70 94be
000001f0: 7a7f b1be c665 7fbe f995 2ebe f0a6 d1be
00000200: 8112 263f 9ab6 233a 0a66 1f3f d40a 8d3e
00000210: 08af d3be 8941 073f 6482 1bbd 0d76 dbbd
00000220: 3124 b3be 0787 06bf 7874 463e 92a3 9cbd
00000230: 6563 b43e a0ad bfbe f7e2 073f 4d8c bfbe
00000240: c459 043c e5cc 653e aafe c73e 92fe 123f
00000250: e2ef 1b3f 3456 dbbe b41a 663e 58bb 3cbe
00000260: ea1a 11bd f94f 93be f321 253f 1f84 cabe
00000270: b8cf c43e 2a66 ad3e 6d75 903e d70c 54be
00000280: 10d3 2b3f a6e6 543e 8fd4 3f3e ccfb b5be
00000290: d026 ac3e 9ea6 90bc 38df 09be a10c 293f
000002a0: 9940 443e 2ce8 81be 7811 3bbe f5b6 4b3d
000002b0: 0371 cf3e bdb9 f23c 6112 92be 5d45 eebd
000002c0: eac8 96be e34d a53e b444 183f 0fe4 00bf
000002d0: f711 683e a6ec d53e 64ad 603e cc09 04be
000002e0: 53d0 c43e f045 b63e d45a a83e ef77 ab3d
000002f0: ad93 dbbd c8f0 473e 4097 eb3d 4033 61bd
00000300: fbfd ec3e be24 1c3f 36f7 873d 79cb 2cbd
00000310: 3c60 f83d a4bd e73d 1846 623e 9403 5b3e
00000320: dcfd dcbe 28fb e6bd d0f4 193f 1c7e a93e
00000330: 56d2 e83d 2dc3 98be 9dd5 f2be 2dfe f9be
00000340: b5a1 c3bd b386 683e a436 cc3e 2928 ca3e
00000350: 953f d4be b6c0 8ebe 8ec9 aa3c d77c 273f
00000360: 0988 2f3e 8b78 9dbd c942 b73e 83f7 c2bd
00000370: e8d2 72be fe55 e13e a08d 52be 7e61 dcbc
00000380: c6df 07bf a34d 0c3f fe6b 073f be97 ae3e
00000390: 5dc8 babe 1c1a f9be fb0e dcbe f4e6 243f
000003a0: d489 e83e b99e 153f cb75 d63e b14b 723e
000003b0: 601c 1d3e 6c2a c8be fd69 fbbe eb3d 01bf
000003c0: 4ff3 b63e 8696 2ebe a3d6 b0bd 26d2 9cbe
000003d0: aee2 40bc f57a d2be 154d b0be 7f05 963e
000003e0: 4b41 0fbe 8071 d63e bc5c 1fbe ced3 a1be
000003f0: ea8e 5cbd d20f dcbd d76b 14bd 16c2 11bf
0.5732441 0.6112757 -0.07839575 0.6210339 0.05236928 0.23808222 -0.38957936 0.4516167
0.63958615 -0.44331792 0.53239506 0.24371736 0.5487871 0.14455812 0.39605415 0.0003553236
0.62314636 0.1710834 -0.24941066 0.2561349 -0.116322875 0.056239627 -0.1546646 0.4758324
-0.4404566 -0.26358706 -0.14962666 -0.3005812 0.1677822 -0.5229602 0.6061363 -0.426197
0.6005704 0.21595147 -0.072940454 0.4495041 0.26502532 0.57701343 0.14287393 -0.16083987
0.26601627 -0.056745846 0.32761678 0.6115629 0.45196503 -0.21003202 0.457508 0.22090812
0.3865599 -0.35963112 -0.55489254 -0.17924558 -0.44759426 0.68326527 0.26866195 0.33421254
0.26096457 0.090299934 0.54258496 -0.27397847 0.1396537 -0.358517 0.28746614 -0.06832405
0.30031714 -0.07411511 0.62107426 -0.32373318 -0.32693505 -0.31022707 0.7179171 0.31006306
0.7026424 -0.27751213 -0.58873326 -0.47003928 -0.27248436 0.35193077 0.29845467 0.5965245
-0.18237108 -0.33841622 0.38721758 -0.13218068 0.48367563 -0.11028483 0.43324712 -0.2255411
-0.29518136 0.29557174 0.27359864 -0.03396534 0.46797815 0.49107853 -0.32123768 -0.24709897
0.65300196 -0.028430317 -0.15723552 -0.5204626 -0.22131793 0.265224 -0.005969659 -0.41493228
0.12770258 -0.3462919 -0.60504717 -0.2901919 -0.49995998 -0.34691617 0.64018303 0.22977942
0.276432 -0.47936365 -0.23000938 -0.1118719 0.16450344 -0.45903322 -0.15870117 -0.18849605
0.07721563 -0.106287494 0.0692281 -0.28991732 -0.3466757 -0.24941167 -0.17049398 -0.40947676
0.64871985 0.00062451663 0.62265074 0.27547324 -0.41344476 0.52834374 -0.037966147 -0.10715876
-0.3498855 -0.52549785 0.19380367 -0.07648386 0.35232082 -0.37437153 0.53080696 -0.37411729
0.008078042 0.22441442 0.3906148 0.57419693 0.6091291 -0.42839205 0.22471124 -0.18430841
-0.035426058 -0.28771952 0.6450493 -0.39553925 0.38439727 0.33867007 0.2821459 -0.20708023
0.6711893 0.2079111 0.18733428 -0.35543668 0.33623362 -0.017657574 -0.13464057 0.66034895
0.19165267 -0.25372446 -0.18268383 0.04973503 0.4051591 0.029629583 -0.28529647 -0.11634324
-0.2945016 0.32285985 0.5947983 -0.5034799 0.22663103 0.4178211 0.21941143 -0.12894362
0.3844019 0.35600233 0.32881796 0.08372485 -0.10721526 0.19525445 0.11503458 -0.054980516
0.46287522 0.60993564 0.066389486 -0.042186234 0.1212773 0.11315468 0.22097051 0.21388084
-0.4316243 -0.11278373 0.6013918 0.33104026 0.113682434 -0.29836407 -0.474286 -0.48826733
-0.095523275 0.22707634 0.39885437 0.39483765 -0.4145476 -0.27881402 0.020848062 0.65424865
0.17141737 -0.07689007 0.3579314 -0.09519865 -0.23713267 0.4401092 -0.20561838 -0.026901957
-0.53075826 0.54805964 0.5289916 0.34100145 -0.3648099 -0.48652732 -0.4298018 0.64414907
0.45417655 0.58445317 0.41886744 0.23661686 0.15342855 -0.39094865 -0.491043 -0.50485104
0.35732505 -0.17049608 -0.08634689 -0.3062908 -0.011772795 -0.41109434 -0.3443381 0.29301068
-0.13989751 0.4188347 -0.15562719 -0.31606907 -0.05384723 -0.10745205 -0.036235657 -0.56936777

w f4 [100, 2]
00000000: 1f0c 60bc a8cb 603c a9af 0e3c 1285 3cbc
00000010: 7ba8 43bd 415a 1b3d 1ba9 5abc 91ce cb3b
00000020: e826 a33c 2d75 dbbc 931e c5bd 70de b93d
00000030: 900a ff3b 8e4c 60bc f880 d9bc ec11 093d
00000040: 0177 44bd 5ac4 343d 519b 64bc 415a ce3c
00000050: f12b 07bc dae8 9fbb 5464 d53a b897 87bc
00000060: 403d 433b 41da 8f3a 0684 8cbb 3eab 2e3b
00000070: f8c2 453c 7efb 87bc 54f9 08bc 3d37 133c
00000080: 1922 5c3c 6daf c9bc 20ad 3bbd c1b3 623d
00000090: 48c0 60bd 3dc7 5e3d 196b bb3b 0af1 dabb
000000a0: b6e1 d3bd b173 d33d d7f8 ca3c 4966 b8bc
000000b0: de4a b3bd 6070 a13d b528 4b3c 0924 e7bb
000000c0: dfec 34bd 3c5f 2a3d 95c1 99bd 20a0 aa3d
000000d0: e9b5 5dbc e1f7 323b 870b bfbd fa34 d33d
000000e0: 9be7 cabd 089a bf3d b6c1 8cbd 3647 6c3d
000000f0: 0de7 e2bb af49 9e3b b1b1 a9bd ffc1 ce3d
00000100: 4041 ddbd dd8b d93d 03af 4ebb 69ff 3f3b
00000110: a58c a73c 532d b4bb a1f4 b83b 79fa ff3b
00000120: c6a5 153b f43b 243b e01a 13bd 3a49 163d
00000130: 03c9 4ebd cbee 403d 3320 2fbd d5c3 003d
00000140: 84f8 073c c7b2 8abc 81f2 cabd c972 ab3d
00000150: 989e 1bbc f64e 883c a071 b5bb 34c6 a73c
00000160: 4f1d 93bd eb7c 683d 4c3f 323d 98c2 0bbd
00000170: c969 3ebc 8c02 d93b b8c6 1c3c 8742 05ba
00000180: 17ab 54bc 2e4a 783c 8306 f7bc 8520 283d
00000190: 2617 32bc 36a2 223c 92df 86bd 1226 8d3d
000001a0: cdb9 6ebd 590d 763d 38e9 803c 7498 35bc
000001b0: de4f 833c 7c74 5cbc 32fc 3abd 5c4e 033d
000001c0: 1029 1d3c 9a77 b7bb c744 5b3c b0e7 52bc
000001d0: 8adb 673b ffa3 8b39 df40 093c e11f 953a
000001e0: 725c 2dbb 8a49 2ebc 114a 0bbd 869a e93c
000001f0: b08f 17ba 6f40 54ba 785e 08be 4427 173e
00000200: 9079 f93b 9ff1 523a 8e8d 1cbc dd82 1c3c
00000210: ee92 393a 76b7 40bc 744f 84bd 8831 903d
00000220: 8757 bdbc 4e43 013d 5e50 c9bd b5a0 ac3d
00000230: 0640 553c b089 50bc 6177 623c 0212 a3bc
00000240: c5c4 163c 09bd 5abc de8b 0b3c 0f0e b9bc
00000250: 1fdc 44bd c877 623d 359b 35bd 137b 333d
00000260: 9f15 0abe c212 0f3e b138 433c ea5a 85bc
00000270: b13a 993c 46de 10bb 26ce 8cbd 6d8c 8f3d
00000280: 631a 843c bcb4 2cbc 4ae2 52bd c3ce 8a3d
00000290: 4adf 8e3c 56ff 86bc b66d f239 bb23 d5bb
000002a0: 16d4 22bd 6074 fa3c 7170 6ebb a540 023b
000002b0: cb4d 40bd 4b10 3d3d 2e40 cc3c aab1 17bc
000002c0: ef98 6dbc 256b c53c 90b9 033d 3ecf cbbc
000002d0: fd57 503d 50a8 44bd 47ba d43b 3e9e bebc
000002e0: bb26 693c 5c95 8abc 10f4 1dbc 46b4 ea3b
000002f0: a27a 413c ba83 75bb b9a0 d3bd c53c dd3d
00000300: d217 e1bb 7a52 e83b adad 053c 2a61 c4bc
00000310: 03de 21bd 78f3 f63c fdfe 68bd a4f3 5b3d
-0.013674765 0.01372043 0.008708873 -0.011506336 -0.047768097 0.03792787 -0.013345982 0.006219693
0.019916013 -0.026789272 -0.09624972 0.0907563 0.0077832416 -0.013690127 -0.026550755 0.033464357
-0.047965053 0.044132568 -0.013953046 0.02518952 -0.008250223 -0.004880053 0.001628051 -0.016551837
0.0029791147 0.0010975079 -0.0042881994 0.0026652361 0.01207041 -0.016599413 -0.008360226 0.008985338
0.013435864 -0.024619782 -0.0458194 0.055347208 -0.054870874 0.054389227 0.005719554 -0.006681566
-0.10345785 0.10324801 0.02477686 -0.02250971 -0.08754514 0.07882762 0.012399842 -0.0070538563
-0.04417121 0.04159473 -0.07507626 0.08331323 -0.01353214 0.0027308392 -0.093283705 0.10312839
-0.099074565 0.09355551 -0.06872885 0.0576851 -0.006924516 0.004830561 -0.08285845 0.100955956
-0.10803461 0.1062238 -0.003153742 0.0029296523 0.020452807 -0.005498567 0.0056443964 0.007811841
0.0022834404 0.002506015 -0.035914302 0.036690928 -0.05048467 0.04710273 -0.042755317 0.03143676
0.008298997 -0.01693095 -0.09909535 0.08371503 -0.009498261 0.016639214 -0.005537227 0.020480253
-0.071833245 0.056759756 0.043517396 -0.034121126 -0.011621901 0.006622618 0.009568863 -0.0005083461
-0.012980244 0.015154405 -0.030154472 0.041046638 -0.010869777 0.009926369 -0.065856114 0.06892027
-0.058282662 0.060071323 0.015736207 -0.011083711 0.016029295 -0.013455506 -0.04565067 0.03205715
0.00959231 -0.0055989744 0.013383097 -0.012872621 0.0035378658 0.00026634333 0.008377283 0.0011377299
-0.0026452807 -0.01063765 -0.034006182 0.028516065 -0.0005781604 -0.00080967596 -0.13317287 0.14761072
0.0076133683 0.00080468686 -0.009555234 0.009552685 0.0007079084 -0.0117624905 -0.06460467 0.07040697
-0.023113025 0.031558327 -0.09829782 0.0842909 0.013015753 -0.01272814 0.013822407 -0.019906048
0.009202187 -0.013350734 0.008517234 -0.022589711 -0.048061486 0.055290014 -0.04433747 0.043818545
-0.1348481 0.13972 0.011915372 -0.016278703 0.018704744 -0.0022105142 -0.06875257 0.07009206
0.016125863 -0.010541137 -0.051485337 0.06777718 0.017440457 -0.016479176 0.00046239578 -0.0065045035
-0.039753042 0.03057307 -0.0036382938 0.0019874957 -0.04694919 0.046158116 0.024932947 -0.009258667
-0.014501794 0.024098942 0.032159388 -0.024879094 0.050865162 -0.048012078 0.0064919326 -0.023268815
0.0142304255 -0.016916923 -0.009640709 0.0071626035 0.011809023 -0.0037462548 -0.1033339 0.108026065
-0.0068692947 0.00708991 0.008159083 -0.023972113 -0.039518367 0.030145392 -0.0568838 0.05369915
