code_tidy/model_step1/zy_f10.pt (torch, 7634 bytes, 2 tensors)

w f4 [10, 100]
000000 55 ec 08 3f fb 79 0d 3f 7d 87 6f bd 7d 62 18 3f
       0.53485614 0.5526425 -0.05847882 0.5952528
000010 07 cb bd 3c 14 09 81 3e a5 77 be bd 16 9f db 3e
       0.0231681 0.2520224 -0.09300164 0.4289481
000020 94 61 1f 3f 91 8d 89 be a8 40 1e 3f 18 ef 1b 3e
       0.6225827 -0.2686582 0.6181741 0.15227926
000030 e1 96 05 3f 5f b1 7d 3e 51 b8 bf 3e 6f f6 02 3d
       0.5218335 0.24774693 0.3744531 0.0319733
000040 48 9b f4 3e 90 7b d4 3d ca ee 04 be 81 94 7a 3e
       0.4777472 0.1037513 -0.12981716 0.24470712
000050 75 7a 41 be 78 ed 70 3b 3a 1e 86 bd 7c f9 f5 3e
       -0.1889437 0.0036762636 -0.06548734 0.48041904
000060 c2 e5 c9 be a7 c1 56 be 93 3a 85 bd b7 7e 58 be
       -0.39433104 -0.2097231 -0.06505313 -0.21142088
000070 31 fc 25 3e 1d db 12 bf 2d 76 41 3f f1 e4 b0 be
       0.16209485 -0.5736559 0.75570947 -0.34549668
000080 5d 44 17 3f ce 75 45 3e 8f e4 9c bd af a5 dc 3e
       0.5908869 0.1928322 -0.076607816 0.43095157
000090 f3 94 9b 3e 0a 58 09 3f cd aa 69 3e 8a 29 19 be
       0.30387077 0.5364996 0.22819062 -0.14957252
0000a0 34 34 9b 3e f3 23 00 be 42 93 b5 3e d1 a8 2e 3f
       0.30313265 -0.12513714 0.3546391 0.68226343
0000b0 f4 34 fc 3e 72 22 9e be e1 44 fe 3e 02 8e 3d 3e
       0.4925915 -0.30885655 0.49661925 0.18511203
0000c0 94 ef d2 3e 48 a6 c8 be 11 25 e8 be 01 3e cd bd
       0.4119841 -0.39189363 -0.4534078 -0.10021592
0000d0 a8 d0 e7 be 44 26 06 3f ed d9 56 3e 15 dd a4 3e
       -0.4527638 0.5240214 0.2098157 0.32199922
0000e0 6f 1d 99 3e 01 28 00 3e d0 68 28 3f 5b c1 a7 be
       0.2990527 0.1251526 0.6578493 -0.32764706
0000f0 9b 2e 21 3e c5 4d 99 be 86 41 91 3e 0d e6 16 bd
       0.15740435 -0.29942146 0.28370303 -0.036840487
000100 e5 40 a7 3e ac 8d 11 bc b5 1d 09 3f 1d 06 96 be
       0.32666698 -0.008883875 0.53560954 -0.2930154
000110 2f fa 9b be 8c e1 8e be 8b 6a 29 3f 81 2e 97 3e
       -0.30464312 -0.27906454 0.66178197 0.29527667
000120 e9 52 43 3f 71 67 a2 be 10 76 1b bf f4 fd b7 be
       0.76298386 -0.31719545 -0.60727024 -0.35935938
000130 98 9e bd be ec 8e 9c 3e 34 91 99 3e e4 a7 1f 3f
       -0.3703506 0.3057779 0.29993594 0.62365556
000140 cb da ae be 0e 32 8d be 16 df cc 3e c2 17 38 be
       -0.341513 -0.2757725 0.4001395 -0.17977813
000150 0c 6e da 3e 43 eb fa bc 6c be db 3e de 14 66 be
       0.42662084 -0.03062976 0.42918718 -0.22468898
000160 59 00 7f be 80 06 83 3e 61 36 7c 3e 1c cf 4b be
       -0.24902476 0.25590897 0.24630119 -0.19903225
000170 49 33 f5 3e 48 65 da 3e 9f 9a a0 be ee 0d 64 be
       0.4789069 0.42655396 -0.31367967 -0.22270939
000180 1c 71 26 3f 22 d3 98 bd c0 ca 0c bd c6 be 03 bf
       0.6501634 -0.074621454 -0.034373045 -0.5146297
000190 5e 66 4e be da d1 80 3e 1b 1e 61 3c 97 68 af be
       -0.20156237 0.25160104 0.013740088 -0.34259483
0001a0 d1 ca 26 3e 9e 93 af be 72 b6 a4 be 5c f5 11 be
       0.16288306 -0.3429231 -0.32170445 -0.14253753
0001b0 b8 94 cc be 48 2d 4e be 5b 10 43 3f 53 d2 3d 3e
       -0.39957213 -0.20134461 0.7619683 0.18537264
0001c0 3a 78 9b 3e 89 b8 d9 be d0 b7 b7 be 53 64 6e bd
       0.30365163 -0.42523602 -0.35882425 -0.058201145
0001d0 b1 8b d4 3d 23 5e e8 be 19 b2 e7 bd 6b 9f 52 be
       0.103782065 -0.4538432 -0.11313266 -0.20568626
0001e0 b6 cd 08 3e 73 c0 ed bd 3e 98 83 3d 6b 51 be be
       0.13359722 -0.116089724 0.06425522 -0.37171492
0001f0 b7 9a a6 be 1e de 93 be 30 03 bf bd f7 6b ae be
       -0.32539913 -0.288804 -0.0932678 -0.34066746
000200 74 aa 18 3f 39 34 be bd eb 85 37 3f c9 15 80 3e
       0.5963509 -0.092873044 0.7168872 0.2501662
000210 69 92 c5 be 20 99 0e 3f 8f a7 48 3a 13 2e e0 bd
       -0.38588265 0.557024 0.00076543627 -0.10946288
000220 2a 29 78 be 38 95 0e bf 59 a2 98 3e ac 7d d4 bd
       -0.24234453 -0.5569644 0.2981136 -0.103755325
000230 04 2b a5 3e ff dd a5 be 19 5d 00 3f aa 14 c5 be
       0.3225938 -0.32395932 0.50142056 -0.38492328
000240 84 c8 2c bd 20 69 54 3d 9a 53 d8 3e dc aa 10 3f
       -0.042183414 0.051858068 0.42251283 0.5651071
000250 4f 3f 2a 3f 81 5c d2 be 56 19 48 3e 2c aa 65 be
       0.6650285 -0.410862 0.19540915 -0.22428197
000260 51 98 76 bd c7 d8 b2 be 8a 48 25 3f 4b 78 a7 be
       -0.060203854 -0.34931013 0.6456381 -0.32708964
000270 53 49 d6 3e 17 27 9b 3e fc 88 96 3e dc 49 5b be
       0.41852817 0.3030326 0.29401386 -0.21414894
000280 09 8f 1a 3f fb 51 6b 3e 61 9c 19 3e 7c 29 a7 be
       0.60374504 0.22980492 0.1500106 -0.32648838
000290 b9 e1 be 3e c6 ec f4 bc 95 3c 1b be 6f 55 20 3f
       0.37281588 -0.029898059 -0.15159829 0.6263036
0002a0 9e f8 60 3e e0 dd 75 be 9b 88 78 be 32 39 af 3d
       0.2196984 -0.2401042 -0.24270861 0.08555831
0002b0 61 b5 ef 3e 36 0f 0e bd fd b7 5f be 33 72 af bd
       0.4681807 -0.034682475 -0.2184753 -0.08566704
0002c0 15 07 c8 be f6 cc 83 3e b6 9a 17 3f c9 62 f9 be
       -0.39067903 0.2574231 0.59220445 -0.4870818
0002d0 f3 d3 f3 3d 04 f2 d4 3e eb 0c 56 3e 4d 65 fb bd
       0.119056605 0.41590893 0.20903365 -0.12275181
0002e0 d1 d7 bf 3e 5b b4 b8 3e c1 41 a3 3e cb 61 bf 3d
       0.37469342 0.360751 0.31886104 0.093448244
0002f0 3b 88 18 be 4b 7c 25 3e 4a 1d a2 3d cf 2e 72 be
       -0.14895718 0.16160695 0.07915743 -0.23650669
000300 e4 59 f6 3e 12 87 12 3f 74 93 75 3b 4b a7 04 bd
       0.48115456 0.5723735 0.0037471922 -0.032386106
000310 a4 71 0f 3e 0a 87 f1 3d 46 96 8a 3e 5c 13 85 3e
       0.14008194 0.11793335 0.27067775 0.25991333
000320 fa ab de be 32 59 f1 bd 43 32 1e 3f 6e d3 96 3e
       -0.43490583 -0.11784591 0.61795443 0.29458183
000330 b8 c7 e1 3d a8 2a a0 be d5 ec 14 be 36 b6 b9 be
       0.110244215 -0.31282544 -0.14543469 -0.36271828
000340 4e 02 28 be 91 18 8f 3e 71 7e 0a 3f cc cb af 3e
       -0.16407129 0.2794843 0.54099184 0.34335172
000350 23 e0 e6 be ce 00 41 be d3 02 14 bb 41 42 21 3f
       -0.45092878 -0.18847963 -0.0022584691 0.6299172
000360 49 7e bc 3d 26 1e a5 bd d9 ab bb 3e 6e 02 d3 bd
       0.092037745 -0.08062391 0.36654547 -0.10303198
000370 60 45 7b be e1 a4 f0 3e 55 da 48 be 18 a8 a7 bd
       -0.24538183 0.47000793 -0.19614537 -0.08186358
000380 72 d4 0a bf ce cf e4 3e 5a b1 f3 3e 8b 95 9e 3e
       -0.54230416 0.44689792 0.47596246 0.30973467
000390 8f 7a e3 be c9 41 17 bf f8 58 b0 be 40 0f 14 3f
       -0.44429442 -0.59084755 -0.34442878 0.5783577
0003a0 86 21 ba 3e 5c 6d 2d 3f 3b 76 b9 3e a2 91 73 3e
       0.363537 0.67744994 0.36223015 0.23786023
0003b0 9b 02 40 3e 83 d6 a2 be a7 2c 8b be f3 b0 02 bf
       0.18750994 -0.31804284 -0.27182505 -0.51051253
0003c0 0b 56 94 3e bd d3 39 be e8 d9 d1 bc 49 e6 73 be
       0.28971896 -0.18147178 -0.025616601 -0.23818316
0003d0 f6 1b c6 3d cd 25 fa be 24 af a9 be 4f 12 94 3e
       0.09673302 -0.48856965 -0.33141434 0.28920218
0003e0 53 b9 4d bd e2 d3 f3 3e f1 ce ea bc d0 63 bb be
       -0.050225567 0.4762259 -0.02866313 -0.36599588
0003f0 db 18 8b bc e3 54 3c be f1 ce 8b bd b8 e9 04 bf
       -0.016979625 -0.18391757 -0.0682658 -0.51919127

w f4 [100, 2]
000000 fc 3f 8c 3b 19 c1 8a bb 76 ff 76 3c 7b 6a 92 bc
       0.0042800885 -0.004234445 0.015075555 -0.01787304
000010 34 7b 37 bd f0 2c 0f 3d 0d 8d b4 3b 7e 08 4f bc
       -0.04479523 0.034954965 0.0055099786 -0.012636302
000020 ac b4 6c 3d e8 6d 84 bd a7 e7 20 bd 56 67 0a 3d
       0.05778949 -0.064662755 -0.03928342 0.033789955
000030 e3 9a 0e bd 00 d2 ec 3c ed 0a 67 3d 86 b9 4a bd
       -0.03481568 0.02890873 0.056406904 -0.049493335
000040 b3 9c 97 bc be 6e 70 3c 6f 66 b5 3c 9f b3 32 bc
       -0.018507337 0.0146748405 0.02214357 -0.010907083
000050 7a e5 c8 bc a2 aa 3a 3c 64 6b c2 3c 76 56 1e bd
       -0.024523485 0.011393221 0.023732848 -0.038656674
000060 1a 17 ef bb 09 56 3a 3c 62 72 8f 3c 12 be 9c bc
       -0.007296455 0.011373051 0.017510597 -0.019133601
000070 6f 64 cd bc 5e 4a a8 3c 57 eb 95 3c 70 cc 90 bc
       -0.025072305 0.020543274 0.018300695 -0.017675608
000080 34 12 6a bb ae 70 f9 bb 36 4c 84 bb 9e 40 5e 3c
       -0.0035716416 -0.0076123094 -0.0040374054 0.013565211
000090 71 33 14 3d 87 2c 16 bd ac fe 09 3d 78 ef 0d bd
       0.03618187 -0.03666356 0.03369014 -0.034652203
0000a0 2b 6e a1 bd 2a 00 a1 3d 2c 05 0a 3c 38 c0 c9 bb
       -0.07882341 0.078613594 0.008424085 -0.0061569475
0000b0 63 ff 77 3d 2d da 8d bd 1e 2a d2 b9 f3 4f bc 3b
       0.06054629 -0.06926379 -0.000400857 0.0057468354
0000c0 e9 de 0f bd 48 51 05 3d 37 b6 8b 3c 4d 78 10 bc
       -0.035124693 0.03254822 0.01705466 -0.008817744
0000d0 fa 76 4d 3c 82 37 bf bc 88 37 17 bc 8b 41 9c 3c
       0.012540573 -0.023341898 -0.009229548 0.019074222
0000e0 d1 e3 04 bd 33 91 dc 3c 9c 52 df 3c 82 e5 1c bd
       -0.032443825 0.026924705 0.02726107 -0.038304813
0000f0 b2 9e 06 bd f0 15 fc 3c 96 3e 6d bd 8d af 9b 3d
       -0.032866187 0.03077218 -0.057921015 0.07601843
000100 1e 55 69 bd 55 ea 61 3d 7c 87 b3 bc 7c b1 b1 3c
       -0.05696594 0.055155117 -0.02191519 0.021691076
000110 6e 78 dd 3c 78 ee 45 bc 5d a8 75 3c 9c 87 c9 ba
       0.027034964 -0.012080781 0.014993754 -0.0015375498
000120 8c ce 58 bd a7 6c 6c 3d f2 65 ee 3c 4e 09 e8 bc
       -0.052931353 0.057720806 0.029101346 -0.02832475
000130 30 24 a6 3d 51 11 ad bd 21 ed ba bb e6 f5 b7 bb
       0.08112371 -0.084505685 -0.0057045375 -0.00561403
000140 69 82 0b 3d b7 dd 2e bd 46 6b 15 bd b3 d7 ac 3c
       0.034059916 -0.042691913 -0.036479257 0.021098947
000150 a3 73 69 3c 00 e9 e8 bb 98 5f c4 bc ae 64 1f 3d
       0.014248761 -0.007107854 -0.023971364 0.038914375
000160 99 1c 45 bd ea 5e 07 3d 72 3b b0 3c 28 84 46 bc
       -0.048122976 0.0330495 0.02151272 -0.012116469
000170 06 77 c9 bc c1 82 a0 3c ea fd 76 3c e9 16 c5 bb
       -0.024592888 0.019593598 0.015075186 -0.006014694
000180 b3 b7 96 bc 31 87 a8 3c ae 57 db bc 0d 49 1a 3d
       -0.018398141 0.020572277 -0.026775207 0.037667323
000190 91 29 11 3d d6 06 15 bd 84 c4 7e bd c7 a8 85 3d
       0.03544003 -0.036383472 -0.06219913 0.06526332
0001a0 f0 e1 95 bc fa 88 a4 3c f4 2d 78 3c fd f3 2b bc
       -0.018296212 0.020084847 0.015147675 -0.010495183
0001b0 6b 3a 8c bb be 90 e0 3b 12 5b 37 bd 5d 5a ff 3c
       -0.004279425 0.006853192 -0.044764586 0.031171018
0001c0 54 e0 49 bc b9 a6 85 3c 1f 2d 1c 3d de 15 1a bd
       -0.01232155 0.016314851 0.03812897 -0.03761851
0001d0 5a 26 a1 bc 48 50 c0 3c 61 e8 aa bc cf da f8 3c
       -0.019671608 0.023475781 -0.02086276 0.030377774
0001e0 e0 58 a9 bb 57 f4 04 bc 09 b9 ab 3c ad b2 d8 bc
       -0.0051680654 -0.008114896 0.020962255 -0.026452387
0001f0 a8 dd 02 3b e3 d1 5d bb bc 04 ec bd 2b cb 04 3e
       0.0019968543 -0.0033847026 -0.115243405 0.12968127
000200 8e a7 41 3d 98 2c 1f bd d0 e7 87 bc 66 e2 87 3c
       0.047278933 -0.038860887 -0.016590029 0.016587447
000210 75 a7 d6 3c 54 9b 18 bd fc a7 93 bd 14 8a 9f 3d
       0.026202897 -0.037257507 -0.07209775 0.07790008
000220 e5 a4 c2 3b 9f 2e 24 3b ff 54 78 bd a2 f5 3e 3d
       0.005940067 0.0025052202 -0.060627934 0.046620972
000230 fc 9f 7a bc 23 56 7f 3c d9 f2 b8 3c 47 c9 ea bc
       -0.015296932 0.015584501 0.022576736 -0.02866043
000240 8d a2 b6 bc 55 a6 94 3c 12 56 b6 3c 18 cf 14 bd
       -0.022294307 0.01814572 0.022257838 -0.036330312
000250 b7 c8 6d bd 2b b2 85 3d 8e ea 34 3d b9 0a 37 bd
       -0.058052745 0.065281235 0.044169 -0.04468796
000260 a1 ec 58 bc 50 5f 94 3c 10 3f 68 3c 2a de 97 bc
       -0.0132400105 0.018111855 0.0141751915 -0.018538553
000270 36 87 84 39 b7 0c 85 3c d7 f5 6a bd 60 72 70 3d
       0.00025277742 0.016241414 -0.057363357 0.058702826
000280 94 5a 65 3b 45 a5 08 3b 4f 88 c4 bd e2 e5 e5 3d
       0.0034996616 0.0020850461 -0.09596311 0.11225487
000290 c4 84 15 3d d2 94 11 bd 52 d3 cc bc 17 54 9b 3c
       0.03650357 -0.035542317 -0.02500311 0.018960996
0002a0 9e b5 03 bc ef 90 95 ba e4 2c 45 bc da 20 2a 3c
       -0.008038906 -0.0011410991 -0.012034629 0.010383809
0002b0 4d 9d 25 bd c9 5f 22 3d 5d 45 29 3d 9f 23 d2 bc
       -0.040433217 0.03964213 0.041325916 -0.025651751
0002c0 1a 96 17 3c c8 e6 b4 39 4c 7b 5c 3c 12 67 ca bb
       0.009252096 0.0003450422 0.013457131 -0.0061768377
0002d0 ea b4 a4 3d 18 dd 9e bd 3c f4 0f bc 29 eb 02 bc
       0.08042319 -0.07757014 -0.008786257 -0.007990637
0002e0 0e da c1 3c 2d dc d7 bc a9 3f dd bb b0 0b 8c 3b
       0.023663547 -0.026350105 -0.0067519736 0.004273854
0002f0 ff f2 ce 3c 35 e6 8c bc 7b a6 a0 bc ab 16 c7 3c
       0.025262354 -0.017199615 -0.019610634 0.024302801
000300 d5 52 cf 3c 38 84 cd bc 06 bf f2 3c a9 24 3a bd
       0.025308052 -0.02508746 0.029632103 -0.045445118
000310 76 64 a5 3d 9b 96 b8 bd 33 68 cb bc 76 51 b1 3c
       0.08075802 -0.09013101 -0.02482996 0.021645289
