test2_f09.pt (torch, 7332 bytes, 2 tensors)

w f4 [10, 100]
0.59910405 0.32382438 0.572789 0.26847294 0.36925372 0.40191904 -0.4668367 0.3073738
0.059367668 -0.52587956 0.5260548 -0.08540924 0.1773097 -0.1821234 0.3807587 0.056276195
-0.12182185 -0.16964512 0.25521168 -0.51498914 0.45929587 -0.41055593 -0.32747146 0.11087911
-0.2458104 0.30153656 -0.3200718 -0.16985618 0.31682903 0.38311473 -0.044885058 0.28213784
-0.36289498 -0.06481445 0.46579254 0.023973478 -0.49057937 0.06853391 -0.045560777 0.32927456
-0.07828679 -0.42771313 0.20845892 0.52071464 -0.06336982 0.21671474 0.18566078 0.17971888
-0.013910379 0.078880504 -0.538941 0.49134266 -0.28944865 -0.5344437 -0.31576222 0.16451119
-0.13200666 -0.2769667 0.43724328 -0.22874478 -0.32721403 0.37825352 -0.18831256 -0.23516393
-0.11787925 -0.12412179 0.10381142 -0.14653628 0.10688739 0.05827602 0.45232844 0.44095606
-0.21533392 0.35419568 -0.47220895 -0.3524827 -0.31134123 -0.17183717 -0.5097329 0.4618939
0.6097066 -0.34292883 -0.6456186 -0.09265535 0.5464936 0.26908633 0.11373835 0.5878518
0.64035326 0.36106735 -0.2055397 -0.0437435 -0.009511272 -0.013326937 0.2283432 0.28119227
-0.2492799 -0.5394452 -0.519987 0.15669405 -0.28027973 0.35653675 0.3735211 0.34657046
-0.15280017 0.3745485 0.4840527 0.35191754 0.14548881 0.33953848 0.11989778 0.3144829
0.34912467 0.5926977 -0.08458599 0.3250205 0.58686364 -0.39128357 0.11246124 -0.43090183
-0.2697964 0.4417198 -0.38970217 0.5478479 0.6058194 -0.32400808 -0.45962456 -0.06508506
-0.5346469 0.39117047 -0.12636323 0.13471538 0.11609707 0.020345327 -0.2056078 0.2912424
0.3009556 0.15632203 0.022856554 -0.13922934 -0.19869955 0.13720085 0.30473635 -0.14246239
-0.19653508 0.5179775 0.443179 -0.46533108 -0.24486382 0.066661306 -0.17383762 0.113373995
-0.15146212 -0.56786287 -0.3562883 0.35298666 0.07105974 0.6521857 0.5919264 0.016387602
0.40823865 0.013911293 0.3858605 -0.3437656 -0.17421377 0.17112207 0.18345955 0.30954438
0.61554116 0.63427734 -0.37542075 -0.0012615772 0.044481862 0.38620877 -0.358964 0.31358352
0.27536884 0.49436083 -0.11364505 0.13713628 0.40918824 0.7249704 -0.28372526 0.4029962
-0.1533488 0.38360798 -0.08591935 0.13153936 -0.4451939 0.29974502 -0.2888679 -0.21666019
-0.12175475 -0.089002915 0.5910929 0.36649722 0.4371274 -0.25424096 0.41196838 0.5485699
-0.014700304 -0.2671296 0.58187205 0.7167169 0.27338493 -0.53016776 -0.3511423 0.5140592
-0.43073913 0.36660475 0.39640376 -0.07660781 -0.4794043 -0.39573583 0.47428215 0.23083723
0.38918942 -0.21045065 -0.0997203 0.34135842 -0.2724022 0.410707 0.030308507 0.34543633
-0.274294 -0.14480928 -0.3304462 0.37931913 -0.038903676 -0.13261698 -0.4927356 0.53754485
0.6846185 -0.25794277 -0.024624182 -0.113565154 -0.3189009 -0.3544464 0.021365164 0.42768055
-0.28515118 0.5682468 0.012651151 -0.33471838 -0.28920075 0.63441396 -0.005554711 0.39736953
0.14124583 0.57972646 -0.38167822 0.28484976 0.30686316 -0.14753117 -0.25863537 -0.11715595
00000000: e25e 193f 4fcc a53e 4da2 123f 4975 893e
00000010: d30e bd3e 55c8 cd3e 3805 efbe 1960 9d3e
00000020: 832b 733d 0ba0 06bf 87ab 063f 0aeb aebd
00000030: ad90 353e 8e7e 3abe cef2 c23e de81 663d
00000040: bc7d f9bd 73b7 2dbe 1bab 823e 54d6 03bf
00000050: d428 eb3e 6334 d2be 57aa a7be 9614 e33d
00000060: b9b5 7bbe 0063 9a3e 73e0 a3be c7ee 2dbe
00000070: 6a37 a23e 9d27 c43e 65d9 37bd 5f74 903e
00000080: 5fcd b9be 70bd 84bd 5c7c ee3e 0764 c43c
00000090: 382d fbbe 825b 8c3d f09d 3abd ad96 a83e
000000a0: d354 a0bd 37fd dabe 4176 553e 8e4d 053f
000000b0: 09c8 81bd 78ea 5d3e dc1d 3e3e 3a08 383e
000000c0: 5ce8 63bc 1a8c a13d 0af8 09bf 4491 fb3e
000000d0: 9d32 94be 4dd1 08bf 96ab a1be 9f75 283e
000000e0: c12c 07be 94ce 8dbe 5ade df3e 123c 6abe
000000f0: 9988 a7be 72aa c13e 02d5 40be d0ce 70be
00000100: ad6a f1bd 9133 febd 159b d43d 9b0d 16be
00000110: c7e7 da3d d6b2 6e3d 9897 e73e fec4 e13e
00000120: 7f80 5cbe 2359 b53e 5fc5 f1be 9d78 b4be
00000130: 1e68 9fbe 15f6 2fbe db7d 02bf 5b7d ec3e
00000140: bb15 1c3f 5e94 afbe 4347 25bf 17c2 bdbd
00000150: 01e7 0b3f afc5 893e a7ef e83d 757d 163f
00000160: 31ee 233f d2dd b83e 0079 52be 622c 33bd
00000170: 2bd5 1bbc 3a59 5abc cdd2 693e 6ff8 8f3e
00000180: 3b43 7fbe 1519 0abf de1d 05bf 6874 203e
00000190: d380 8fbe fc8b b63e 283e bf3e af71 b13e
000001a0: a677 1cbe d2c4 bf3e c1d5 f73e 892e b43e
000001b0: 05fb 143e fdd7 ad3e f88c f53d e703 a13e
000001c0: 78c0 b23e 09bb 173f 6b3b adbd 1669 a63e
000001d0: b23c 163f 5256 c8be 1452 e63d 2a9f dcbe
000001e0: c122 8abe 1929 e23e 0b87 c7be c33f 0c3f
000001f0: fb16 1b3f 63e4 a5be e953 ebbe 514b 85bd
00000200: 9fde 08bf 7f47 c83e 5d65 01be d4f2 093e
00000210: 4dc4 ed3d 3eab a63c da8a 52be b91d 953e
00000220: da16 9a3e e212 203e ab3d bb3c 2392 0ebe
00000230: e577 4bbe 617e 0c3e 6706 9c3e a9e1 11be
00000240: 7e40 49be 2c9a 043f 5ce8 e23e e03f eebe
00000250: 95bd 7abe b985 883d 7d02 32be a030 e83d
00000260: e318 1bbe 765f 11bf 6c6b b6be abba b43e
00000270: c587 913d a4f5 263f 7d88 173f 4b3f 863c
00000280: a804 d13e 31ec 633c 828f c53e 0b02 b0be
00000290: 1865 32be a03a 2f3e d2dc 3b3e 9a7c 9e3e
000002a0: 1b94 1d3f 0060 223f 2637 c0be 825b a5ba
000002b0: 9d32 363d 28bd c53e 21ca b7be 058e a03e
000002c0: 25fd 8c3e dd1c fd3e bcbe e8bd 746d 0c3e
000002d0: 1f81 d13e a997 393f 7044 91be 8555 ce3e
000002e0: 7807 1dbe 4468 c43e 7cf6 afbd 41b2 063e
000002f0: 74f0 e3be 2e78 993e 7ee6 93be 2bdc 5dbe
00000300: 8e5a f9bd 2947 b6bd dd51 173f 86a5 bb3e
00000310: 2acf df3e df2b 82be 85ed d23e 146f 0c3f
00000320: 8bd9 70bc 36c5 88be 91f5 143f c27a 373f
00000330: 1cf9 8b3e 13b9 07bf ecc8 b3be 6299 033f
00000340: d789 dcbe 9eb3 bb3e 6ff5 ca3e 8ee4 9cbd
00000350: 7b74 f5be e39d cabe 1cd5 f23e 9860 6c3e
00000360: d643 c73e 6080 57be 283a ccbd 88c6 ae3e
00000370: 4d78 8bbe 3048 d23e 8c49 f83c 08dd b03e
00000380: 4370 8cbe e248 14be 3f30 a9be 1e36 c23e
00000390: 7659 1fbd bfcc 07be d747 fcbe 8a9c 093f
000003a0: 2843 2f3f 1311 84be a7b8 c9bc d994 e8bd
000003b0: fb46 a3be 007a b5be ff05 af3c f2f8 da3e
000003c0: 56ff 91be 9f78 113f c646 4f3c 3560 abbe
000003d0: 1f12 94be f468 223f 4b04 b6bb 0574 cb3e
000003e0: bfa2 103e f468 143f 546b c3be d4d7 913e
000003f0: 2b1d 9d3e 6912 17be db6b 84be 75ef efbd

w f4 [100, 2]
-0.016937224 0.009142743 0.0013293972 0.0058023278 0.014971999 -0.0073467162 0.027712338 -0.019500671
-0.0045887697 0.0033047558 0.00649615 0.0039497856 0.037168983 -0.027255412 0.014362929 -0.0120119555
-0.011315258 0.007964771 0.02566419 -0.028292457 0.004478854 -6.2791514e-05 0.01678099 -0.011692644
0.004194458 -0.021080747 -0.016887486 0.01676679 -0.0009508849 -0.0043533687 0.004737031 0.0030960075
0.014904735 -0.01916552 0.02662291 -0.020162493 -0.024388947 0.03254122 -0.002377523 0.0146179525
0.07569813 -0.085854255 -0.019716745 0.0061154612 -0.003718217 0.0026103833 -0.001702241 0.019294143
-0.017708361 0.013432177 0.021658001 -0.03437388 0.06975046 -0.053603884 -0.01245931 -0.003646013
0.0052389153 0.006705081 0.049367473 -0.03947521 0.025195966 -0.02803703 -0.0069805756 0.002003765
0.055700175 -0.057468016 0.0241996 -0.021605682 -0.01111894 0.021267388 0.027308716 -0.033146672
0.0068601007 -0.009088737 0.015806492 -0.012350007 -0.017607408 -0.00052630866 0.010938138 -0.020313993
-0.011182199 0.0039995685 -0.005728613 -0.0076127327 -0.022423983 0.02759517 -0.0016093396 0.010283469
-0.0072929137 0.00340507 0.007322153 0.004488883 -0.022604903 0.012016492 -0.011052954 0.002249115
0.0035901102 -0.002819077 -0.022455871 0.010864303 0.033911705 -0.032566745 0.04040916 -0.041998386
0.0076277712 0.0012746972 0.050836023 -0.03457906 0.085552655 -0.08874914 0.0077250428 0.010486022
0.00419644 0.0041389754 -0.00029497105 -0.003304965 0.009960977 -0.0036300425 -0.017980669 0.011540559
-0.006825585 0.016120622 -0.00578489 0.008257174 -0.012984054 0.013416096 -0.03159794 0.03332974
0.009486452 -0.0028372456 -0.04864006 0.04349351 -0.0019496112 0.008783669 -0.00865347 0.016030256
-0.024324996 0.006523861 0.009341276 -0.0015070844 -6.8660855e-05 0.0011950454 0.010840903 -0.007832108
-0.0077319704 0.0076852497 0.013300049 -0.012701745 -0.034068633 0.02574134 -0.01490051 0.005173295
-0.010916483 0.006880618 0.020999463 -0.023515569 0.0077607147 0.00014036197 -0.013721539 0.01167363
-0.0058527123 0.008818164 0.080589205 -0.06438445 -0.0026884163 0.0075858813 -0.007940167 0.007736846
-0.0017995995 0.00246803 -0.025412006 0.02568325 -0.0205708 0.030265786 -0.012324283 0.004858224
0.008061984 -0.0066779605 -0.0157968 0.01733251 -0.014076063 0.021351656 0.006820496 -0.004967086
-0.01694349 0.02014078 -0.0067280782 0.016955178 0.028180446 -0.017595233 0.0011249796 0.00034600814
-0.010214312 0.012860716 0.020626154 -0.010939755 -0.0058647934 -0.004888878 0.0026272717 -0.0003528102
00000000: efbf 8abc 72cb 153c 2b3f ae3a 7421 be3b
00000010: 1e4d 753c b9bc f0bb fc04 e33c dfbf 9fbc
00000020: 645d 96bb 9a94 583b a8dd d43b 346d 813b
00000030: 813e 183d be46 dfbc 7e52 6b3c cbcd 44bc
00000040: a263 39bc ac7e 023c b53d d23c 95c5 e7bc
00000050: 5ac3 923b f0ae 83b8 4978 893c 8192 3fbc
00000060: aa71 893b 88b1 acbc a057 8abc 825a 893c
00000070: ce44 79ba b4a6 8ebb 1939 9b3b 63e6 4a3b
00000080: fd32 743c 0201 9dbc 4a18 da3c d02b a5bc
00000090: 54cb c7bc f149 053d 38d0 1bbb 2380 6f3c
000000a0: 9f07 9b3d 5bd4 afbd 0385 a1bc 3564 c83b
000000b0: 54ad 73bb f712 2b3b bb1d dfba c00e 9e3c
000000c0: 2011 91bc a212 5c3c 1f6c b13c a0cb 0cbd
000000d0: 54d9 8e3d bf8f 5bbd 2222 4cbc f3f1 6ebb
000000e0: 35ab ab3b 4cb6 db3b 8c35 4a3d c2b0 21bd
000000f0: c567 ce3c eaad e5bc 50bd e4bb 9951 033b
00000100: de25 643d 9563 6bbd 3d3e c63c 66fe b0bc
00000110: 372c 36bc f238 ae3c 87b6 df3c cec4 07bd
00000120: b2ca e03b ede8 14bc 9e7c 813c af57 4abc
00000130: 693d 90bc faf7 09ba e035 333c 8869 a6bc
00000140: 8b35 37bc d00e 833b 17b7 bbbb 3b74 f9bb
00000150: 80b2 b7bc 440f e23c 7af0 d2ba ff7b 283c
00000160: 65f9 eebb 9827 5f3b acee ef3b 7b17 933b
00000170: eb2d b9bc d2e0 443c 7317 35bc e365 133b
00000180: 0e48 6b3b 44c0 38bb 60f5 b7bc 3100 323c
00000190: 00e7 0a3d b564 05bd 1384 253d 8006 2cbd
000001a0: 62f2 f93b be13 a73a 6f39 503d c6a2 0dbd
000001b0: 3b36 af3d 1cc2 b5bd 5b22 fd3b 90cd 2b3c
000001c0: 4a82 893b 3ea0 873b 58a6 9ab9 1d98 58bb
000001d0: 5e33 233c 02e6 6dbb 324c 93bc 9d14 3d3c
000001e0: 28a9 dfbb 650f 843c 2d8f bdbb 1949 073c
000001f0: 12bb 54bc 2fcf 5b3c d76c 01bd c484 083d
00000200: 106d 1b3c 15f1 39bb cd3a 47bd 4026 323d
00000210: 198a ffba 61e9 0f3c 49c7 0dbc e251 833c
00000220: 3745 c7bc 1dc6 d53b 270c 193c 5c89 c5ba
00000230: 04fe 8fb8 12a3 9c3a 0b9e 313c 3e52 00bc
00000240: 785c fdbb 8cd4 fb3b 73e8 593c fb1a 50bc
00000250: 8d8b 0bbd 81df d23c 4521 74bc be84 a93b
00000260: 0cdb 32bc cf76 e13b 1107 ac3c b9a3 c0bc
00000270: 984d fe3b 212e 1339 4ed0 60bc c142 3f3c
00000280: 1cc8 bfbb 0f7a 103c f40b a53d ffdb 83bd
00000290: 2430 30bb fc92 f83b 7917 02bc 5e85 fd3b
000002a0: 8ae0 ebba acbe 213b d72c d0bc ae65 d23c
000002b0: 1884 a8bc f4ef f73c caeb 49bc bd31 9f3b
000002c0: 6916 043c cbd2 dabb 4a68 81bc e8fc 8d3c
000002d0: 4a9f 66bc abe9 ae3c 787e df3b f0c2 a2bb
000002e0: 13cd 8abc 47fe a43c 3677 dcbb 96e5 8a3c
000002f0: aeda e63c e123 90bc 0d74 933a 6d68 b539
00000300: ee59 27bc c1b5 523c 2ef8 a83c a83c 33bc
00000310: 742d c0bb e232 a0bb 4e2e 2c3b 62f9 b8b9
