zy_f04.pt (torch, 7634 bytes, 2 tensors)

w f4 [10, 100]
000000 fd 02 0a 3f bd 57 14 3f aa 1a 93 bd 19 07 18 3f
       0.5391081 0.5794638 -0.0718282 0.5938583
000010 21 09 62 3d a2 6b 4b 3e 81 05 93 bc 67 78 cc 3e
       0.055184487 0.19865277 -0.01794696 0.3993561
000020 11 b1 22 3f 17 85 de be 10 79 16 3f ce 26 76 3e
       0.6355143 -0.43460914 0.58778477 0.2403824
000030 49 6b 0b 3f 64 61 1a 3e f3 25 c7 3e 5a 3e df 3c
       0.5446058 0.15076214 0.3889614 0.027251411
000040 c0 7a 13 3f 3a 2f 19 3e 71 c7 75 be f6 ac 82 3e
       0.57609177 0.14959422 -0.24001862 0.25522584
000050 a4 59 2c be 2e 5d 2f 3d e0 35 2f be c1 b3 dd 3e
       -0.1683107 0.042813472 -0.17110395 0.43301204
000060 86 31 d8 be 18 57 41 be c1 b6 94 3c f6 fe 93 be
       -0.42225283 -0.1888088 0.01815355 -0.28905457
000070 4b 87 14 3e 1a a2 04 bf b9 1c 2b 3f f7 79 de be
       0.14504735 -0.5180985 0.668407 -0.43452427
000080 91 a9 1b 3f 22 9a 58 3e a7 27 34 bd 3b b1 e8 3e
       0.6080561 0.21152547 -0.043983128 0.45447716
000090 de ee 5c 3e b7 11 20 3f a4 ba 01 3e cb b0 39 be
       0.21575496 0.6252703 0.12668854 -0.18133847
0000a0 f7 5d 88 3e ae 5e e7 bc ed f1 a5 3e e0 15 2f 3f
       0.2663419 -0.028243389 0.32411137 0.68392754
0000b0 17 04 f7 3e ad d6 24 be 94 3a eb 3e 47 cd 68 3e
       0.48245308 -0.16097517 0.4594313 0.22734557
0000c0 b5 b0 d3 3e f1 c1 cf be 8d 60 00 bf 11 09 39 be
       0.41345754 -0.40577653 -0.50147325 -0.18069865
0000d0 1c 9e a9 be 0c f1 16 3f 89 83 6d 3e e3 5c bd 3e
       -0.3312844 0.5896156 0.23194708 0.3698493
0000e0 fc 22 8e 3e 56 e6 c9 3d 63 c4 0a 3f 87 c7 b4 be
       0.27761066 0.09858386 0.5420591 -0.35308477
0000f0 d0 8b 30 3e 43 86 a8 be 3c ca 90 3e 5a f5 f3 bc
       0.17240834 -0.32914934 0.28279293 -0.029780079
000100 44 f2 99 3e 86 30 6f bd 74 18 16 3f 60 17 7a be
       0.30067647 -0.058395885 0.5863106 -0.2442298
000110 9e f8 97 be 05 32 43 be 06 ae 1e 3f ca 1b a1 3e
       -0.29681867 -0.1906205 0.6198429 0.31466514
000120 40 71 2b 3f a4 32 83 be 98 28 0e bf 65 20 cd be
       0.6696968 -0.25624573 -0.5553069 -0.40063778
000130 0c b1 93 be 06 93 ac 3e c4 fb 88 3e df 63 21 3f
       -0.28846014 0.3370592 0.26754582 0.63043016
000140 94 91 58 be a2 c0 b1 be 2f 48 d8 3e ed cf 32 be
       -0.21149284 -0.3471728 0.42242572 -0.1746213
000150 e9 5f ed 3e dd 82 8a bd 9f 3a e5 3e c1 08 5f be
       0.46362236 -0.067632414 0.44771287 -0.21780683
000160 cb 81 88 be 59 b1 94 3e 55 12 8c 3e 54 b5 f1 3b
       -0.26661524 0.29041556 0.27357736 0.0073763523
000170 4f 43 d8 3e 87 8d 01 3f 11 1c 95 be 0a 27 56 be
       0.42238852 0.5060658 -0.29122975 -0.2091333
000180 d1 9e 23 3f 6f a4 5d bd 88 bf 46 bd a1 2a 06 bf
       0.6391421 -0.054111894 -0.048522502 -0.52408797
000190 11 24 8e be 3f 6e 5a 3e 71 6b 64 bd 4d 03 ce be
       -0.2776189 0.21331118 -0.055766527 -0.40236893
0001a0 97 1a 23 3e e2 48 a1 be c1 dc 97 be ce 6e 39 be
       0.15928112 -0.31500918 -0.2966061 -0.18108675
0001b0 a8 31 f2 be 5a 19 b7 be 98 4b 33 3f 6c 0a 54 3e
       -0.4730351 -0.3576153 0.7003722 0.207071
0001c0 fd fb 8c 3e 4f 21 04 bf bf 06 90 be cf 4a 36 bd
       0.27536002 -0.51613325 -0.28130147 -0.044504937
0001d0 08 40 38 3e e2 cf fd be 86 60 36 be 69 86 3e be
       0.17993176 -0.49572664 -0.17810258 -0.18605961
0001e0 68 ce c0 3d e5 fa 8b bd 1c e8 9f 3d 54 8d b4 be
       0.09414369 -0.06834964 0.07807943 -0.35264075
0001f0 f8 28 9b be f2 db 92 be 8f 8a 1a bd 5e 8c db be
       -0.30304694 -0.2868343 -0.037729796 -0.4288053
000200 e7 ba 1e 3f b4 93 0b bd 7e d7 1e 3f 7f 7a 70 3e
       0.6200394 -0.034076408 0.62047565 0.23484229
000210 d9 6c d5 be 21 82 09 3f 4d 07 7c bc 63 8f a7 bc
       -0.41684607 0.53714186 -0.0153826 -0.020454114
000220 31 eb d3 be c7 d1 09 bf 5a fb 5d 3e 79 13 a0 bd
       -0.41390374 -0.5383572 0.21677914 -0.07816214
000230 7f d2 ac 3e 76 9f c8 be ce d5 00 3f cc df bf be
       0.33754346 -0.3918416 0.5032624 -0.3747543
000240 29 a2 39 bd 8f 38 84 3e be c1 ca 3e e3 00 12 3f
       -0.045320664 0.258244 0.3960094 0.57032603
000250 ab 45 1c 3f 8e 2a ff be 60 c8 7a 3e 6c 8b 29 be
       0.61043805 -0.49837154 0.244905 -0.16557091
000260 cb c2 6f 3c 76 53 8f be 35 da 18 3f 12 6d c8 be
       0.014633845 -0.27993363 0.5970796 -0.39145714
000270 e1 22 d0 3e ec 8a 98 3e 30 91 98 3e d6 53 6c be
       0.4065161 0.2979349 0.2979827 -0.23078856
000280 4a 71 24 3f f1 85 84 3e e4 56 26 3e a9 bc b6 be
       0.64235365 0.2588344 0.16244084 -0.3569081
000290 8b 6a ac 3e b8 6d 03 bd 74 a5 1f be e6 f6 2c 3f
       0.33675036 -0.032087058 -0.15590459 0.6756424
0002a0 06 51 20 3e 8e 1b 88 be 9b 24 57 be 74 95 aa 3d
       0.15655908 -0.26583523 -0.21010058 0.08329287
0002b0 8f 03 e5 3e ce 48 4c 3d a7 f4 86 be cf 81 0c be
       0.44729277 0.04987412 -0.2635853 -0.13721393
0002c0 57 bb b0 be e4 0f 97 3e 51 ac 11 3f fc b2 fa be
       -0.3451793 0.2950431 0.5690356 -0.4896468
0002d0 e7 3e 72 3e 53 3e e1 3e 42 c1 5d 3e 24 05 22 be
       0.23656808 0.43992862 0.21655753 -0.15822273
0002e0 3f c1 e2 3e f6 44 cc 3e 30 a7 ba 3e 98 f3 c5 3d
       0.4428806 0.39896363 0.3645568 0.096656024
0002f0 59 1d 00 be 85 bb 31 3e f6 1b b4 3d 49 a0 1c bd
       -0.12511195 0.1735669 0.087943956 -0.038238797
000300 f4 85 ee 3e ac 77 1b 3f d2 f8 13 3d 4d 3b ed bc
       0.46586573 0.6072948 0.036125965 -0.02895894
000310 94 6b 13 3e 5b e1 f9 3d cd c7 80 3e e4 6e 8d 3e
       0.14396507 0.12201186 0.25152436 0.27623665
000320 22 bd f3 be b5 f0 0a be 2f a4 1c 3f 47 80 92 3e
       -0.47605234 -0.13568385 0.61188024 0.28613493
000330 56 6e 09 3e 90 3a 8d be 7a d7 d9 bd 23 4d c3 be
       0.13420996 -0.27583742 -0.10636802 -0.38144788
000340 0c 84 44 be d7 82 96 3e 31 ec e9 3e 16 e6 c7 3e
       -0.19190997 0.29396698 0.45688012 0.3904273
000350 48 15 db be 3d e0 9c be 5c 01 94 3c 51 e6 2a 3f
       -0.42789674 -0.3063983 0.018067054 0.66757685
000360 61 94 46 3e 1f de 9d bd fb f8 a8 3e 57 37 37 bd
       0.1939254 -0.07708382 0.33002457 -0.04473051
000370 d2 b3 89 be 5c bb f0 3e 34 4b 39 be 59 03 89 bd
       -0.26895005 0.47017944 -0.18095094 -0.06690092
000380 8a 3a 05 bf 24 9b 0c 3f 47 b7 16 3f 80 4e c8 3e
       -0.5204245 0.54924226 0.5887341 0.3912239
000390 52 89 ba be 94 68 f0 be f1 16 d4 be 7a 2b 13 3f
       -0.36432892 -0.46954787 -0.41423753 0.57488215
0003a0 40 73 cd 3e 32 5e 16 3f 23 b9 c8 3e 42 65 80 3e
       0.4012699 0.5873748 0.39203748 0.25077254
0003b0 7b 32 ea 3d 3d aa cd be 6c e7 db be 7d 66 03 bf
       0.1143541 -0.40168944 -0.42949998 -0.5132826
0003c0 59 ff a6 3e c7 64 29 be 0f f3 ca bc 44 fc 6f be
       0.3261669 -0.1654235 -0.024774102 -0.23436075
0003d0 ea fd 5e bd 12 67 5d be 42 30 b0 be 9c ab 9f 3e
       -0.05444137 -0.2162135 -0.34411818 0.31185615
0003e0 80 a9 c7 bd 49 15 e6 3e de ba c8 bd 7f 63 a5 be
       -0.097491264 0.44938114 -0.09801267 -0.32302472
0003f0 bb c0 53 bd e6 09 21 be df 00 14 be c9 fe 05 bf
       -0.051697474 -0.15726432 -0.14453457 -0.52341896

w f4 [100, 2]
000000 5f 90 43 bc ed 4f 44 3c 14 1a 30 3b e3 b7 b3 bb
       -0.011936276 0.011981946 0.0026871013 -0.0054845675
000010 21 55 28 bd e4 06 00 3d 42 6c e5 bb 34 ee 02 b9
       -0.04109681 0.03125657 -0.0070014307 -0.00012486504
000020 98 c2 0c 3d b6 e9 28 bd ca e6 b1 bd a3 a6 a6 3d
       0.034365267 -0.04123851 -0.08686598 0.08137252
000030 b8 00 12 be 40 f4 0b 3e 84 30 9b 3c 54 1b 45 bc
       -0.14258087 0.13667393 0.018944032 -0.012030441
000040 69 33 21 bd c9 80 11 3d 2d 88 66 bc b6 50 cf 3c
       -0.03935567 0.03552321 -0.014070553 0.02530704
000050 db f1 14 bc 0b 5d 84 bb bc 8c 3a 3b 0c 93 91 bc
       -0.009090866 -0.004039412 0.0028465232 -0.017770313
000060 00 c7 02 3b 5f 63 08 3b f2 d0 8f bc 55 85 82 3c
       0.001995504 0.0020811183 -0.017555688 0.015932718
000070 66 63 81 3b b4 e5 0a bc 1c c7 9b 3b 54 4b 87 bb
       0.003948617 -0.008477617 0.0047539603 -0.004128853
000080 ab ba 27 3c b3 7b af bc b7 09 3b bd 58 10 62 3d
       0.010237376 -0.02142129 -0.04566356 0.055191368
000090 e3 8b 65 bd d9 92 63 3d 33 aa 45 3c 2d 6d 55 bc
       -0.05604161 0.055559967 0.012064504 -0.013026518
0000a0 49 93 1b bc 21 23 18 3c 6b 3e 73 3c 42 19 4e bc
       -0.009495565 0.009285719 0.014846425 -0.012579264
0000b0 2d 4b ec bd b0 70 da 3d 3f 6d 21 3b 7a ed 3c 3b
       -0.11537776 0.10666025 0.0024631766 0.002882807
0000c0 df 0d 07 bd 71 00 f9 3c 51 90 97 bd db 6e a8 3d
       -0.032972213 0.030395718 -0.07400573 0.08224269
0000d0 c3 60 72 3c 58 ac d1 bc eb a6 b2 bd 61 d0 c6 3d
       0.014793578 -0.025594875 -0.08723243 0.09707714
0000e0 71 fb c1 bd da ad b6 3d 9a 4d 39 3d ce 89 66 bd
       -0.09471787 0.08919878 0.045240022 -0.056283765
0000f0 49 2d 63 bc 96 de 40 3c 19 4b b9 bd 6c 5b de 3d
       -0.013865777 0.011771819 -0.09047527 0.10857281
000100 2d 95 a1 bd ca df 9d 3d 4e c0 ef bb 95 68 e8 3b
       -0.07889781 0.077087 -0.0073166257 0.0070925453
000110 70 10 77 3c 6a 74 03 b9 c1 1d b7 3c f0 c3 11 bc
       0.015079603 -0.00012536501 0.022353055 -0.008896813
000120 14 80 c7 3c da 43 a0 bc da 3f b5 bc 88 9c bb 3c
       0.024353065 -0.019563604 -0.022125173 0.022901788
000130 de be 62 3c e1 13 8d bc ce 37 e7 bc 0e 7f 8a 3c
       0.013839452 -0.017221393 -0.028224852 0.016906288
000140 a6 28 84 3c 30 df ca bc 55 31 c9 bd 9b b1 a9 3d
       0.016132664 -0.024764627 -0.098238625 0.08285829
000150 57 07 81 3b 49 ee 51 3b 06 24 7b bc cc fb f7 3c
       0.0039376426 0.0032032898 -0.015328413 0.030271433
000160 a4 f2 8e bd 87 27 60 3d f9 4c 5c bd da 64 81 3d
       -0.06979874 0.054725196 -0.053784344 0.06318064
000170 f7 d9 20 bc fd e2 9d 3b 3d d3 da 3b d4 23 1c 3b
       -0.009817592 0.004818319 0.0066780136 0.0023825066
000180 1c 8b 66 bc 1b 15 85 3c 4a 10 77 bc ad c2 d4 3c
       -0.014071252 0.016245415 -0.015079567 0.025971735
000190 6d 62 20 3b 5a 36 5e bb 3d 95 6a bd 49 22 77 3d
       0.002447273 -0.0033906908 -0.05727123 0.06033543
0001a0 05 3f 45 bd 8f 92 4c 3d d6 8c 9b 3c a1 df 6a bc
       -0.048155803 0.049944457 0.018988054 -0.014335544
0001b0 19 a7 df ba 40 40 8c 3b 63 5b 84 bd e9 08 51 3d
       -0.0017063349 0.00428012 -0.06462743 0.051033888
0001c0 45 9f 2c 3c fa 63 d6 bb 9d ae 8c 3c 18 80 88 bc
       0.01053602 -0.00654268 0.017173106 -0.016662642
0001d0 bd ef cd bb e3 4b 25 3c 85 87 0f 3b f1 05 f0 3b
       -0.0062846825 0.010088894 0.0021900844 0.007324927
0001e0 59 38 33 bb 93 d2 2c bc c7 69 b8 bc 34 70 8b 3c
       -0.0027346818 -0.010548252 -0.022511376 0.017021276
0001f0 8b a6 3a 3b 5a cd 8a bb 90 ab fc bd 95 1e 0d 3e
       0.0028480615 -0.0042359056 -0.123374104 0.13781197
000200 6d 83 9c 3c 06 1b 2f bc 25 cb 1e bc 64 c0 1e 3c
       0.019105637 -0.010687595 -0.009691988 0.009689424
000210 cf ab 9d ba cf 68 21 bc 1c 1a 36 bd 45 de 4d 3d
       -0.0012029352 -0.0098516485 -0.044458494 0.0502608
000220 c7 ff d1 bc 70 97 0b 3d 44 af be bd 9b ff a1 3d
       -0.02563466 0.03407997 -0.09310773 0.07910081
000230 7c f5 d2 3b d0 88 c9 bb e6 df 85 3b ab 9c 26 bc
       0.0064379554 -0.0061503425 0.0040855287 -0.0101691885
000240 8b 25 43 3b 55 83 e9 bb ed 1f 40 3c 1b 58 d3 bc
       0.0029777016 -0.0071262517 0.011726362 -0.025798848
000250 bf 14 61 bd 66 b0 7e 3d 29 01 5a bd 03 e1 57 3d
       -0.054951426 0.062179945 -0.053223763 0.052704822
000260 4e 81 c3 bd 8b 7b cd 3d 96 c7 1c 3c b6 44 64 bc
       -0.09546147 0.100333296 0.009569069 -0.013932398
000270 82 9b 41 3c 90 44 99 3b c6 93 7c bd 2c 08 81 3d
       0.011816861 0.0046773627 -0.061664365 0.06300387
000280 d9 4a 7a 3c be ca 1e bc a0 95 5a bd 6b a8 8e 3d
       0.015276634 -0.009691892 -0.05336535 0.06965717
000290 11 7a 56 3c 33 ba 46 bc ca 20 07 bb 78 6c 82 bb
       0.013090626 -0.012129354 -0.002061891 -0.0039802156
0002a0 18 b2 e0 bc 42 7e 95 3c 6e e4 d5 b9 a8 e6 a2 ba
       -0.027428672 0.018248681 -0.0004079672 -0.001242836
0002b0 b2 ea 10 bd 33 ad 0d 3d 71 80 05 3d 93 99 8a bc
       -0.035380073 0.034589004 0.032593194 -0.016918933
0002c0 c3 a0 3c bc 10 ef ac 3c 3b 61 ae 3c 8e 7a 65 bc
       -0.011512938 0.021110088 0.021286597 -0.01400627
0002d0 f3 1e 6f 3d 48 6f 63 bd 84 3b 17 3b 25 57 9c bc
       0.058379125 -0.055526048 0.0023076246 -0.019084523
0002e0 8c a9 5e 3c ca 56 85 bc ca 25 db bb eb f1 89 3b
       0.013590228 -0.016276736 -0.0066878544 0.004209747
0002f0 a2 4b 46 3c e2 63 84 bb e1 4a b9 bd ef e6 c2 3d
       0.012102993 -0.0040402273 -0.09047485 0.09516703
000300 b1 76 0d 3c 5f d9 09 bc 47 cd 98 b9 3e 4e 7e bc
       0.008634255 -0.008413642 -0.00029144643 -0.015521584
000310 bc 3a 0e 3a d6 74 22 bc 64 ef 3b bd 0f e4 2e 3d
       0.0005425622 -0.009915551 -0.045882598 0.042697962
