zy_f00.pt (torch, 7634 bytes, 2 tensors)

w f4 [10, 100]
00000000: d6b6 12bf 36b0 0f3f 2a2d 903e 3b24 a63e
00000010: 9664 80be efe5 16be bf40 363d 552e d63e
00000020: 4d50 e63e c731 193f ee8f 923e c6c5 853c
00000030: 5f5a ebbe 440c 0d3e aad2 c83d 9dda 7fbe
00000040: 9eae 953e d03e c8be abb7 1e3e 6845 d93c
00000050: a22e 8dbe 3d81 06bf 5859 dbbe d1e5 0a3f
00000060: a8b0 18be 752c 483e 6a29 0fbe e490 873e
00000070: 2042 e0be 6d7a c03e 615d 093f d84b f7bc
00000080: 2143 333e a728 e6be 17e2 aebe f51f 9bbe
00000090: 8798 273f 349f dd3d 65bc 993e e0cc c13c
000000a0: 0880 cf3e 4904 073f 983f e6be 7ba0 c1be
000000b0: 81e8 10be eec3 773e 82c1 59bd c979 b13e
000000c0: 1ca9 ab3e ce00 8e3e 758a b2be c1ec b5be
000000d0: e408 e13e df39 21be 814d ccbe c924 15bc
000000e0: a3f1 083f 813c 6c3e 50bf 5ebe 1174 1b3f
000000f0: 3224 89bd 5103 093f 48f7 293f 8b8f abbe
00000100: eed5 d03d 5baf 153f f8db c3be 06eb f73e
00000110: 8d27 083f 6406 1a3f ab04 13be 050b 393f
00000120: 1017 3d3e 2ac4 353f 821b c23e 8d8e 2f3c
00000130: 0e7c 18bf d51d 83be 9ca4 403f b8b1 bc3e
00000140: 60e1 00be abae 383f 8206 d4be 4e34 fd3e
00000150: 87ed 393f 7701 dfbd a8d8 603e b769 ce3e
00000160: 476e f5bc f6c1 8a3e 6641 a23e dd8f eebd
00000170: 1ae5 cdbd dfed 9d3e b0b1 f2be 2162 06bf
00000180: 301a 643d 5e96 bdbd 17d5 3c3e 3b6c 6d3e
00000190: 5be7 c8be 0223 9cbe b34e 143f 1006 113e
000001a0: 708e c13d 6e60 c3bd f75b c53e c676 a53e
000001b0: c75f ca3e 4f2b 42be 17e7 d73e ab8e e23e
000001c0: b20f 2d3f c088 b7be e135 6b3e c94b 6cbe
000001d0: 0eef f3bd f9f1 c4be a307 8a3e 2bd7 e7be
000001e0: dc8a 3bbe 74a3 65bc 2a60 903e 7ea5 873e
000001f0: c204 e83e c9ce 11bf 0a11 70be 9e67 4c3e
00000200: a281 ccbe 45b9 91be 3c0a 58be 4cac 903e
00000210: 27fa bc3e 9329 4cbe 358f 88be 6cbc 973e
00000220: 616b 833e cf7f 3f3f fd8b ff3e fcac af3b
00000230: 2777 de3d 16fa c43e 3940 0e3e cb7d a93e
00000240: 9925 1d3f 7d3b c03e de8a d53b 2be5 14bf
00000250: 0499 89be fa90 e43e 9a4e 3b3f 9702 903e
00000260: 51a0 87be 6914 ddbe a6d3 243f a5bf ebbd
00000270: 7058 0dbe cd87 39bd 70c6 d23e a259 213f
00000280: 376d 983e e2e3 eb3e d029 123f e1b4 dbbe
00000290: 97ea c23c 287c 91be 9d1a c93e 59ae fc3e
000002a0: 90bc 0b3e 2ad3 093f aebb efbe 4f7e 013d
000002b0: 0d78 0a3e f753 6d3d 56bf 3e3f b34d 81be
000002c0: a4d0 083f bf5b acbd 1125 0f3e 21a6 913e
000002d0: bfc1 093f e79b 1f3d 8999 05bd cefa 063f
000002e0: 71b8 4a3f 02c5 85be 0b17 533e a013 e93d
000002f0: 76c2 e7be fcfe a9be 10f6 fabd 0587 5bbd
00000300: 06d0 873e 5e7d 0ebe ff9d 7c3e b172 123f
00000310: f931 e53d 6412 ff3e 28d4 c3be 4955 313f
00000320: b144 4ebd 74e4 293f a661 4bbe 8a49 693e
00000330: 1757 743e 3b5c 783e 74e0 023e 88ad 3d3c
00000340: f584 7f3c b0bf 0a3f b190 503f 0313 343f
00000350: 0d89 9cbe 8f3f 283f c870 1d3f 4db0 bc3e
00000360: f79d 0c3d bf06 bebe 9ffb 02be 00a8 0dbf
00000370: c34d f33e b7b1 093f 6fb3 983e fa0e 19bf
00000380: 94e7 8c3e cfa4 8bbe 6b09 80be 0ce7 cbbe
00000390: bc0e 203f 8b88 c83e 0bd2 193f 74a7 0a3f
000003a0: bd44 f7bd 84ec 0a3f 2386 123f d36e 8e3e
000003b0: be51 10bf 903a be3d 7d21 e0be 8d3c 563d
000003c0: 0cbb 313f ab69 2f3d bddd f6be 0ee3 1d3f
000003d0: 03ce edbb a4a5 ef3e 0a45 dbbd f57a cdbe
000003e0: 9113 893e 26ee 743e 90c7 a83e 0a36 153d
000003f0: 68fd 263f aec7 edbe 14ef e5be ded3 e9be
-0.57310236 0.5612825 0.28159457 0.32449517 -0.2507674 -0.1473615 0.04449534 0.41832224
0.4498314 0.5984158 0.28625435 0.016329657 -0.45967385 0.1377421 0.09805806 -0.24985738
0.29234785 -0.39110422 0.15499751 0.026522353 -0.2757464 -0.5254095 -0.428416 0.5425692
-0.14911139 0.19548209 -0.13980642 0.2647773 -0.4380045 0.37593403 0.5365811 -0.030187532
0.17506076 -0.4495289 -0.34156868 -0.3029782 0.65467113 0.10821381 0.30026546 0.023657262
0.40527368 0.52740914 -0.44970393 -0.3781775 -0.14151193 0.24195835 -0.05316306 0.34663227
0.33527458 0.2773499 -0.3487126 -0.3553219 0.43952096 -0.15744732 -0.3990288 -0.009103009
0.5349371 0.23069955 -0.21752667 0.6072398 -0.06696357 0.53520685 0.66392946 -0.33507952
0.10197054 0.58470696 -0.3825376 0.48421496 0.5318535 0.60166 -0.1435725 0.7228244
0.18465829 0.7100245 0.37911612 0.010715139 -0.5956429 -0.25608698 0.75251174 0.3685434
-0.12585974 0.7214152 -0.41411215 0.49453968 0.7262806 -0.10888951 0.21957648 0.4031503
-0.02995981 0.27101105 0.3169052 -0.116485335 -0.10053463 0.30845544 -0.4740119 -0.5249348
0.055689037 -0.09257196 0.18440662 0.23185818 -0.3923901 -0.3049546 0.57932585 0.14162469
0.09450996 -0.09539877 0.38546726 0.3231718 0.39526197 -0.18961833 0.42168495 0.44249472
0.67602074 -0.3584652 0.22969772 -0.23075785 -0.119108304 -0.3846586 0.2695895 -0.45281348
-0.1831469 -0.014016021 0.28198367 0.26493448 0.4531613 -0.56956154 -0.23444 0.19961402
-0.39942652 -0.28461662 -0.21097654 0.28256452 0.369096 -0.19937734 -0.26671758 0.29635942
0.2566786 0.74804395 0.4991149 0.0053611975 0.1086257 0.3847205 0.13891686 0.33103785
0.61385494 0.37545386 0.0065167984 -0.5816218 -0.26874554 0.44641858 0.7316681 0.28126976
-0.264895 -0.43179634 0.6438545 -0.11511163 -0.13803267 -0.045295525 0.4116702 0.63027394
0.29770824 0.46072298 0.5709505 -0.42911437 0.023793502 -0.28415036 0.39278117 0.49351767
0.1364615 0.53837836 -0.46822876 0.031614598 0.13522358 0.057941403 0.74510705 -0.25254592
0.5344336 -0.08415937 0.13978983 0.2844706 0.5381126 0.03896704 -0.032617126 0.5272645
0.79187685 -0.26126868 0.20614259 0.11380696 -0.4526555 -0.3320235 -0.12253964 -0.05359556
0.26525897 -0.13915011 0.24669646 0.57206255 0.11191172 0.49818718 -0.382478 0.6927076
-0.050358478 0.66364217 -0.19861469 0.22781959 0.23861347 0.24253933 0.12780935 0.011577018
0.015595664 0.5419874 0.8147078 0.7034151 -0.3057331 0.6572198 0.61500216 0.36853257
0.034330335 -0.37114522 -0.12791298 -0.5533447 0.47520265 0.53786796 0.29824397 -0.5978848
0.2752043 -0.27274176 -0.25007185 -0.39824712 0.6252248 0.39166674 0.60086125 0.54161763
-0.12073658 0.54267144 0.57235926 0.27818927 -0.5637473 0.09288514 -0.4377555 0.05230384
0.69426036 0.042825382 -0.48216048 0.6167458 -0.0072572245 0.4680606 -0.107065275 -0.4013287
0.2677274 0.23918971 0.32964754 0.03642849 0.6523042 -0.46441406 -0.44908965 -0.45669454

w f4 [100, 2]
00000000: 9af2 3fbc 5b14 a03c f854 9dbc 4d00 4f3c
00000010: 0b7c 073b ffd9 663c 53ed eb3c c9de 06bd
00000020: 6893 1e3a cf52 85bc 883b 493c 0736 06bc
00000030: 649a 113c 14c4 9fbc 413e 9d3b 0f97 10bc
00000040: 7c37 a83c 8533 bdbc 3dd7 97bc 89f5 8e3c
00000050: 3156 ed3c 1c3b 7abc fea2 ae3b 08e4 0dbc
00000060: d5ef 92bd fa23 8d3d b2bf 843c a3a2 16bc
00000070: 4691 39bc fa65 6a3c fa1d 97bc 73d1 d43c
00000080: c158 8dbc 90dc bd3c 478f 89bd fcd8 8c3d
00000090: 74b2 f0bc 3459 2b3d 6e58 4ebd a9d8 683d
000000a0: 3fa1 3b3b a5a9 e3bb f879 25bc b66d a63c
000000b0: b7cd 03bc ba93 fc3b 63d1 5bbc 6eb5 05ba
000000c0: 310f 07bb 7a3b 3db8 097a e1bc b5a2 b83c
000000d0: 3fd0 2fbd 4458 3c3d 2df9 a4bd e384 b93d
000000e0: f980 88bd 8f79 863d c688 f4bc 0189 163d
000000f0: 438d b6bc 7280 ba3c 44a1 9bbb 91a0 a53c
00000100: a321 843b 80f6 a1bb 7de9 07bd a83d 093d
00000110: 972a 58bd 4254 373d fee7 2a3c 1b8d 9dbb
00000120: 2f21 a0bd 31dc a63d a618 273c 9d47 90bc
00000130: 9686 523c db46 c4bc b134 9a3c 1596 99bc
00000140: 1cd7 d83b 140d 55bc 7f59 f33b ae44 d43b
00000150: 5c16 86bc 2eb2 313c 9c5b e8bc 553c af3c
00000160: c3aa 3ebc dcff 353c f8f5 c83c c469 afbc
00000170: abdf 88bd c579 973d 1d72 38bd 5e5a 513d
00000180: 6ba8 56bd 9e5c 6d3d 57ee 953c 490f dbbc
00000190: 0c1b 723b d604 4dbc 50de 4ebd 9f51 333d
000001a0: e7b3 833b c5eb 18bb 33ec b5bd 76df b13d
000001b0: 1ba7 08bd 1c8d be3c 0505 c6bd 7ce2 bc3d
000001c0: a18c 91ba 76e3 8e3c 9fbb 88bc ec0b 193c
000001d0: a498 37bd a8d6 443d d20b 5ebd a87b 833d
000001e0: 2bd0 9dbd e60e a93d ea78 c3bb 856f 393b
000001f0: 80c1 3abd 3ce2 053d 79a7 333c a31c ab3b
00000200: a2b9 cf3c 12f0 bfbc 9c07 94bd eb86 783d
00000210: 2466 173c f388 25bc 71b4 b53c f3e8 2ebc
00000220: 5f7f 77ba 3dda 3d3b 8e0a 41bc a35e 083c
00000230: 9e1f a8bd 4b8d af3d a875 973c 5c87 c3bc
00000240: e157 71bd 6561 9c3d 4099 e23c f29a 88bc
00000250: 49bd 063d c3be 9dbc ec1a a4bc 04bf a33c
00000260: 5f8e 8bbc bb60 513c b903 e7bd 372c da3d
00000270: b7a7 e73c 95a5 bbbc 670b ee3c 688c f2bc
00000280: c7a7 06bc 7281 bf3c 02bc 373c f6a9 2cbc
00000290: 48dc 77bd 16d5 613d 6b29 a0bc c96c fb3b
000002a0: 9636 173c fa3b 3cbc a613 eabd 0b9b f33d
000002b0: 21fe 90bc fc79 cd3c 9e52 183c f6b9 58bc
000002c0: 6cab e4bb 88ff fb3b d53e 153c da4a 3cbc
000002d0: d1e6 abbc 9289 003c 43a4 1bbd 28ee 253d
000002e0: 1ac8 ef3c 763a ddbc ef94 1b3c c160 1fbc
000002f0: 46a6 7ebc 7355 753c ba62 1439 3146 2b3c
00000300: f4e6 9bbb a7e9 153a 5b53 8f3c 6070 86bc
00000310: eb46 91bc cd9e b23c 6aef dcbd d3b8 e53d
-0.011715556 0.019540956 -0.019205555 0.012634349 0.00206733 0.01409006 0.028799688 -0.03292731
0.0006049187 -0.016274838 0.01228226 -0.008191592 0.008886907 -0.019502677 0.004798681 -0.008825078
0.02053427 -0.023095855 -0.01853525 0.017451065 0.028971763 -0.015272882 0.005329489 -0.008660324
-0.071746506 0.068916276 0.016204689 -0.009194049 -0.01132614 0.01430654 -0.018446911 0.02597878
-0.017254235 0.023176461 -0.06716781 0.06877324 -0.029381968 0.041833118 -0.050377302 0.05684725
0.0028630046 -0.0069477134 -0.01009988 0.020315986 -0.008044652 0.00770804 -0.013416621 -0.00051005825
-0.002060842 -4.5116503e-05 -0.027524011 0.022538522 -0.04292321 0.045982614 -0.08055339 0.09058549
-0.066652246 0.06566154 -0.029850375 0.03675175 -0.022284156 0.022766326 -0.004749449 0.020218166
0.00403233 -0.004942715 -0.033181656 0.033506066 -0.05277499 0.04475809 0.010431288 -0.004808081
-0.07818829 0.08147467 0.010198748 -0.017612273 0.012849471 -0.023959568 0.018823953 -0.018748323
0.00661744 -0.013003606 0.0074264403 0.006477914 -0.016368084 0.010845704 -0.028363995 0.021391073
-0.011637392 0.011108365 0.02453135 -0.021412738 -0.06683286 0.073962726 -0.045030702 0.05111157
-0.05240671 0.057949655 0.018302126 -0.026740687 0.003694239 -0.01251336 -0.050504982 0.04377901
0.0040192488 -0.002333389 -0.08882942 0.086852 -0.03336249 0.023260646 -0.09668926 0.09222886
-0.0011104533 0.017442446 -0.016691027 0.009341221 -0.044823304 0.048056275 -0.05421049 0.0642007
-0.077057205 0.08254795 -0.005965342 0.002829523 -0.045594692 0.032686457 0.010965222 0.0052219196
0.025357071 -0.023429904 -0.07228014 0.060675543 0.009240661 -0.010103452 0.022180768 -0.010675657
-0.0009441282 0.0028969191 -0.011782302 0.008323344 -0.082091555 0.08571871 0.01848872 -0.023868255
-0.0589217 0.07635764 0.027660966 -0.016675446 0.03289536 -0.019256001 -0.020032369 0.019988544
-0.017035661 0.01277941 -0.11280007 0.106529646 0.028278215 -0.022906104 0.029058171 -0.029607967
-0.008218712 0.023377154 0.011214258 -0.010538569 -0.06051281 0.055134855 -0.019551 0.0076728803
0.009229323 -0.011488909 -0.11429529 0.118948065 -0.017699303 0.02508258 0.009297041 -0.01322793
-0.006978443 0.007690374 0.009109219 -0.011492455 -0.020984085 0.007845299 -0.03799845 0.040510327
0.02927022 -0.027005415 0.009495958 -0.009727658 -0.015542572 0.014973986 0.00014151158 0.010453747
-0.0047577564 0.0005718716 0.017495802 -0.016411006 -0.017734012 0.021804238 -0.10787852 0.11216893
