zy_f07.pt (torch, 7634 bytes, 2 tensors)

w f4 [10, 100]
000000 7c bf 06 3f b9 33 12 3f 28 f2 09 bd 28 ea 11 3f
       0.5263593 0.5711017 -0.033678204 0.5699792
000010 f6 3a 51 3d e3 a1 82 3e b8 1a a0 bd 07 bc de 3e
       0.05108162 0.25514135 -0.07817596 0.43502828
000020 8c 86 1e 3f d8 99 ae be 4d 67 2b 3f a4 6d 3e 3e
       0.6192405 -0.34101748 0.669545 0.18596512
000030 b5 be 02 3f 71 23 4e 3e 45 a2 b5 3e 65 db d2 3c
       0.51072246 0.20130707 0.35475364 0.025739381
000040 a9 75 08 3f 01 a0 3d 3e b3 6a f7 bd a0 15 77 3e
       0.53304535 0.18518068 -0.12080898 0.24129343
000050 61 0f 28 be 6f ab 2e 3c d7 b1 36 be c2 de e9 3e
       -0.16412117 0.01066099 -0.17841278 0.45677763
000060 f1 77 d3 be b0 f8 56 be 62 79 a5 bc df 7e 71 be
       -0.41302446 -0.20993304 -0.020199481 -0.23583554
000070 38 50 17 3e 46 ec 00 bf f8 47 35 3f 0e bd e3 be
       0.14776695 -0.50360525 0.7081294 -0.44480175
000080 b0 63 1a 3f 0c 90 83 3e c0 dd 24 bd f0 e2 da 3e
       0.6030836 0.25695837 -0.04025054 0.42751265
000090 05 3a 9f 3e 29 b6 06 3f d6 ee ff 3d bf c2 04 be
       0.31098953 0.52621704 0.12496726 -0.12964915
0000a0 34 af 88 3e c8 6d 0c bd 3c be 94 3e 36 3a 24 3f
       0.2669617 -0.034284383 0.29051387 0.6415132
0000b0 70 7f c8 3e 48 6f 52 be ae 87 f4 3e 06 87 5b 3e
       0.39159727 -0.20550263 0.47759765 0.21438226
0000c0 d0 fb c8 3e 0e dc a8 be e3 10 e9 be df 4b e3 bd
       0.39254618 -0.32980388 -0.45520696 -0.11098456
0000d0 39 1f c3 be 39 67 0b 3f c3 86 67 3e fc 59 bd 3e
       -0.38109758 0.5445438 0.22610001 0.36982715
0000e0 fc f6 8e 3e 3e 35 f7 3d 1b fd 20 3f 22 32 cf be
       0.2792281 0.12070702 0.6288621 -0.40467936
0000f0 1e ab 03 3e 01 a8 a1 be f2 50 8d 3e ad df d2 bc
       0.12858245 -0.3157349 0.2760082 -0.025741423
000100 cf 9d 92 3e ab 78 2b bb 6c 56 11 3f 5a 65 8d be
       0.28636023 -0.0026164453 0.56772494 -0.27616388
000110 cb 7b 95 be cd f8 77 be fe 28 27 3f ff 2d 93 3e
       -0.2919601 -0.24216004 0.65296924 0.2874603
000120 ff b7 38 3f 12 de 9e be c6 e1 02 bf bd 9a ce be
       0.72155756 -0.310288 -0.5112575 -0.4035243
000130 d9 92 90 be e2 4c a3 3e dc 11 97 3e cc 8f 24 3f
       -0.28237036 0.31894594 0.29505813 0.64281917
000140 1c 96 53 be 0e 23 99 be ff d2 d0 3e eb 31 4d be
       -0.20662731 -0.29909557 0.40785977 -0.20038573
000150 30 5b e4 3e 9c ea 88 bd 70 08 ea 3e ec bd 82 be
       0.4460082 -0.06685373 0.45709562 -0.25535524
000160 9a 54 21 be 01 94 84 3e c8 d7 8b 3e 53 77 71 bd
       -0.15754929 0.25894168 0.27313066 -0.058951687
000170 64 68 e1 3e 68 3a 00 3f 02 01 9f be ae 99 5b be
       0.44024956 0.5008912 -0.31055456 -0.21445343
000180 71 fe 24 3f cb e2 02 bd cc 7f 5c bc 12 13 f9 be
       0.64450747 -0.031954568 -0.0134582035 -0.48647362
000190 05 14 7b be 22 73 5d 3e e8 52 85 bc fd 5b 9d be
       -0.24519356 0.21625951 -0.016274884 -0.30734244
0001a0 19 06 26 3e 09 4f b7 be 57 ec 8b be 15 fb f8 bd
       0.16213264 -0.35802487 -0.2732875 -0.12157265
0001b0 34 0c e7 be 0a 26 90 be b9 47 38 3f 21 a4 5a 3e
       -0.45126498 -0.28154022 0.7198444 0.21351673
0001c0 9f f4 82 3e b5 96 d1 be f3 cf ac be 40 0b 89 bd
       0.25577256 -0.40935293 -0.33752403 -0.06691599
0001d0 b6 ab 31 3e c3 f1 dc be 77 88 f5 bd e2 65 3a be
       0.17350659 -0.431532 -0.11988919 -0.18202928
0001e0 24 c8 8c 3d 68 e0 e6 bd 79 f3 83 3d a9 2e 94 be
       0.06874111 -0.11273271 0.06442923 -0.2894185
0001f0 fb ef b6 be 51 51 8d be 42 2a b0 bd 62 46 cd be
       -0.35729966 -0.27601102 -0.0860181 -0.4009276
000200 c2 6a 21 3f 18 8d f3 bc 25 07 2b 3f 5d 60 a6 3e
       0.63053524 -0.029730365 0.66807777 0.32495394
000210 a2 8f dd be 0a 78 11 3f 48 98 6b bd b7 aa 0f be
       -0.43273646 0.5682379 -0.057518274 -0.14029966
000220 d5 83 82 be 6c c7 eb be d7 1c 5f 3e 17 8c f7 bd
       -0.25491205 -0.46050584 0.21788345 -0.12087267
000230 64 b3 9d 3e 01 19 e7 be e5 47 f0 3e 11 bb ce be
       0.30800927 -0.45136264 0.4692985 -0.40377095
000240 e3 19 a3 bd bb 8a 45 3e dd 3c e9 3e 0e 79 0e 3f
       -0.07963922 0.19291203 0.45554247 0.55653465
000250 3f 5e 28 3f 41 4a e4 be 41 ce 82 3e 20 a9 0f be
       0.6576881 -0.445879 0.25547984 -0.1402936
000260 1d 5d f8 bc 4d eb a0 be 19 b9 1d 3f 63 d6 c7 be
       -0.030317837 -0.3142952 0.6161056 -0.39030752
000270 bf 6a d7 3e e3 c8 8d 3e ff d1 b0 3e fc a7 59 be
       0.42073628 0.27692327 0.34535214 -0.21255487
000280 5c 8b 1c 3f 37 90 57 3e 83 db 2c 3e 18 eb a9 be
       0.61150146 0.21051107 0.16880612 -0.33187175
000290 45 3a a8 3e f4 83 0d 3d 5c 52 24 be b5 0a 27 3f
       0.32856956 0.03454967 -0.16047043 0.6525071
0002a0 f2 7e 31 3e c3 d5 61 be 75 b8 58 be 8e 94 78 3d
       0.17333582 -0.220542 -0.21164115 0.060688548
0002b0 dd 3f e6 3e b0 a2 d5 3b 6c 89 89 be 11 a5 2b be
       0.449706 0.006519638 -0.26862657 -0.16762187
0002c0 88 85 a6 be 53 a5 96 3e d6 6a 08 3f b8 e2 01 bf
       -0.3252375 0.29423007 0.5328802 -0.5073657
0002d0 58 e6 54 3e 7d c8 c6 3e 55 cb 51 3e 32 2c ea bd
       0.20790994 0.38824835 0.20487721 -0.11434211
0002e0 21 82 c9 3e 5c 5d b7 3e 5b d7 b2 3e ef 11 a8 3d
       0.39357093 0.35813415 0.34929928 0.082065456
0002f0 09 78 6e bd 14 04 1f 3e a4 21 c6 3d 44 09 94 bd
       -0.058219943 0.155289 0.09674385 -0.0722833
000300 c9 6a e8 3e 23 7e 19 3f d9 89 0f 3d c8 58 96 bc
       0.4539397 0.59958094 0.03504357 -0.018352881
000310 08 5c c9 3d ec 8c bb 3d 36 28 9d 3e 9e 39 8f 3e
       0.09832007 0.09157738 0.3069474 0.27973646
000320 bc 69 e7 be c5 95 1f be a3 bd 0f 3f d5 94 9f 3e
       -0.45197856 -0.15584476 0.5614874 0.31168237
000330 a7 7b e9 3d ce 57 8c be 6e be 1e be 53 37 aa be
       0.11400538 -0.2741074 -0.1550233 -0.33245334
000340 28 37 0c be 33 3f 9d 3e 9f 0f 05 3f 6c 8b a2 3e
       -0.13692915 0.3071228 0.5197696 0.31746995
000350 ed ff e0 be 30 5b 5f be c2 f5 95 bc e0 e7 28 3f
       -0.43945256 -0.21812129 -0.018305663 0.65978813
000360 1d 65 0b 3e bf 19 d8 bd bf 7f c4 3e 55 e0 94 bd
       0.1361279 -0.10551786 0.38378713 -0.072693504
000370 d3 ff 8b be 9d 4c e1 3e 92 05 40 be a2 41 9e bb
       -0.27343616 0.44003764 -0.18752125 -0.0048296014
000380 d7 b4 0d bf 7d 19 fc 3e e0 a5 f0 3e 3f 74 9c 3e
       -0.55354065 0.49238196 0.47001553 0.3055744
000390 58 a8 95 be 30 87 e6 be 7e cc cd be 32 5b 0f 3f
       -0.2923 -0.45025015 -0.40195078 0.5599853
0003a0 12 0a e7 3e fb a0 24 3f 86 8f c6 3e 10 63 5b 3e
       0.4512487 0.64308137 0.38781375 0.21424508
0003b0 4a cf 36 3e c0 62 a7 be 8a de f7 be 42 73 06 bf
       0.17852512 -0.32692528 -0.4841197 -0.5251962
0003c0 30 dc a6 3e df a9 53 be 2f 12 a4 bd a4 ba 8d be
       0.32589865 -0.2067027 -0.08011281 -0.27681458
0003d0 34 cd c0 bd c5 0d b9 be 36 5d a1 be 88 02 8f 3e
       -0.094141394 -0.36143318 -0.31516427 0.2793162
0003e0 c2 07 97 bd ea 71 e9 3e 2d ab 70 bd 7c 07 ae be
       -0.073745266 0.45594722 -0.058756996 -0.33990085
0003f0 0a f6 9d bc 30 37 2b be 65 50 15 be 8b 03 00 bf
       -0.01928236 -0.16720271 -0.1458145 -0.50005406

w f4 [100, 2]
000000 97 21 81 ba e4 1d 87 3a 12 f2 ea 3a 59 67 96 bb
       -0.000985193 0.0010308591 0.0017924926 -0.0045899567
000010 5a fb 85 3b 9e 36 64 bc 1b 63 fd 3b 6b 73 73 bc
       0.0040888013 -0.013929037 0.0077327616 -0.014859061
000020 e9 b0 37 3d 0c d8 53 bd dd 3f 30 bd 97 bf 19 3d
       0.04484645 -0.05171971 -0.043029655 0.03753623
000030 dd f0 13 be 67 e4 0d 3e a4 94 f5 3c cf f1 bc bc
       -0.14447351 0.1385666 0.029978104 -0.023064522
000040 36 e3 77 bc a1 18 39 3c 65 84 7d 3a f8 40 28 3c
       -0.015129855 0.011297376 0.00096709124 0.010269396
000050 2b 10 ad bc ec ff 02 3c f2 b6 5f 3c ea 1c ea bc
       -0.021125874 0.007995587 0.013654457 -0.02857824
000060 c9 c2 0d 3b 07 cf fa 3a cc 82 10 3c 0a 1a 2b bc
       0.0021630994 0.0019135185 0.008820247 -0.01044322
000070 74 18 9c bb fe 0e 76 39 b4 bc 03 3b 46 8a b5 ba
       -0.004763657 0.00023465973 0.002010149 -0.0013850413
000080 80 4b 0e bb ed a9 13 bc 37 09 aa bc 79 16 f8 3c
       -0.0021712482 -0.009012681 -0.020756347 0.030284153
000090 ab 7f 9a 3c c6 71 9e bc 1b 61 b8 3c 97 42 c0 bc
       0.018859705 -0.01934136 0.022507241 -0.023469253
0000a0 bc d3 c6 bc a7 1b c5 3c 73 a7 cb 3b 24 5d 81 bb
       -0.024270885 0.024061037 0.00621503 -0.003947871
0000b0 89 64 8c bd 1c 14 75 3d 8e b6 16 3c 89 7f 7c bb
       -0.06855113 0.05983363 0.009198798 -0.0038528165
0000c0 47 c6 0c bd a5 38 02 3d 46 58 e2 bc 30 e9 12 3d
       -0.03436878 0.0317923 -0.027629983 0.035866916
0000d0 35 5b b1 3c 9b eb 04 bd 2f 06 62 bd 87 2c 85 3d
       0.021649936 -0.032451253 -0.05518168 0.065026335
0000e0 f6 fe 5d bd d2 63 47 3d 46 de ce bd 28 40 b8 3d
       -0.054198228 0.04867918 -0.10100989 0.08996612
0000f0 64 21 d0 bc ff f9 be 3c 26 82 72 bd 5f 51 9e 3d
       -0.025406547 0.023312567 -0.05920615 0.07730364
000100 f0 f8 9e bd 8e 43 9b 3d ff 7d bf bc 10 a8 bd 3c
       -0.07762325 0.075812444 -0.02337551 0.023151428
000110 e9 d5 5b 3c 9b 65 c9 3a 35 11 9f 3c c9 55 c3 bb
       0.013417699 0.0015365364 0.019417385 -0.005961154
000120 80 1d 5e bc fc 4a 96 3c 25 88 a5 3c 75 2b 9f bc
       -0.013556838 0.018346302 0.02020652 -0.019429902
000130 2e 48 c9 3b fd 0c 1c bc 13 c7 af bc ae 1c 26 3c
       0.0061426377 -0.009524581 -0.02145723 0.010138674
000140 5c 01 bb 3c ef db 00 bd 26 3b b3 bd 6e bb 93 3d
       0.022827797 -0.031459745 -0.08751516 0.07213484
000150 4b 7d a4 3b 93 02 0b 3b a5 7a 39 bc 0e 27 d7 3c
       0.005019819 0.002121125 -0.011320745 0.02626374
000160 82 41 04 bd 91 07 8d 3c 29 00 0a 3c b8 2a 7f 3a
       -0.032289036 0.017215522 0.00842289 0.00097338436
000170 c3 c2 87 bc 12 9d 3d 3c 73 66 40 3c a8 cf 2f bb
       -0.016572362 0.011573093 0.011743176 -0.0026826654
000180 a0 eb 80 bc 26 bb 92 3c 8a b4 1f bc be 14 a9 3c
       -0.015737355 0.017911505 -0.009747634 0.020639773
000190 8b 30 d8 3c 0a eb df bc e8 43 60 bd f3 d0 6c 3d
       0.026390335 -0.027333755 -0.05475226 0.057816457
0001a0 64 a1 4f bc 91 ef 6c 3c 42 e8 93 3c 79 96 5b bc
       -0.012672756 0.014461414 0.018055085 -0.013402575
0001b0 a8 00 65 b9 ff fc 36 3b 97 29 3c bd c4 7b 04 3d
       -0.00021839386 0.0027921794 -0.0459381 0.032344595
0001c0 6d 9f 2c ba 73 6e 98 3b 66 ce bd 3c e1 9f b9 bc
       -0.00065850356 0.0046518384 0.023169708 -0.022659244
0001d0 21 d9 4e bc 92 96 86 3c 63 4c 58 bc a4 18 ba 3c
       -0.01262501 0.01642922 -0.013201806 0.022716828
0001e0 21 f0 e4 bb 38 51 ce bb 53 09 db bc be 0f ae 3c
       -0.0069866334 -0.006296303 -0.026737845 0.02124774
0001f0 5c 20 e5 3b 2d 4d 09 bc a3 b5 92 bd 33 47 b0 3d
       0.006992383 -0.008380217 -0.07163551 0.0860733
000200 89 9f 1c 3d 3c 49 f4 bc 25 61 85 bc cc 5b 85 3c
       0.038238082 -0.029820077 -0.016281674 0.016279124
000210 9d 74 b3 3a d8 8c 4b bc ff ed 0f bd 20 b2 27 3d
       0.001369137 -0.0124237165 -0.03513908 0.040941358
000220 8b 0a 25 bd 19 a2 47 3d 59 ad b8 bd ad fd 9b 3d
       -0.040293258 0.048738573 -0.090174384 0.07616744
000230 43 e1 05 bb 91 ba 18 3b d9 71 d3 3a e0 35 fc bb
       -0.0020428456 0.0023304562 0.0016131952 -0.007696852
000240 47 3f 41 bc 03 8e fa 3b cd 80 76 3c 9a 88 ee bc
       -0.011794872 0.0076463236 0.015045357 -0.029117871
000250 0d 9d 2e bd bd 38 4c 3d c4 92 31 bd a2 72 2f 3d
       -0.042630244 0.049858797 -0.043352857 0.04283393
000260 b3 65 db bd ef 5f e5 3d 27 ff 29 3c 46 7c 71 bc
       -0.10712757 0.111999385 0.010375774 -0.014739102
000270 69 e6 58 3b 39 04 58 3c e3 50 29 bd 71 cd 2e 3d
       0.003309632 0.0131846005 -0.041336905 0.042676393
000280 22 6b 07 3c 5d ac 2f bb f3 b5 2d bd 35 71 70 3d
       0.008265289 -0.0026805617 -0.04240985 0.058701713
000290 c6 8f d0 3c d5 af c8 bc 4c b5 6b bc d6 b6 08 3c
       0.025459182 -0.024497906 -0.014386486 0.008344373
0002a0 20 53 22 bc c1 b7 3e 3a 65 d2 bb bb 80 ba 85 3b
       -0.009907514 0.0007275306 -0.005731868 0.0040810704
0002b0 fe 77 02 bd 00 75 fe 3c 11 72 5e 3d 66 3e 1e bd
       -0.031852715 0.03106165 0.054308 -0.038633727
0002c0 96 97 37 3c a4 d1 d2 ba 4c 5f c3 3c 62 bb 87 bc
       0.0112055745 -0.0016084206 0.023849152 -0.016568843
0002d0 60 ed 93 3d 8a 15 8e bd 37 05 c9 3a 0a 00 96 bc
       0.0722301 -0.06937702 0.0015336637 -0.018310566
0002e0 ac d3 49 3c b6 d7 75 bc 5e 0b f5 bb 7f d7 a3 3b
       0.012318533 -0.015005043 -0.0074781617 0.0050000544
0002f0 87 99 5f 3c b2 ff b6 bb b7 5d 66 bd cb 95 79 3d
       0.013647444 -0.0055846805 -0.056241717 0.06093387
000300 47 e8 a0 3c 9a 19 9f bc b9 6a 6b 3c b5 3f f7 bc
       0.019642008 -0.019421387 0.014368706 -0.030181745
000310 4f 20 49 3d 97 84 6f bd 70 8e 0f bd 1e 83 02 3d
       0.049103078 -0.058476057 -0.03504795 0.031863324
