zy_f06.pt (torch, 7634 bytes, 2 tensors)

w f4 [10, 100]
0	0x3f0f34dd	0.5594004
1	0x3f0981c6	0.53713644
2	0xbd52f7d3	-0.051505875
3	0x3f0ef6f7	0.5584559
4	0x3da38ff4	0.07986441
5	0x3e77aff7	0.24188219
6	0xbec7811e	-0.38965696
7	0x3ef44fad	0.47717038
8	0x3f2309e1	0.6368695
9	0xbe538997	-0.20657955
10	0x3f29e842	0.6637002
11	0x3e284182	0.16431239
12	0x3f0b35d0	0.54378986
13	0x3e1f651a	0.15565911
14	0x3eafb08e	0.34314388
15	0x3d34ed9c	0.044171914
16	0x3f123266	0.5710815
17	0x3e43f661	0.19136955
18	0xbe53d639	-0.20687188
19	0x3e8fe1d8	0.28101993
20	0xbe0fbe46	-0.14037427
21	0x3da8d653	0.08244004
22	0xbe06e66a	-0.13173833
23	0x3ee56c37	0.44809124
24	0xbee38e3a	-0.44444448
25	0xbe461e21	-0.19347431
26	0xbd57addb	-0.052656036
27	0xbeae2f5d	-0.3402051
28	0x3e352af2	0.17692164
29	0xbf1397a5	-0.57653266
30	0x3f21de4d	0.6322983
31	0xbeed1de9	-0.46311882
32	0x3f1c0c95	0.609567
33	0x3e77dc5b	0.24205153
34	0xbd92834f	-0.071539514
35	0x3edf66ef	0.4363322
36	0x3e96763d	0.29387084
37	0x3f1b5205	0.60672027
38	0x3e88c439	0.26712206
39	0xbe2ccdf7	-0.16875444
40	0x3e739f33	0.23791198
41	0xbe0bbcdc	-0.13646263
42	0x3ea1ccbd	0.31601515
43	0x3f118fb8	0.5685992
44	0x3eeebf40	0.46630287
45	0xbe209f6c	-0.15685815
46	0x3ed62b7c	0.4183005
47	0x3e5445b5	0.20729716
48	0x3ebdc033	0.370607
49	0xbec27a6f	-0.37984034
50	0xbef7abae	-0.4837317
51	0xbe1265cf	-0.1429665
52	0xbed4a876	-0.41534775
53	0x3f11b200	0.5691223
54	0x3e284e7e	0.16436192
55	0x3ead10e3	0.33801946
56	0x3e8dbd17	0.27683327
57	0x3df16ec3	0.11788704
58	0x3f206480	0.6265335
59	0xbec780d8	-0.38965487
60	0x3e133a6c	0.14377755
61	0xbeb16059	-0.3464382
62	0x3e8ad9a3	0.2711917
63	0xbe2311bc	-0.15924734
64	0x3e8a29a9	0.2698491
65	0xbd480448	-0.048832208
66	0x3f0f9e44	0.5610087
67	0xbe639f18	-0.22228658
68	0xbec42372	-0.38308293
69	0xbea0b1d2	-0.31385666
70	0x3f0f2c0b	0.5592658
71	0x3ea3cc86	0.31991976
72	0x3f2f1e01	0.6840516
73	0xbe89e7ee	-0.2693476
74	0xbf0686ab	-0.52549237
75	0xbf000118	-0.5000167
76	0xbea41f43	-0.320551
77	0x3e9d6f77	0.30749103
78	0x3e8b57e4	0.27215493
79	0x3f3118dc	0.6917856
80	0xbe29eb60	-0.16593695
81	0xbeb410a6	-0.35168952
82	0x3ec47681	0.3837166
83	0xbe4ad820	-0.19809008
84	0x3ee036ff	0.4379196
85	0xbd67bf0c	-0.05657868
86	0x3ec5eb53	0.386561
87	0xbe49a2b4	-0.19690973
88	0xbe85db98	-0.261441
89	0x3e8374d4	0.2567507
90	0x3e8ae111	0.27124837
91	0x3be6b30b	0.0070403866
92	0x3eda6050	0.42651606
93	0x3ee5abde	0.44857687
94	0xbe874132	-0.26416928
95	0xbe463f43	-0.1936007
96	0x3f175e68	0.5912843
97	0xbd296909	-0.041359935
98	0xbe521cbc	-0.20518774
99	0xbf040671	-0.5157233
100	0xbe50735d	-0.20356508
101	0x3e5955ae	0.2122409
102	0xbd92fa1f	-0.07176613
103	0xbecab848	-0.3959372
104	0x3e40a6b4	0.18813592
105	0xbeb02147	-0.3440039
106	0xbf1b8ca8	-0.607615
107	0xbdf95b30	-0.12175596
108	0xbf0322e8	-0.5122514
109	0xbe362030	-0.17785716
110	0x3f413922	0.754778
111	0x3e5b2b92	0.2140334
112	0x3e8ae81c	0.2713021
113	0xbef57e20	-0.47947788
114	0xbea45fbd	-0.32104293
115	0xbdaa0e02	-0.08303453
116	0x3e1a60e8	0.1507603
117	0xbeecccaa	-0.46249896
118	0xbe0fbf42	-0.14037803
119	0xbe730f74	-0.23736364
120	0x3d9270bd	0.07150409
121	0xbd85b3f6	-0.065284654
122	0x3d82c6cd	0.063855745
123	0xbe8260af	-0.2546439
124	0xbec6649b	-0.3874863
125	0xbe52903f	-0.20562838
126	0xbd55ac60	-0.052166343
127	0xbecf412e	-0.40479416
128	0x3f25cd38	0.64766264
129	0xbbf66c89	-0.0075202626
130	0x3f2a6f0c	0.66575694
131	0x3e52ec2b	0.20597903
132	0xbf0186fd	-0.505966
133	0x3f1f839b	0.6231019
134	0x3b8bcfc5	0.0042667114
135	0xbdb64641	-0.089001186
136	0xbe97b84b	-0.29632792
137	0xbf064b6d	-0.5245884
138	0x3e99740d	0.29971352
139	0xbd8a69c8	-0.067584574
140	0x3e97d344	0.2965337
141	0xbeadcd3b	-0.3394564
142	0x3ef62cfa	0.4808119
143	0xbec665ad	-0.38749447
144	0xbcc5bbe7	-0.02413745
145	0x3e87c7e0	0.2651968
146	0x3ee17997	0.44038078
147	0x3f0c5af8	0.5482631
148	0x3f233197	0.63747543
149	0xbeebedb7	-0.460798
150	0x3e7eee08	0.24895489
151	0xbe3333e0	-0.17500257
152	0xbb9932b0	-0.004675232
153	0xbe90c00a	-0.28271514
154	0x3f1bab0d	0.6080788
155	0xbeafd44a	-0.3434165
156	0x3ec90182	0.39258963
157	0x3e98ff19	0.29882124
158	0x3e951f15	0.29125276
159	0xbe7be1f6	-0.24597916
160	0x3f198b8b	0.5997855
161	0x3e5a8cd4	0.21342784
162	0x3e390611	0.1806872
163	0xbea0f924	-0.3144008
164	0x3e971463	0.2950774
165	0xbd5c5eed	-0.053801466
166	0xbe1f774d	-0.15572853
167	0x3f1915e3	0.5979902
168	0x3e4a1be2	0.19737199
169	0xbe901401	-0.28140262
170	0xbe95cb8f	-0.29256865
171	0x3da0cfa8	0.07852107
172	0x3eea8244	0.4580251
173	0x3d0c151e	0.034199826
174	0xbe915732	-0.28386837
175	0xbde84940	-0.11342096
176	0xbe8e002b	-0.27734503
177	0x3e97b6e8	0.29631734
178	0x3f071c5d	0.52777654
179	0xbef12a38	-0.47102523
180	0x3e5bfb6f	0.21482633
181	0x3ed7a2fd	0.42116538
182	0x3e463de3	0.19359545
183	0xbe0e1dd3	-0.13878565
184	0x3ea671e7	0.32508776
185	0x3ebcbf88	0.36864877
186	0x3eb851fe	0.36000055
187	0x3dad0b6c	0.08449444
188	0xbddcffdd	-0.107909895
189	0x3e2c1a31	0.16806866
190	0x3d4f9ba9	0.05068556
191	0xbd75aff9	-0.059982274
192	0x3eed84ec	0.46390474
193	0x3f1ecb66	0.6202911
194	0x3d017277	0.031603303
195	0x3d39700b	0.045272868
196	0x3dbcead5	0.09224478
197	0x3dbf59a6	0.09343271
198	0x3e5f9744	0.21835047
199	0x3e5c6fa6	0.21526965
200	0xbeceda25	-0.40400806
201	0xbe053282	-0.13007548
202	0x3f0f6c87	0.56024975
203	0x3e7a951e	0.24470946
204	0x3df6f72f	0.12058865
205	0xbe94c8aa	-0.29059345
206	0xbeec7d84	-0.4618951
207	0xbeb18ebd	-0.34679213
208	0xbdcf0f52	-0.10110344
209	0x3e988095	0.297856
210	0x3f097819	0.5369888
211	0x3ebd4c78	0.36972404
212	0xbef9c569	-0.48783424
213	0xbe904f65	-0.28185573
214	0xbd4ebfc2	-0.050475843
215	0x3f237cd1	0.6386233
216	0x3e08c85d	0.13357683
217	0xbdf47339	-0.119360395
218	0x3ea893e7	0.3292534
219	0xbd5b420f	-0.053529795
220	0xbe7a4a55	-0.24442418
221	0x3ef28d45	0.47373405
222	0xbe4c4c07	-0.19950877
223	0xbbe8a454	-0.0070996676
224	0xbf0a4a6c	-0.5401981
225	0x3f0607fe	0.52355945
226	0x3ef88854	0.4854151
227	0x3ec651bb	0.3873423
228	0xbeb34fba	-0.35021764
229	0xbed0c7a6	-0.4077732
230	0xbedde710	-0.4334035
231	0x3f1c9acd	0.6117371
232	0x3ec82212	0.39088494
233	0x3f3793b7	0.7170977
234	0x3ec318ba	0.38104802
235	0x3e5b7355	0.21430714
236	0x3e3b5c41	0.18296911
237	0xbeb12196	-0.34595937
238	0xbe8fdffd	-0.28100577
239	0xbf0a9b4d	-0.5414322
240	0x3e960310	0.29299212
241	0xbe29d28b	-0.16584222
242	0xbda3d3db	-0.079993926
243	0xbe976640	-0.29570198
244	0xbcdc1dc4	-0.026869662
245	0xbe7620c3	-0.24035935
246	0xbeb3dfe2	-0.35131747
247	0x3e909976	0.2824208
248	0xbda5b03d	-0.080902554
249	0x3ee2b043	0.44275102
250	0xbdad1b4e	-0.084524736
251	0xbebff16f	-0.37488887
252	0xbd054224	-0.03253378
253	0xbe255bb8	-0.16148269
254	0xbe1e5eba	-0.15465823
255	0xbf03f576	-0.5154642

w f4 [100, 2]
0	0x3cb36bec	0.021902047
1	0xbcb30c36	-0.021856409
2	0x3b1739b3	0.0023075163
3	0xbba747d3	-0.0051049977
4	0xbca136fd	-0.01967954
5	0x3c21350f	0.00983931
6	0xbb603906	-0.0034213676
7	0xbb72ce86	-0.0037049367
8	0x3d5e371c	0.054251775
9	0xbd7a5e44	-0.061125055
10	0xbd6a4bfa	-0.057201363
11	0x3d53cba5	0.051707882
12	0x399cace3	0.0002988345
13	0xbbcb595e	-0.0062057218
14	0x3cde6c68	0.027151302
15	0xbca5c99f	-0.020237742
16	0xbcfc4112	-0.030792747
17	0x3cdcdbb5	0.026960233
18	0x3d1f40a7	0.038880017
19	0xbce274cc	-0.027643584
20	0xbc9eaf1e	-0.019370612
21	0x3bcc7bc7	0.0062403413
22	0x3a936054	0.0011243918
23	0xbc837785	-0.016048202
24	0xbb3bbbf2	-0.002864596
25	0x3be372f5	0.006941194
26	0xb9b6f38d	-0.00034895205
27	0xbaa6fd93	-0.0012740366
28	0xbb9e1781	-0.004824579
29	0x399af52a	0.0002955583
30	0xba2c7dee	-0.0006580044
31	0x3aa82d76	0.0012830931
32	0x3c0d1de7	0.008613086
33	0xbca22d74	-0.019797064
34	0xbd535432	-0.051593967
35	0x3d7a5ad3	0.061121773
36	0x3d208532	0.039189525
37	0xbd227e41	-0.039671186
38	0x3c994c22	0.01871306
39	0xbca12dad	-0.0196751
40	0xbc92f34a	-0.017938275
41	0x3c913b31	0.01772842
42	0x3c76da18	0.015066646
43	0xbc51b4fe	-0.0127995
44	0xbd312b13	-0.04325397
45	0x3d0d761a	0.03453646
46	0x3c3b7e81	0.011443735
47	0xbbc7cfc2	-0.0060977647
48	0xbd24d0ca	-0.04023818
49	0x3d1a4321	0.037661675
50	0x3d1876c9	0.037222657
51	0xbced7389	-0.028985756
52	0x3ce7f0b4	0.028313018
53	0xbd203657	-0.039114323
54	0xbdb2b069	-0.08725054
55	0x3dc6d9da	0.09709521
56	0xbdbd2d93	-0.09237208
57	0x3db1e002	0.08685304
58	0xbdc0fb30	-0.0942291
59	0x3daa5d13	0.08318534
60	0xbcf528c9	-0.029926674
61	0x3ce4015c	0.02783268
62	0xbdea03f5	-0.11426536
63	0x3e078a1a	0.13236275
64	0xbddafde8	-0.1069296
65	0x3dd74888	0.10511881
66	0xbcc67820	-0.024227202
67	0x3cc4a225	0.024003098
68	0x3c451fb7	0.012031487
69	0x3b3f8b16	0.0029227189
70	0x3c81832b	0.015809616
71	0xbb1a3bd7	-0.0023534202
72	0x3c220846	0.009889668
73	0xbba71fbe	-0.0051002195
74	0xbd235081	-0.039871696
75	0x3d267ecd	0.04064827
76	0x3d1484dc	0.036259517
77	0xbd225f27	-0.039641526
78	0xbbe817d0	-0.007082917
79	0xbb8acb29	-0.0042356444
80	0x3c942134	0.018082239
81	0xbcdad7c7	-0.026714219
82	0xbd87c4c2	-0.066293254
83	0x3d508a10	0.050912917
84	0x3c476e68	0.012172319
85	0xbba4de72	-0.0050314004
86	0xbbd34bba	-0.0064482363
87	0x3caf3caf	0.02139124
88	0xbd84623f	-0.064640515
89	0x3d4b06c1	0.049566988
90	0xbe08236a	-0.1329476
91	0x3e11c29b	0.14234392
92	0xbce25602	-0.027628902
93	0x3cb961b3	0.022629594
94	0x3c2f1c45	0.010687892
95	0xbad54e89	-0.0016274016
96	0xbc44d217	-0.01201298
97	0x3c687109	0.014187106
98	0xbc8839d9	-0.016629146
99	0x3ce1744b	0.027521273
100	0x3d006bbc	0.031352744
101	0xbd0448fc	-0.032296166
102	0x3d1c1ec7	0.03811529
103	0xbd0f91bb	-0.03505109
104	0xbd4f5e82	-0.05062724
105	0x3d56b207	0.052415874
106	0x3ca9750a	0.020685691
107	0xbc83581f	-0.01603323
108	0xbb8734f1	-0.004126184
109	0x3bdb8b4a	0.006699954
110	0xbc648cc9	-0.013949581
111	0x39baa811	0.00035601904
112	0x3c276c9c	0.010218766
113	0xbbcbfee2	-0.0062254528
114	0x3cd47975	0.025936821
115	0xbcd04af7	-0.025426371
116	0xbc83e7ed	-0.016101802
117	0x3ca311da	0.019905973
118	0xbbddf27c	-0.006773291
119	0x3c856efd	0.016288275
120	0x3c26dbf1	0.010184274
121	0xbcc03e5b	-0.023467233
122	0xbcfc5328	-0.03080137
123	0x3ccf5985	0.02531124
124	0x3ac973d1	0.0015369599
125	0xbb3fae58	-0.0029248204
126	0xbdb71c6f	-0.0894097
127	0x3dd4ae05	0.10384754
128	0x3d40ded6	0.047087513
129	0xbd1e63d7	-0.038669433
130	0xbc1467cf	-0.009057953
131	0x3c145d0b	0.009055386
132	0xba8562dc	-0.0010176557
133	0xbc2471f8	-0.010036938
134	0xba65bf30	-0.0008764146
135	0x3bdad8e9	0.0066786897
136	0xbd251e25	-0.04031195
137	0x3d47b5af	0.04875725
138	0xbdf36cf3	-0.11886015
139	0x3dd6bd45	0.10485319
140	0x39884238	0.00025989278
141	0x37e85dbf	2.770021e-05
142	0x3b873d7e	0.0041272035
143	0xbc274b8a	-0.010210881
144	0xbc867022	-0.016410891
145	0x3c48e7ef	0.0122623285
146	0x3c85abea	0.016317327
147	0xbcf8f419	-0.030389832
148	0xbd918bde	-0.07106756
149	0x3da059a5	0.07829598
150	0xbd82dbf7	-0.06389611
151	0x3d81cbe0	0.06337714
152	0xbe353b0d	-0.17698307
153	0x3e3a382a	0.18185487
154	0x3bdbbd5c	0.006705923
155	0xbc355be4	-0.011069272
156	0x3aafa457	0.0013400418
157	0x3c78492b	0.015154163
158	0xbd3aa26e	-0.04556506
159	0x3d401efa	0.04690454
160	0x3c3ab081	0.011394621
161	0xbbbe610e	-0.0058099097
162	0xbce8e95f	-0.028431593
163	0x3d372ff4	0.044723466
164	0x3d07bf64	0.03314151
165	0xbd03cf72	-0.032180257
166	0xbc2fe9d1	-0.0107368985
167	0x3b99d699	0.0046947715
168	0x3caf16ef	0.02137324
169	0xbcfa4ad0	-0.030553252
170	0xbbf1c56d	-0.0073782713
171	0x3bbbad5d	0.0057274536
172	0xbceb101b	-0.028694203
173	0x3ce4950f	0.027903108
174	0x3d7e9ecd	0.062163163
175	0xbd3e6b2a	-0.04648892
176	0xbb3385fa	-0.0027393089
177	0x3c4a1ebf	0.012336432
178	0x3ca523c0	0.020158648
179	0xbc52ffc4	-0.012878362
180	0x3d993160	0.07480121
181	0xbd93598f	-0.07194816
182	0x3c310e72	0.010806667
183	0xbce1f6f9	-0.027583586
184	0x3c556851	0.013025359
185	0xbc80b63a	-0.015711892
186	0x3a06aa6e	0.00051370903
187	0xbb4412a7	-0.0029918344
188	0x3cc3f8ad	0.023922289
189	0xbc81ebe6	-0.015859555
190	0xbe0d2f78	-0.13787639
191	0x3e11fd79	0.14256848
192	0x39d41c61	0.00040456935
193	0xb940e9a1	-0.0001839758
194	0x3c03c717	0.008043072
195	0xbcc36df5	-0.023856143
196	0xbdb7f589	-0.08982379
197	0x3da4c363	0.080450796
198	0xbd6a11c4	-0.05714585
199	0x3d5d0668	0.053961188
