zy_f10.pt (torch, 7634 bytes, 2 tensors)

w f4 [10, 100]
00000000: 4ff7 0a3f ecbb 253f 0bc5 a9bd 347a 1c3f
00000010: c8af adbd 4934 813e a901 88bd b9c7 e13e
00000020: 07f9 163f e199 cfbe 137f 223f 5510 713e
00000030: 14cb 143f 4af1 133e 12de d13e c90c a0bc
00000040: d1c3 303f 6ebc ed3d f86a 77be 0858 7a3e
00000050: 0253 17be ffcb 0a3d 1529 2dbe e6b1 ed3e
00000060: f3ba e6be 66c0 53be 3737 893c 615f 9fbe
00000070: 909f 1e3e db42 0bbf ceae 123f 1a36 f2be
00000080: 6fb1 173f 4639 413e 76ba 4abe cc1e e73e
00000090: 115c aa3e 4d6c 133f e6cd 0f3e 742a 0ebe
000000a0: c948 873e 92c9 b7bd e6aa a53e fa8f 203f
000000b0: c25f e03e 7d76 19be 5b5a cc3e 00ea 323e
000000c0: 6996 bd3e c17d c9be a97e 12bf f3d3 06be
000000d0: 2127 debe 9eb5 393f f640 873e 4767 af3e
000000e0: e356 a63e 2e0f a43d d7d1 093f d244 8bbe
000000f0: e06a 0e3e e72a bfbe 157e 9e3e 3a46 b8bd
00000100: a236 843e 378f 8cbd 5808 1a3f 67f5 86be
00000110: a23d a9be d23e 85be af05 3f3f 0b74 ac3e
00000120: 9c41 373f 0e68 94be 411b 12bf 18a5 e7be
00000130: 2941 96be 5344 ae3e 2630 9e3e 29f3 1f3f
00000140: 8c24 0bbe dfa9 abbe 3617 d23e 8a48 fdbd
00000150: 2075 ec3e 4e83 ca3c 0109 e63e 51b3 f4be
00000160: b227 96be 6b0a a03e 2272 993e 9c4e 1e3d
00000170: 94d5 fd3e 01b1 fa3e b30a 94be 90be 81be
00000180: f1ca 283f 4318 06be 89ae 1fbe 4407 03bf
00000190: 7ed1 90be 7458 863e e07f 5fbc 17d9 d2be
000001a0: c6eb 0c3d e81d a5be fe5c a8be 83d5 b0be
000001b0: e0ca 0dbf a2b0 bcbe 9c5d 463f e30a 6a3e
000001c0: 1039 8e3e 32f3 f5be ad06 80be d6e2 f5bd
000001d0: b7dd 773e 3576 f6be d140 50be 0c40 74be
000001e0: 5419 f03d f2b5 f8bc d180 d53c 5526 83be
000001f0: ed73 b7be 7c3c 94be 80e0 99bc 6092 ccbe
00000200: c311 213f 9dac 36bd 5ff1 093f ed29 933e
00000210: d75e dfbe cefb 073f 7f2b 14be 2ea7 a9bc
00000220: 3a5e 8fbe 4d83 07bf ec11 8b3e 9e38 aebd
00000230: 063c c23e dab4 cabe c548 0a3f cd9f bfbe
00000240: 7448 f5bc 3cd6 683e 708b c03e a78f 0f3f
00000250: 2b95 153f 8a72 eebe cf93 423e bb31 38be
00000260: c620 b2bc fcb4 94be 55d0 283f 5196 ccbe
00000270: b1da e33e a222 913e 23c6 853e 02a0 6cbe
00000280: 0094 2c3f 1bed 473e f133 593e d412 d6be
00000290: 28f7 bb3e dfd3 00bd 41c1 1abe 5794 253f
000002a0: 006e 1e3e db13 54be 77b5 01be 937d 843d
000002b0: cc77 e73e a7ee 3fbc 42ec a0be 6973 0bbe
000002c0: bbc1 b2be bfec b43e 21a6 223f d685 02bf
000002d0: ad78 883e 6796 fc3e 4a3e 563e 2855 13be
000002e0: 8d8a c33e 6a0c dd3e 3e66 b43e b828 20bd
000002f0: 9b94 1bbe 4014 863e b217 ab3d 5a76 243d
00000300: fc1d f43e bf7a 193f 64e4 6e3d 754c 7abd
00000310: f828 e93d 88d7 96bb dc03 5f3e 5611 743e
00000320: 69ac fcbe 4eb7 9ebd f3f9 1b3f 49c6 8e3e
00000330: 65df 9dba dab0 8bbe d42d 1dbe 8416 ffbe
00000340: dabe 0abe 8fdf 8a3e d0f4 e93e 25d4 cb3e
00000350: 667c b9be edcb 96be 5e1e d63c 9336 2e3f
00000360: 44d9 613e 82e8 f4bd 5902 9a3e ede8 d4bd
00000370: c14c 94be 3ec6 e43e dbeb 31be 1460 f13c
00000380: eef4 0cbf 8767 173f 02ce 233f 77d0 b93e
00000390: 5f51 c1be 931a 06bf 24e3 dbbe ca48 0d3f
000003a0: d539 c33e 4f73 0a3f 9eae c23e 6beb 983e
000003b0: 1e9f 3e3e 64e0 cebe 8257 fabe 46a5 0bbf
000003c0: 9bd8 bf3e 5c96 33be 36d1 7dbd b69d a1be
000003d0: f043 a9bb a2b8 9fbe c6cf b4be c70f 923e
000003e0: 31a8 e4bd 010a dd3e 17a3 25be 92ff c6be
000003f0: bf88 eebc 8f94 b4bd 319c 08bd 3067 0dbf
0.5428361 0.6473987 -0.08289536 0.6112397 -0.08480793 0.25235203 -0.06640942 0.4409769
0.58973736 -0.40547088 0.6347515 0.23541386 0.5812237 0.14447513 0.4098974 -0.019537346
0.6904879 0.11608206 -0.24161899 0.24447644 -0.14777759 0.033885952 -0.16910203 0.46424788
-0.45064506 -0.20678863 0.016749961 -0.31127456 0.15490556 -0.5439889 0.5729798 -0.473069
0.5925512 0.18869504 -0.19797692 0.45140684 0.33273366 0.5758713 0.14043388 -0.13883382
0.26422718 -0.08973993 0.32356948 0.6271969 0.43823057 -0.14986606 0.39912686 0.17472076
0.37028816 -0.39353755 -0.5722452 -0.1316679 -0.43389228 0.7254275 0.2641675 0.34258482
0.32488164 0.08010708 0.53835815 -0.27200943 0.13907957 -0.3733742 0.30955568 -0.0899777
0.25822932 -0.068632536 0.6016898 -0.26359102 -0.33054835 -0.2602449 0.7461805 0.33682284
0.71584487 -0.28985637 -0.57072836 -0.45243144 -0.29346588 0.34036502 0.3089611 0.6248041
-0.1358816 -0.3352804 0.41033334 -0.12367351 0.4618311 0.024720814 0.44928744 -0.47793058
-0.2932716 0.31257948 0.2996989 0.038649186 0.4957701 0.48963168 -0.28914413 -0.253407
0.65934664 -0.13095193 -0.15593924 -0.5118296 -0.2828483 0.2623936 -0.013641328 -0.4118125
0.03440454 -0.3224938 -0.32883447 -0.34537897 -0.5538769 -0.3685351 0.77486587 0.22855715
0.2777791 -0.48037106 -0.25005093 -0.12006156 0.24205671 -0.4813706 -0.20337225 -0.23852557
0.11723581 -0.030360196 0.026062401 -0.25615183 -0.35830632 -0.28952396 -0.018783808 -0.39955425
0.6291773 -0.04459821 0.5388393 0.28742924 -0.43627045 0.531186 -0.14469717 -0.0207096
-0.28001577 -0.52934724 0.2716211 -0.085068926 0.3793642 -0.39591104 0.5401729 -0.37426606
-0.029941775 0.22737974 0.37606382 0.5607857 0.5843074 -0.4657176 0.19001697 -0.1798772
-0.021744143 -0.2904433 0.6594289 -0.39958432 0.44502786 0.28346735 0.2612773 -0.23107913
0.6741333 0.19524042 0.2121122 -0.4181124 0.36712003 -0.031452056 -0.15112783 0.64679474
0.15471649 -0.207107 -0.1266688 0.06469264 0.45208585 -0.011714614 -0.3143025 -0.13618244
-0.3491343 0.35336873 0.6353474 -0.5098547 0.26654568 0.49333498 0.20922199 -0.14387953
0.38191643 0.43173534 0.35234255 -0.039101332 -0.15193407 0.26187325 0.08354129 0.04015193
0.47679126 0.5995292 0.05832328 -0.06110807 0.11384767 -0.00460333 0.21778816 0.23834738
-0.4935029 -0.07749806 0.6092827 0.27885655 -0.0012044726 -0.27283365 -0.15349513 -0.49821866
-0.13549367 0.27123687 0.4569459 0.3981029 -0.3622772 -0.29452458 0.026137527 0.68052024
0.22055537 -0.1195841 0.30079916 -0.103959896 -0.2896481 0.44682497 -0.17375128 0.029464759
-0.55061233 0.59142345 0.6398622 0.3629186 -0.37757394 -0.523843 -0.42946732 0.5518919
0.3813006 0.54082197 0.38023847 0.2986711 0.18615386 -0.4040557 -0.48894888 -0.5454906
0.37469944 -0.17537826 -0.061967097 -0.31565636 -0.0051655695 -0.3119555 -0.3531477 0.28527662
-0.111648925 0.43171695 -0.16175495 -0.3886686 -0.02911794 -0.08817398 -0.03335208 -0.55235577

w f4 [100, 2]
00000000: 19f4 c8bc db53 c93c 9ebb ff3b 38b3 2dbc
00000010: 795c 1abd 6c1c e43c 5e12 6ebc 0ba1 f23b
00000020: db12 6ebc c9ec fa3b f09f 95bd cb5f 8a3d
00000030: d57f 0abe 5c73 043e 6d40 eebc a371 133d
00000040: 7580 63bd cdcd 533d 367e 61bc b1cb cc3c
00000050: 71a6 c33a 3095 6fbc 0a74 243b f6cf 8ebc
00000060: 9c25 073c 2ab6 88bb 8e11 6bbc 5d7a 503c
00000070: bedb a63c bef5 cbbc e571 c6bc d890 cb3c
00000080: 7e85 863c e723 e2bc c139 29bd 6a40 503d
00000090: 76f0 48bd 6bf7 463d dcff 28b8 af9f 71ba
000000a0: 4f7d a6bc 40c5 a43c 060c cd3c 7a79 babc
000000b0: 83a4 b9bd 05ca a73d b353 8b3c ba10 3fbc
000000c0: 5c04 53bd b776 483d f4fb b5bd 78da c63d
000000d0: 2f1e 403b 81ff 60bc 0e6f a6bd 8398 ba3d
000000e0: acdc 90bd 1a8f 853d b73d 1ebd 1103 e23c
000000f0: 1bb7 11bc bed0 de3b 1d5a 8abd 676a af3d
00000100: 7882 bdbd 14cd b93d ee28 61bb 7079 523b
00000110: 80a8 28bb 5e96 8f3c 79f3 8c3c b8bd 75bb
00000120: 3af9 a5bd 47c8 af3d aac5 35bd 05f4 383d
00000130: 0fc8 50bd d0ed 423d 0a3c 4fbd afdf 203d
00000140: 94e0 963b 60dd 58bc d5c9 e4bd 174a c53d
00000150: 52bf 8bbc f63e c63c 32b8 4ebc e2c5 e13c
00000160: 9389 5ebd e2cb 203d e534 87bb 608d 5d3c
00000170: c574 3abc 8f18 d13b e588 08bb c994 363c
00000180: 037c 4ebc 0b1b 723c 5933 f4bc e9b6 263d
00000190: 52f5 b8bc d83a b13c 5b6a abbd e1b0 b13d
000001a0: 0779 78bd 90cc 7f3d f3ae 923c fc23 59bc
000001b0: 8071 4f3c 4746 25bc 5843 50bd 7595 183d
000001c0: 3522 6b3c e8b4 29bc 6ed8 573b 3264 36bb
000001d0: c64a 3dba 6751 943b 019d 3a3c 2bc1 f5ba
000001e0: 0b67 a7bb 2ded 05bc a9db 8abc 2fc4 3b3c
000001f0: 55d2 a73b 654c d5bb 4ca8 96bd de39 b43d
00000200: d80f 8dbb c873 503c 19d3 60bc 65c8 603c
00000210: 3f20 1cbc 62f0 c7ba d5d2 0ebd fd96 263d
00000220: 94b1 f1bc 4b70 1b3d 007c abbd 53cc 8e3d
00000230: f1f0 8c3c c895 8abc 450c 9e3c a0e2 cfbc
00000240: 8eed 693c f2f2 96bc 40c0 883b 3178 95bc
00000250: 4ca6 15bd f441 333d c865 09bd a445 073d
00000260: 87fe debd c3f8 e83d b8e3 883c 54a2 acbc
00000270: 6900 b93c 1386 c7bb ae79 90bd f537 933d
00000280: 921a c43c 8f5a 96bc 6f23 8bbd 0a81 ac3d
00000290: d058 9f3b 34b2 7fbb 934a 483b 1f11 15bc
000002a0: aabd 13bd 8247 dc3c 00a1 653b 75e8 a8bb
000002b0: f082 07bd 6e45 043d 1f72 2abc 60a0 d53c
000002c0: 6086 abbc 1325 fa3c a5f9 2c3d b127 0fbd
000002d0: 27c3 1d3d 7e13 12bd e8bc 4e3c 23ce f0bc
000002e0: 556f 6b3c aeb9 8bbc 6c62 42bc 7cc8 193c
000002f0: 0e0c 1a3c 2793 afba 4474 90bd 5110 9a3d
00000300: 5744 96bb fb7e 9d3b 613f e4bc 2f6a 453c
00000310: 73ef 3bbd 238b 153d 451b 5ebd ec0f 513d
-0.024530457 0.024576118 0.007804348 -0.010601811 -0.037685845 0.027845584 -0.014530746 0.0074044517
-0.014530863 0.0076576215 -0.07305896 0.06756552 -0.13525327 0.12934631 -0.029083455 0.035997044
-0.055542428 0.05170994 -0.013763001 0.024999471 0.0014926923 -0.014622971 0.0025093579 -0.017433148
0.008248713 -0.0041721063 -0.014347447 0.012724486 0.020368453 -0.024897452 -0.024224231 0.02484934
0.016421076 -0.02760501 -0.041314844 0.05084268 -0.049057446 0.0485758 -4.029261e-05 -0.0009217215
-0.020323424 0.020113587 0.025030147 -0.022763003 -0.09064581 0.08192829 0.017007684 -0.011661703
-0.05151783 0.04894134 -0.08885947 0.09709638 0.0029314866 -0.013732792 -0.08126651 0.091111206
-0.0707334 0.06521435 -0.038633075 0.027589353 -0.008893753 0.0067997864 -0.06755469 0.085652165
-0.092534006 0.09072319 -0.0034356671 0.003211584 -0.00257352 0.017527755 0.01720594 -0.0037497114
-0.08104177 0.08583122 -0.04437796 0.04515459 -0.05097204 0.047590077 -0.050594367 0.03927582
0.0046044085 -0.013236374 -0.11171309 0.09633272 -0.017059002 0.024199944 -0.012617158 0.027560178
-0.05433042 0.039256938 -0.0041261786 0.013522476 -0.011380379 0.0063811014 -0.0020833549 0.011143872
-0.012602809 0.014776955 -0.02980964 0.04070178 -0.022577915 0.021634504 -0.08369895 0.08676315
-0.060662296 0.062450945 0.017905688 -0.013253208 0.012661338 -0.010087556 -0.050845474 0.03725191
0.014351417 -0.010358073 0.0032935399 -0.0027830717 -0.000722092 0.0045263055 0.011389972 -0.0018749585
-0.005108719 -0.008174223 -0.016950445 0.011460348 0.005121509 -0.006509351 -0.07356319 0.088001
-0.0043048672 0.012722917 -0.013722205 0.013719653 -0.009529172 -0.0015254135 -0.034869034 0.040671337
-0.029503621 0.037948888 -0.083732605 0.069725655 0.017204734 -0.016917124 0.01929296 -0.025376618
0.014277829 -0.018426392 0.0041733086 -0.018245788 -0.036535546 0.04376407 -0.03354433 0.0330254
-0.10888391 0.113755725 0.016710147 -0.021073498 0.022583203 -0.006088981 -0.070544586 0.07188407
0.023938451 -0.018353729 -0.06793868 0.0842305 0.004862882 -0.003901613 0.0030562028 -0.00909832
-0.03606955 0.026889566 0.003503859 -0.005154664 -0.033083856 0.032292776 -0.010403185 0.02607745
-0.020938098 0.030535256 0.042230267 -0.034949962 0.03851619 -0.03566312 0.012618281 -0.029395169
0.014369805 -0.017056312 -0.011864286 0.009386178 0.009402288 -0.0013395295 -0.07053426 0.07522643
-0.0045857835 0.004806397 -0.027862253 0.012049242 -0.045882653 0.036509644 -0.054225225 0.051040575
