zy_f09.pt (torch, 7634 bytes, 2 tensors)

w f4 [10, 100]
0.53287214 0.6700662 -0.05183147 0.6813658 0.056084715 0.17736399 -0.111549675 0.38444924
0.656883 -0.26261002 0.6680887 0.18237288 0.553369 0.23699328 0.35813734 0.03746326
0.5218336 0.18226735 -0.1662394 0.28233844 -0.2838932 0.023463111 -0.12719327 0.43946406
-0.41611835 -0.13563524 -0.07674061 -0.26590118 0.2110486 -0.41316724 0.70193225 -0.46126428
0.5565521 0.20482177 -0.06494854 0.4047547 0.08723123 0.63508284 0.24730822 -0.09574336
0.25043646 -0.028179357 0.33603293 0.6514457 0.49363902 -0.30889043 0.462756 0.19271007
0.42759162 -0.36293277 -0.39923897 -0.1124789 -0.44737315 0.51246065 0.25719485 0.37609485
0.24576028 0.061799433 0.63190234 -0.3645326 0.1340955 -0.2816253 0.27714044 -0.035597846
0.24176767 -0.034078203 0.5745416 -0.29894465 -0.3661607 -0.31958824 0.636214 0.30737787
0.7521538 -0.3439788 -0.52488625 -0.3933941 -0.42324534 0.35157058 0.3004965 0.67173606
-0.26181918 -0.2728387 0.3930897 -0.18280222 0.43160442 -0.042636905 0.44251364 -0.30331582
-0.23250291 0.26886374 0.2614256 -0.028738502 0.40989426 0.42455006 -0.4122964 -0.23080842
0.5761771 -0.021013368 -0.060002062 -0.4939796 -0.21149774 0.19700012 0.060571536 -0.3486607
0.188189 -0.39395466 -0.2526679 -0.16465665 -0.4951027 -0.1741059 0.73886925 0.20044312
0.27193573 -0.44769862 -0.3064824 -0.07923478 0.14742844 -0.5008651 -0.11224893 -0.23076135
0.014928194 -0.15498288 -0.007974669 -0.3176921 -0.33093295 -0.18390968 -0.055495836 -0.44684014
0.67234445 0.12370578 0.65509427 0.26954454 -0.44051722 0.54849476 -0.0520109 -0.13012096
-0.5094026 -0.41286036 0.30515277 -0.03637931 0.38468474 -0.43875906 0.52238977 -0.34230945
-0.050633147 0.09847627 0.46783572 0.54894495 0.6495108 -0.49271747 0.26462552 -0.1127686
0.010895091 -0.31608078 0.60541534 -0.31046864 0.39581415 0.28131914 0.3140715 -0.25552127
0.6369127 0.22417486 0.1646446 -0.36618903 0.30181333 0.006544898 -0.15748763 0.5989059
0.20789292 -0.2044974 -0.2241801 0.07990876 0.40258664 0.022787029 -0.2964259 -0.14840977
-0.4673827 0.2820456 0.5698401 -0.5409289 0.21727456 0.4423669 0.21553397 -0.04106956
0.3917987 0.40768215 0.2976788 0.052432686 -0.09232561 0.15711965 0.06686181 -0.050807938
0.46921727 0.58180535 0.03261646 0.019149328 0.14406192 0.08510954 0.32157525 0.275599
-0.44433674 -0.14184318 0.55029464 0.33404407 0.12115795 -0.29921478 -0.13300875 -0.30803874
-0.11369407 0.3302801 0.5314952 0.3544117 -0.4274559 -0.21011612 -0.0052198186 0.6487939
0.16719909 -0.09482429 0.31333184 -0.11822944 -0.39668813 0.45585418 -0.19791964 -0.04427539
-0.52651143 0.45922804 0.47035542 0.33422938 -0.30799296 -0.5592335 -0.38308638 0.4821491
0.37386867 0.5901078 0.3863293 0.18181647 -0.014377853 -0.45917863 -0.30385098 -0.43168372
0.31723484 -0.24881881 -0.021214942 -0.34829965 -0.08825724 -0.45915988 -0.31160903 0.266401
-0.08822938 0.3684119 -0.0701497 -0.39190048 -0.029135123 -0.15993443 -0.116126835 -0.43961728
00000000: 4f6a 083f 7589 2b3f 3c4d 54bd fd6d 2e3f
00000010: 16b9 653d e89e 353e 2874 e4bd 88d6 c43e
00000020: 7c29 283f d274 86be dc07 2b3f f5bf 3a3e
00000030: 97a9 0d3f 5eae 723e c75d b73e 1373 193d
00000040: e396 053f 4ba4 3a3e a93a 2abe aa8e 903e
00000050: 735a 91be b635 c03c f43e 02be 6f01 e13e
00000060: 770d d5be f7e3 0abe 2e2a 9dbd 3324 88be
00000070: 201d 583e a88a d3be d5b1 333f d52a ecbe
00000080: 337a 0e3f ccbc 513e bd03 85bd 023c cf3e
00000090: 4aa6 b23d ca94 223f 5e3e 7d3e 1815 c4bd
000000a0: 3539 803e 65d8 e6bc 820c ac3e 25c5 263f
000000b0: 41be fc3e e326 9ebe 5bee ec3e ca55 453e
000000c0: 4aed da3e 53d2 b9be 0d69 ccbe 565b e6bd
000000d0: 180e e5be 9f30 033f 0baf 833e 818f c03e
000000e0: 95a8 7b3e 6721 7d3d 5ac4 213f 04a4 babe
000000f0: 5550 093e 3131 90be 5ae5 8d3e 0ccf 11bd
00000100: f291 773e 9695 0bbd 2915 133f 460f 99be
00000110: 6a79 bbbe 12a1 a3be ecde 223f a260 9d3e
00000120: 278d 403f fd1d b0be f25e 06bf f46a c9be
00000130: 9db3 d8be 0f01 b43e adda 993e e5f6 2b3f
00000140: 2a0d 86be 84b1 8bbe 0e43 c93e 8130 3bbe
00000150: 41fb dc3e 09a4 2ebd 2691 e23e 364c 9bbe
00000160: 3e15 6ebe 82a8 893e 94d9 853e 026d ebbc
00000170: a9dd d13e a05e d93e 8418 d3be 0b59 6cbe
00000180: 5880 133f 3a24 acbc b9c4 75bd e5ea fcbe
00000190: dd92 58be 66ba 493e dc19 783d a883 b2be
000001a0: 9eb4 403e 6db4 c9be b05d 81be c19b 28be
000001b0: 1a7e fdbe d148 32be 8926 3d3f f640 4d3e
000001c0: 293b 8b3e c138 e5be 43eb 9cbe d845 a2bd
000001d0: 7bf7 163e b238 00bf c4e2 e5bd b44c 6cbe
000001e0: 6295 743c d5b3 1ebe 30a8 02bc 8aa8 a2be
000001f0: 0b70 a9be d252 3cbe 9a4f 63bd 3bc8 e4be
00000200: c41e 2c3f 7559 fd3d 42b4 273f be01 8a3e
00000210: 798b e1be 276a 0c3f 6209 55bd 6e3e 05be
00000220: 3568 02bf 6f62 d3be fc3c 9c3e 7902 15bd
00000230: 66f5 c43e 07a5 e0be 56bb 053f 2f43 afbe
00000240: b464 4fbd edad c93d 2a88 ef3e a887 0c3f
00000250: 5746 263f 7745 fcbe ff7c 873e 39f3 e6bd
00000260: 5381 323c 57d5 a1be 80fc 1a3f bff5 9ebe
00000270: 27a8 ca3e 1009 903e fbcd a03e afd3 82be
00000280: b60c 233f 188e 653e 9898 283e 217d bbbe
00000290: 4787 9a3e 9576 d63b 7044 21be e651 193f
000002a0: e2e1 543e c467 51be 788f 65be 34a7 a33d
000002b0: d61f ce3e ddab ba3c 23c5 97be bbf8 17be
000002c0: c94c efbe 4868 903e 0ae1 113f 517a 0abf
000002d0: 397d 5e3e ea7d e23e f0b4 5c3e 8e38 28bd
000002e0: d799 c83e b7bb d03e 5b69 983e a8c3 563d
000002f0: 3615 bdbd f9e3 203e d8ee 883d fc1b 50bd
00000300: 3f3d f03e 32f1 143f d698 053d 0ddf 9c3c
00000310: f884 133e e94d ae3d 83a5 a43e 501b 8d3e
00000320: 1b80 e3be 573f 11be 1ce0 0c3f d307 ab3e
00000330: a921 f83d ae32 99be 7233 08be 41b7 9dbe
00000340: 70d8 e8bd 791a a93e 1210 083f 7375 b53e
00000350: 80db dabe ae28 57be 030b abbb 5b17 263f
00000360: 3d36 2b3e 3d33 c2bd 086d a03e 4722 f2bd
00000370: b51a cbbe b865 e93e 72ab 4abe 1d5a 35bd
00000380: 74c9 06bf f01f eb3e 6dd2 f03e 1d20 ab3e
00000390: 41b1 9dbe ed29 0fbf e623 c4be 3fdc f63e
000003a0: b76b bf3e 4e11 173f f4cc c53e 192e 3a3e
000003b0: 1691 6bbc 7619 ebbe 5b92 9bbe a605 ddbe
000003c0: 9b6c a23e 5cca 7ebe f5ca adbc 5554 b2be
000003d0: 36c0 b4bd 0117 ebbe 388b 9fbe b665 883e
000003e0: 9bb1 b4bd 7ca0 bc3e a5aa 8fbd 2ea7 c8be
000003f0: c8ac eebc dac5 23be e8d3 edbd 8415 e1be

w f4 [100, 2]
0.0055372277 -0.0054915897 -0.0068810745 0.004083573 0.016416892 -0.02625712 -0.021374661 0.014248327
0.04789324 -0.054766536 -0.072144024 0.06665057 -0.15169264 0.14578576 0.06638429 -0.05947075
-0.023206832 0.019374315 0.032538205 -0.021301761 -0.03430117 0.02117083 0.014767479 -0.02969127
-0.0076830382 0.011759635 0.030912636 -0.032535624 -0.014582265 0.010053236 0.028609311 -0.027984217
-3.251852e-07 -0.011183617 -0.03140411 0.04093192 0.034155164 -0.034636836 0.008378173 -0.009340214
0.011141828 -0.011351663 0.0023154386 -4.831157e-05 0.07789173 -0.08660917 0.015970107 -0.010624151
-0.03732818 0.03475166 0.068952784 -0.06071593 0.022716895 -0.03351825 -0.03366133 0.043506015
-0.05220494 0.04668585 0.102450155 -0.11349397 -0.033294637 0.03120066 0.04864546 -0.030547975
0.012508741 -0.01431956 -0.022838617 0.022614507 0.0123670325 0.002587163 0.026627362 -0.013171159
0.016603213 -0.011813756 -0.04071992 0.041496504 0.04311118 -0.04649316 0.0011745096 -0.012493084
0.02880444 -0.03743646 0.06290107 -0.07828141 0.03271985 -0.025578948 -0.00814784 0.023090826
-0.059534516 0.04446099 0.008949178 0.00044709703 -0.016162679 0.011163361 -0.010221011 0.019281495
-0.02493036 0.02710447 -0.026979202 0.037871297 0.023605505 -0.024548959 0.103622094 -0.100557946
-0.01872368 0.020512309 0.016536219 -0.011883744 0.006649511 -0.00407575 0.005178624 -0.018772176
0.004643003 -0.0006496912 0.016979584 -0.016469134 -0.012177495 0.015981695 -0.020418976 0.029933961
-0.014137492 0.00085452484 0.009496064 -0.014986191 0.017286211 -0.018674066 -0.0404333 0.05487109
0.046796422 -0.038378417 -0.021118807 0.021116218 0.016936589 -0.027991176 0.06700606 -0.06120381
-0.023763923 0.03220918 -0.05248109 0.03847417 -0.011803478 0.012091059 0.0104925055 -0.016576175
-0.02141152 0.017262958 0.041851528 -0.055924047 -0.051371846 0.05860035 -0.036056686 0.035537727
0.09778593 -0.092914104 0.0095529435 -0.013916302 0.0005294642 0.015964735 -0.06744945 0.068788946
-0.0028882283 0.008472925 0.11904115 -0.10274929 0.021991814 -0.02103059 -0.014635298 0.008593167
0.010824614 -0.020004652 -0.018482378 0.016831547 -0.0098436475 0.009052558 0.07379354 -0.058119383
0.0020917885 0.007505333 -0.0014746916 0.008754962 0.063699976 -0.060846917 0.0051335357 -0.02191045
0.021597078 -0.024283612 -0.0028206052 0.00034247825 0.011118499 -0.0030557695 0.23134348 -0.22665128
0.014979435 -0.014758849 0.01603796 -0.031851016 0.07107121 -0.08044426 -0.0631586 0.05997393
00000000: a271 b53b cbf2 b3bb a37a e1bb 7ecf 853b
00000010: b87c 863c 2c19 d7bc ea19 afbc d171 693c
00000020: b42b 443d e052 60bd 3fc0 93bd 1880 883d
00000030: 5155 1bbe dd48 153e 7df4 873d 9a97 73bd
00000040: 411c bebc e2b6 9e3c c846 053d 0881 aebc
00000050: 627f 0cbd 736e ad3c 4cf3 713c 1b3b f3bc
00000060: ffc1 fbbb 7cab 403c 7f3c fd3c 1344 05bd
00000070: 74ea 6ebc 54b6 243c 135e ea3c 283f e5bc
00000080: 1d95 aeb4 7d3b 37bc 99a1 00bd 3ba8 273d
00000090: 49e6 0b3d 5bdf 0dbd 9b44 093c b207 19bc
000000a0: 378c 363c 53fc 39bc 9dbe 173b 27a2 4ab8
000000b0: b385 9f3d 2660 b1bd bed3 823c eb10 2ebc
000000c0: 6fe5 18bd c257 0e3d 1e37 8d3d 44b1 78bd
000000d0: c818 ba3c 6f4a 09bd 76e0 09bd 5d33 323d
000000e0: d9d4 55bd a939 3f3d 63d1 d13d 876f e8bd
000000f0: f55f 08bd 8798 ff3c 7640 473d bf3f fabc
00000100: 76f1 4c3c 969c 6abc 0d18 bbbc 0f42 b93c
00000110: 189f 4a3c 648d 293b a021 da3c d8cb 57bc
00000120: 7603 883c 7c8e 41bc eec9 26bd 3df8 293d
00000130: 5995 303d 9d6f 3ebd 01f2 993a cbaf 4cbc
00000140: 4af7 eb3c f956 19bd 47d2 803d 0152 a0bd
00000150: 4005 063d f18a d1bc 857e 05bc f928 bd3c
00000160: 77da 73bd ba1c 363d 939f 123c 5968 ea39
00000170: 9867 84bc 88e6 363c 0776 27bc 3af4 9d3c
00000180: c13a ccbc 320a de3c 7d03 ddbc ef1e 1b3d
00000190: 5560 c13c e61a c9bc d237 d43d 53f1 cdbd
000001a0: 6762 99bc 6e09 a83c f776 873c 09b4 42bc
000001b0: 24e4 d93b de8d 85bb 72b1 a93b 1bc8 99bc
000001c0: 5524 983b 0a50 2aba c518 8b3c 47ea 86bc
000001d0: 1e84 47bc 0bec 823c b245 a7bc 1138 f53c
000001e0: f0a0 67bc 3102 603a 6195 1b3c a488 75bc
000001f0: d09b 8d3c 5bfa 98bc 639d 25bd 82c0 603d
00000200: 9bad 3f3d b032 1dbd 5901 adbc ebfb ac3c
00000210: 9abe 8a3c c04d e5bc 793a 893d d9b0 7abd
00000220: 8fac c2bc c6ed 033d 69f6 56bd 1797 1d3d
00000230: 6063 41bc 9419 463c c2e8 2b3c c2ca 87bc
00000240: 3667 afbc 0c6b 8d3c 826c 2b3d 9d10 65bd
00000250: 496b 52bd ec06 703d 2db0 13bd 0290 113d
00000260: fd43 c83d c049 bebd f383 1c3c 3301 64bc
00000270: becb 0a3a 7ac8 823c f022 8abd 38e1 8c3d
00000280: 6e48 3dbb 06d2 0a3c d9cb f33d 386e d2bd
00000290: 2d28 b43c 5848 acbc e4c8 6fbc 5bca 0c3c
000002a0: b959 313c cce0 a3bc 5b68 97bc 50e2 893c
000002b0: 4047 21bc 2e51 143c 1121 973d 970e 6ebd
000002c0: 6316 093b 4cef f53b 704a c1ba f970 0f3c
000002d0: 2275 823d 9e3a 79bd 3837 a83b 8b7d b3bc
000002e0: 5bec b03c 6dee c6bc e7d9 38bb a78e b339
000002f0: 5d2a 363c 4e43 48bb 4ee5 6c3e 4617 68be
00000300: 4e6c 753c 19cf 71bc 0a62 833c 3676 02bd
00000310: c88d 913d f6bf a4bd 4c59 81bd 39a7 753d
