zy_f10.pt (torch, 7634 bytes, 2 tensors)

w f4 [10, 100]
00000000: 14ad 0a3f 69e6 0d3f bc37 92bd 2e44 173f
00000010: 0772 033d 1537 773e 9927 9dbd 2d2d dc3e
00000020: 052b 233f 960e 90be c85c 1f3f 27e8 373e
00000030: 88e8 023f bbac 613e 589b c03e 6192 0d3d
00000040: 41c1 043f b063 173e b801 eebd aac7 7e3e
00000050: 2465 2abe 337a ca3b 21c7 a9bd b032 f13e
00000060: e01b ccbe 14b2 44be aa62 69bd c5e2 69be
00000070: e88c 263e 177b 0fbf ac8b 3f3f a1d4 d3be
00000080: 9b6b 163f 94ec 483e 7845 a5bd f9e5 dd3e
00000090: d135 943e ce9a 0d3f b89a 703e 2680 02be
000000a0: d541 9a3e f554 cdbd df23 b53e 53a8 243f
000000b0: a8ef ed3e dc5f 96be 97ee fa3e ed03 413e
000000c0: 96b0 d23e 5cdd b9be 6261 ecbe c120 01be
000000d0: 2aad ddbe ecd7 043f 81b7 643e f49a b03e
000000e0: eb60 983e 5035 f73d a39e 243f 5e78 a2be
000000f0: 4f7e 213e f47d 92be 1475 953e 4407 4fbd
00000100: 4f21 983e 98e2 d5bc 15c1 0d3f fa51 90be
00000110: 228a 9fbe 5d01 8ebe 9f06 2a3f b433 8e3e
00000120: d226 3e3f ee87 acbe ccfb 14bf 6e09 b9be
00000130: a8f0 b8be 81c2 983e 756e 9e3e a895 1d3f
00000140: 5930 82be ddc2 93be 5580 ce3e 7326 1ebe
00000150: d9dd dc3e 3bac 2fbd dd84 db3e a11a 84be
00000160: 2724 79be 94e2 883e 426f 7f3e 666b 01be
00000170: 958f e53e 3bc8 e33e 1382 a5be 605e 5bbe
00000180: 0f07 253f 6073 abbd 2c33 37bd 88af ffbe
00000190: 9d61 4ebe 98fc 753e 272b a93b 89fe a9be
000001a0: cc7c 2d3e 5671 aebe afa1 9ebe 7a1d 12be
000001b0: fa1f dbbe b8c2 5abe e550 403f 167d 453e
000001c0: 1634 903e 55f5 d6be 941c acbe a579 71bd
000001d0: b555 243e e22c efbe 89b9 bcbd 2e41 5abe
000001e0: 39a7 0b3e eb7d e6bd aa70 a53d 3677 bcbe
000001f0: 475c abbe d1fe 89be 199a b6bd cef2 b9be
00000200: 6c6e 1b3f 484c a6bd e6d6 333f 1464 8a3e
00000210: 7a0d cdbe 0108 103f c35d 86bc 0578 c9bd
00000220: 808e 96be e33d 01bf 4fd0 9c3e b7b8 92bd
00000230: 9670 a33e 2109 b5be 5d04 003f b2ed c4be
00000240: ba9d d7bc 38b9 a83d eed6 db3e 65c1 0f3f
00000250: 9a33 2b3f 0468 d6be aacd 623e 1e48 50be
00000260: 6c7c e5bc 7c9e aabe 906b 253f 8154 b6be
00000270: 7f8e dc3e 7ecf 9a3e aed4 9a3e 540f 5bbe
00000280: 20c3 1c3f cb9c 733e 0d57 2d3e 65d7 a5be
00000290: 572d b73e 29fc 4bbc 9114 0cbe 3a7d 203f
000002a0: 06c8 5e3e 4745 79be 6cc6 6fbe 157a 9b3d
000002b0: 1a2f ea3e f2c4 fcbc 9acb 7dbe d27d c8bd
000002c0: c4c7 d0be 98de 8b3e 084b 103f b5ff fabe
000002d0: ed51 553e 7114 d53e 85c3 553e ac94 f3bd
000002e0: 9cb9 c33e caad bb3e c7a4 a13e 5e58 aa3d
000002f0: 2a35 dbbd 6fc2 2b3e 2c19 a53d 3333 25be
00000300: c5ea ed3e ccff 133f c03a 4c3c 6411 01bd
00000310: 7097 053e d7a6 d93d 25ab 913e e59c 7d3e
00000320: eb63 d8be fba5 05be 771d 1e3f 91aa 953e
00000330: 579e d93d d7c9 97be 0c08 1cbe be4c b5be
00000340: 683f 12be 0532 933e 9625 063f 7b7f b33e
00000350: 4000 ebbe ea77 45be 7bd5 90bb 765b 253f
00000360: c48b 1b3e efb5 aebd a0a2 b43e 04d0 c7bd
00000370: a3c7 81be b84f ef3e a4df 28be 653c adbd
00000380: 0dc9 04bf 8d3e e93e 4eee f63e cec3 a13e
00000390: 9699 c9be 4f8f 11bf 8f7f b1be 4179 073f
000003a0: 1ab5 c13e 8a0f 2e3f 4870 bd3e ce6e 703e
000003b0: 0431 4e3e 2334 aebe f0ce 8cbe 0b59 fabe
000003c0: b8be 953e 3040 22be e276 d7bc 0321 7bbe
000003d0: 1a5e 9b3b 64fa ecbe 7ee0 a5be 5889 933e
000003e0: 6fb3 77bd 63d0 e53e 1192 38bd 78e9 b2be
000003f0: 6edf 01bd 7d39 40be 00ea d6bd ffc9 02bf
0.54170346 0.55429703 -0.07139537 0.5908841 0.032091167 0.24142106 -0.07673568 0.43003216
0.6373752 -0.28136128 0.6225095 0.17959653 0.51136065 0.22038548 0.37618518 0.034563426
0.5185738 0.14784122 -0.116214216 0.24880853 -0.16640145 0.006179118 -0.08289934 0.47108984
-0.39865017 -0.19208556 -0.05697886 -0.22840412 0.16264689 -0.56047195 0.748225 -0.4137316
0.5875794 0.19621497 -0.08069891 0.43339518 0.2894731 0.5531434 0.2349652 -0.12744197
0.3012835 -0.1002597 0.3537893 0.6431934 0.46471906 -0.2937001 0.49010155 0.18849154
0.4115035 -0.36301696 -0.46168047 -0.12610151 -0.43296176 0.5189197 0.22335626 0.3449322
0.29761443 0.120707154 0.6430456 -0.31732458 0.15770839 -0.2861172 0.29190886 -0.05054404
0.29712912 -0.026109025 0.55372745 -0.28187543 -0.31160074 -0.27735415 0.66416353 0.2777382
0.74277985 -0.33697456 -0.5819671 -0.36140007 -0.36121106 0.29835895 0.30943647 0.6155648
-0.2542751 -0.28859606 0.40332285 -0.15444355 0.43138006 -0.04288886 0.42874804 -0.25801566
-0.24330197 0.26735365 0.24944785 -0.12638626 0.44836107 0.444887 -0.323258 -0.2142272
0.64463896 -0.083716154 -0.044726536 -0.49938607 -0.20154424 0.24022138 0.005162615 -0.33202007
0.16942137 -0.34070843 -0.3098273 -0.14269057 -0.42797834 -0.21363342 0.75123435 0.19285998
0.28164738 -0.41984048 -0.33615553 -0.0589539 0.1604832 -0.4671393 -0.092150755 -0.21313927
0.13638009 -0.11254486 0.080781296 -0.368097 -0.3346884 -0.26952222 -0.089161105 -0.36318058
0.60715365 -0.08120018 0.70249784 0.2702948 -0.40049344 0.56262213 -0.016402131 -0.09837345
-0.29405594 -0.50485057 0.30627677 -0.07164138 0.31921834 -0.35358527 0.5000666 -0.38462597
-0.026320327 0.08238453 0.42937416 0.5615447 0.6687561 -0.41876233 0.22148767 -0.2034001
-0.02801343 -0.3332404 0.6461725 -0.35611346 0.43077466 0.3023643 0.30240387 -0.21392566
0.6123524 0.2379028 0.16927738 -0.32390895 0.3577678 -0.012450256 -0.1367972 0.6269108
0.2175599 -0.24342833 -0.23415536 0.07591645 0.4573906 -0.03085563 -0.24784699 -0.09789623
-0.4077741 0.27318263 0.5636449 -0.49023214 0.20832033 0.41617158 0.20875366 -0.11893591
0.38227546 0.36656028 0.31571028 0.08317636 -0.107034996 0.1677339 0.08061442 -0.16132812
0.46468177 0.5781219 0.012465179 -0.031510726 0.1304605 0.10627525 0.28450885 0.24766882
-0.4226373 -0.13051598 0.6176371 0.29231694 0.10625904 -0.2964618 -0.15237445 -0.35410112
-0.14282 0.287491 0.524011 0.35058197 -0.45898628 -0.19284025 -0.00441998 0.64592683
0.15190035 -0.08530795 0.35280323 -0.09756473 -0.25347623 0.46740508 -0.16491562 -0.08458785
-0.5186928 0.45555535 0.48228687 0.315947 -0.3937499 -0.56859297 -0.34667632 0.52919394
0.37833482 0.6799246 0.36999726 0.23479769 0.20135885 -0.34024152 -0.2750163 -0.4889606
0.2924707 -0.15844798 -0.026301805 -0.24524312 0.0047414424 -0.46284783 -0.32397836 0.28815722
-0.060473856 0.4488555 -0.045061175 -0.34943748 -0.03170722 -0.1877193 -0.10493851 -0.5108947

w f4 [100, 2]
00000000: cffa 263b adfc 23bb 279c a73b 7ba3 01bc
00000010: a09b 01bd c79a b23c 944b 3436 3f9a e9bb
00000020: c4ca 4c3d e6f1 68bd ac4f dcbc 1c4f af3c
00000030: 2379 5abc 7563 f33b 0769 553d 9c17 39bd
00000040: ef8e 99bc 5253 743c e2b4 af3c 8f50 27bc
00000050: 7df6 bdbc 9ecc 243c 92d7 6b3c 3d2d f0bc
00000060: 0998 81bb 9596 033c 11cb 513c 4f62 6cbc
00000070: f3f4 97bc e2b5 653c efff 4b3c 0ac2 41bc
00000080: 7d5c a9bb 231d c5bb 2035 b739 e460 163c
00000090: ca43 fb3c e435 ffbc a9ae c23c 2d90 cabc
000000a0: b3c9 26bd aeed 253d bfb7 8b3b eeda 02bb
000000b0: a84b c73c c65a 07bd 63cd 9539 95d0 a53b
000000c0: b021 debc 6b06 c93c 35b4 453c 1000 7bbb
000000d0: 7c89 733c b440 d2bc 9760 01bc 1956 913c
000000e0: 0335 0fbd b733 f13c edc2 0c3c e3d9 a0bc
000000f0: 0a48 f5bc a920 e43c 2fb4 45bc 3c1b f73c
00000100: da9a 3abd 1530 333d 25fc b5bc 3526 b43c
00000110: 88f8 a83c f5dc b9bb 363f 653c f37a 0cba
00000120: 5fd6 a53a a3f6 663b 6806 363c 034d 29bc
00000130: 72e7 8a3d 90d4 91bd ce9e c3bb 1044 afbb
00000140: aeb2 ea3c 9fb4 18bd 4cb9 ddbc e974 3f3c
00000150: a829 643c d754 debb 5db2 3fbc f942 da3c
00000160: 068a 25bd ae98 cf3c 723b b03c 2884 46bc
00000170: 2854 a0bc cfbf 6e3c ea87 493c 6e55 54bb
00000180: 26cb 77bc 1cb5 8d3c f319 84bb f681 743c
00000190: 75d8 c83c f392 d0bc c2d0 82bc d8ea 9b3c
000001a0: 62b2 68bc 4600 833c 91f4 5b3c 85ba 0fbc
000001b0: c8d4 95ba 5297 733b 8226 cfbc a595 3f3c
000001c0: 9915 babb 1b78 1e3c 90b7 cd3c 0989 c9bc
000001d0: 250a 8bbc 1d34 aa3c a0d8 88bc 17cb d63c
000001e0: 5bf0 32bb 9be4 2cbc 06f8 803c 9df1 adbc
000001f0: 42d3 0b3b 30c7 66bb 3313 78bd 319b 993d
00000200: 7dc9 273d 7f4e 05bd af5e 6ebc f853 6e3c
00000210: f47e 7f3c 9a4e dabc 015b 2abd 2a1f 423d
00000220: 16d5 863b 41e7 8d3b fccf 84bd 9c40 503d
00000230: 1161 39bc 5c17 3e3c cf54 323c c400 8bbc
00000240: b929 7abc 6d31 363c 07ff ce3c 9123 21bd
00000250: 5d19 30bd 03b5 4d3d 5c19 c93c a159 cdbc
00000260: 8422 313a b47f 893b ac57 183c d0d4 5fbc
00000270: 74d3 e23a 5de3 713c 7077 3fbd 00f4 443d
00000280: 6af6 4e3b bc09 1f3b 97aa 2cbd d365 6f3d
00000290: 61ea fd3c 740a f6bc a988 b2bc 7b09 813c
000002a0: c1f1 6f3a c866 25bc 4c6f d7bb 6557 a13b
000002b0: 1932 b8bc 1bb7 b13c e46d 273d 8474 cebc
000002c0: 87ec 9e3b 3b8e 9b3b bf81 4b3c dc73 a8bb
000002d0: ed06 8d3d 182f 87bd d419 0ebc 83c5 04bc
000002e0: f053 893c fb55 9fbc 9e3e 3fbb 79b7 e639
000002f0: 46f1 8a3c d9c8 11bc cf07 cbbc 0478 f13c
00000300: 53a6 643c fe08 61bc 17ce 983c 372c 0dbd
00000310: a690 783d 767a 8fbd a47f 37bc 5252 033c
0.0025479083 -0.0025022433 0.0051150504 -0.007912512 -0.031642556 0.02180232 2.6866082e-06 -0.0071289833
0.04999806 -0.056871317 -0.02689346 0.021400027 -0.013334545 0.0074276277 0.052102115 -0.04518853
-0.018744914 0.014912443 0.021448556 -0.010212078 -0.023188824 0.01005855 0.014394658 -0.029318446
-0.0039548916 0.008031507 0.012804762 -0.0144277355 -0.018549418 0.014020415 0.012451156 -0.011826048
-0.005168496 -0.0060154363 0.0003494406 0.009178374 0.030671973 -0.031153627 0.023764925 -0.024726951
-0.0407197 0.040509872 0.0042638476 -0.0019966918 0.024328068 -0.033045553 0.0002857252 0.0050602653
-0.027115673 0.024539193 0.0120668905 -0.0038299598 0.014864322 -0.025665618 -0.007896564 0.01774125
-0.034962665 0.029443605 0.008591396 -0.019635146 -0.029941577 0.027847605 -0.012066885 0.030164354
-0.045557834 0.043747026 -0.022214958 0.021990875 0.020626321 -0.005672092 0.013992121 -0.0005358897
0.0012652389 0.0035242222 0.011109926 -0.010333302 0.06782426 -0.07120621 -0.0059698587 -0.00534869
0.028649654 -0.03728163 -0.027065895 0.011685588 0.013925947 -0.006785016 -0.01170024 0.026643263
-0.040414833 0.025341358 0.02151272 -0.012116469 -0.019571379 0.014572098 0.012300471 -0.0032399553
-0.015124118 0.017298274 -0.0040314137 0.014923563 0.024517277 -0.025460696 -0.015968684 0.01903288
-0.014202686 0.015991341 0.013425008 -0.008772497 -0.0011431212 0.0037169051 -0.025286917 0.011693393
-0.005678844 0.00967219 0.025111943 -0.024601476 -0.01697261 0.020776803 -0.016704857 0.026219888
-0.0027303908 -0.010552551 0.015743267 -0.021233374 0.0021335636 -0.003521394 -0.060565185 0.075003035
0.04096364 -0.032545563 -0.0145489415 0.014546387 0.015594233 -0.026648808 -0.041590694 0.047393
0.0041147573 0.004330546 -0.06484982 0.050842866 -0.011314646 0.011602249 0.010884478 -0.016968139
-0.0152687365 0.011120182 0.02526809 -0.03934056 -0.04299294 0.050221454 0.024548225 -0.025067152
0.00067571574 0.0041961316 0.009298246 -0.013661578 0.001730545 0.01476368 -0.046744764 0.04808426
0.003157998 0.0024267277 -0.042154875 0.058446717 0.03099555 -0.030034281 -0.02179368 0.015751591
0.00091531506 -0.010095306 -0.006574547 0.0049237483 -0.022484826 0.021693757 0.040876284 -0.025202043
0.0048499736 0.00474718 0.012421071 -0.0051407646 0.068860866 -0.06600779 -0.00867315 -0.008103731
0.016763657 -0.019450178 -0.002918161 0.00044005716 0.016960751 -0.0088979835 -0.024783997 0.029476173
0.01395567 -0.013735054 0.018652959 -0.034465995 0.060684822 -0.070057794 -0.0111998655 0.008015232
