zy_f06.pt (torch, 7634 bytes, 2 tensors)

w f4 [10, 100]
00000000: 8db7 0e3f 8038 0e3f 565f 90bd ef8c 1b3f
00000010: 1ea3 a13d 2074 6f3e e9e3 a7be 8f8f ea3e
00000020: 6bdb 233f 3ac9 75be 1c3a 253f 1cec 393e
00000030: 199a 053f aa7d 453e ddd4 b93e 4232 393d
00000040: 1eeb 0a3f dfbd 303e 66b3 33be fd46 8e3e
00000050: 4564 15be 7f2c 8f3d 2edb 05be b39c ed3e
00000060: af1e debe 3434 23be 1291 1abd 8a65 aabe
00000070: c823 1b3e 619c 08bf 41cb 233f 5d32 e0be
00000080: ab8d 173f cc42 783e d681 90bd 0305 e63e
00000090: f228 933e b7f1 1a3f b1de 853e 8dc1 03be
000000a0: 2e99 783e 369e babd 004e a13e cc3c 133f
000000b0: afaa ec3e 3ded 05be 7ae3 e23e 7bf2 563e
000000c0: 9633 c63e 1724 acbe 6928 f5be cef8 10be
000000d0: d207 d5be 9155 113f 8b32 4d3e 50e7 aa3e
000000e0: 621e 893e b57a f43d 596a 1b3f 93a9 c4be
000000f0: 192a 0c3e 1c3b b4be 7fde 923e 9702 d2bd
00000100: 5d6b 873e 1c87 2fbd 60d2 103f 8ae0 74be
00000110: 1e23 b3be 60b3 9bbe 4044 203f 394b 9a3e
00000120: f954 2e3f 65cb 91be c8c6 03bf 94f4 f4be
00000130: 03d8 92be 752a 9d3e d2a5 8a3e 5ba4 2a3f
00000140: 65a6 51be 95cd a9be 6c27 c33e c855 45be
00000150: b816 e03e 913d acbd cbf9 d63e 8627 80be
00000160: 4d57 6ebe a358 833e 58c9 883e 8fdb 0bbc
00000170: 14cd db3e 8cbe f43e 52e3 9abe ed7f 57be
00000180: 2fde 1e3f 9ba2 3abd 75f4 48be 61c9 03bf
00000190: 0217 50be cffe 653e 3f31 84bd 38fb b6be
000001a0: cf03 3b3e bffd aabe 2a26 0bbf 6152 12be
000001b0: c6f0 f7be 439d 41be 5d3b 3d3f 0520 563e
000001c0: c5dd 863e 219d e6be 7f4c 9cbe c9e3 91bd
000001d0: 70fb 223e c096 f5be f7cc 19be 46ab 69be
000001e0: 41e8 b83d 9537 a5bd 3c7f 863d ddd0 8bbe
000001f0: 1502 b6be e572 7bbe 3983 2fbd b043 c8be
00000200: 9ade 203f 250d ca3b d451 273f 9893 633e
00000210: 3fbf ebbe 2940 113f 3f67 50bc 0006 a8bd
00000220: 35fc 97be 3fb7 09bf 65cd 9d3e e9ff 12bd
00000230: 77e9 9b3e a3a9 babe 8620 013f d601 ccbe
00000240: e3da 9bbc 4b09 863e 5369 d73e 85db 0e3f
00000250: 72c7 243f 9c12 edbe 1da3 813e 4a50 36be
00000260: b920 183b 8f4f 93be b735 1b3f 35a2 b4be
00000270: 104a d03e a0b9 9e3e c480 993e e344 78be
00000280: a421 1d3f f9d3 593e 65d3 463e 6435 a8be
00000290: 1728 a23e 75a3 25bd 9d97 13be 233f 193f
000002a0: 900a 433e 79ff 83be 13cc 7abe 4b10 9f3d
000002b0: 457e e23e 21c9 8e3c 2b93 90be 4767 ecbd
000002c0: bf98 96be 8313 933e 1a3b 073f 6b6a fbbe
000002d0: 224d 533e 3cdd dd3e d838 4b3e 8b3a 10be
000002e0: 26c4 bc3e 3093 c23e 81ae b53e 00bb b83d
000002f0: 8f35 c2bd 0cfe 2f3e c5e2 8e3d 30a5 79bd
00000300: 7e34 ec3e 23de 223f ceea ec3c 41a2 133d
00000310: 4bd7 dd3d fb65 c83d 494f 5a3e 8da4 6b3e
00000320: c6e0 cabe d9bd 17be b104 103f 7c30 933e
00000330: 309c 0f3e b69b 91be 2ce3 cdbe fd46 abbe
00000340: 2bcb dbbd 2971 9c3e a40d 063f 14cd bb3e
00000350: 4233 e4be b7fe 7dbe 0323 7abc 54aa 273f
00000360: d119 1f3e b051 e0bd ac55 b03e 7c55 8dbd
00000370: 60d1 81be 1c56 f23e a764 4fbe 7071 b4bc
00000380: 7345 07bf 0d84 063f 67a9 023f 4dd1 bd3e
00000390: c709 adbe 5eb8 e0be d5a5 dcbe 8d45 1b3f
000003a0: 5332 c73e 9969 2d3f 7c12 c23e 648a 643e
000003b0: 983f 3a3e ed09 bdbe 746a 92be eaa8 03bf
000003c0: b14f 9a3e 8e60 41be 5047 86bd cdf3 a0be
000003d0: a541 dbbc c5dc 8bbe 2eae a9be 0598 943e
000003e0: 7e27 b2bd 58b6 e33e ae02 9ebd 94f1 bcbe
000003f0: 5a3b 2ebd 97cc 23be afde 19be 3f90 06bf
0.55748826 0.5555496 -0.07049434 0.6076192 0.0789244 0.23384142 -0.3279107 0.45812652
0.6400668 -0.24002543 0.6454179 0.18156475 0.5218826 0.19286218 0.36295214 0.045213945
0.5426501 0.1725993 -0.17548904 0.27788535 -0.14589031 0.06990909 -0.13071892 0.46408615
-0.43382785 -0.15937883 -0.037736006 -0.33280593 0.15150368 -0.53363615 0.63982016 -0.43788424
0.59200543 0.24244231 -0.07056014 0.449257 0.28742176 0.6052508 0.26146463 -0.12866803
0.24277183 -0.091122076 0.31504822 0.57514644 0.4622397 -0.1307878 0.44314176 0.20990936
0.38711232 -0.33621284 -0.47882393 -0.14157411 -0.4160753 0.5677119 0.20038812 0.33379602
0.26780993 0.11937467 0.6070915 -0.38410625 0.13687934 -0.35201347 0.28685376 -0.102544
0.264491 -0.04285346 0.56571007 -0.2391378 -0.3498773 -0.3041029 0.6260414 0.30135515
0.6809841 -0.2847549 -0.5147519 -0.47842848 -0.2868043 0.30696455 0.27079636 0.66657037
-0.2047363 -0.3316466 0.38116014 -0.19271004 0.43767333 -0.0841018 0.41987452 -0.25030154
-0.2327549 0.25653562 0.26716113 -0.008536234 0.429299 0.47801626 -0.30251557 -0.21044894
0.62057775 -0.04556523 -0.19624503 -0.51479155 -0.20321277 0.22460483 -0.064547054 -0.3573854
0.18263172 -0.33396718 -0.5435511 -0.14289238 -0.48425883 -0.18907647 0.73918706 0.20910652
0.26341072 -0.45041755 -0.30527112 -0.07123525 0.15916228 -0.47966576 -0.15019594 -0.22819242
0.09028674 -0.08067242 0.06567237 -0.27307788 -0.35548463 -0.24555548 -0.042849753 -0.3911414
0.62839663 0.0061661177 0.65359235 0.22224271 -0.46044347 0.56738526 -0.012719928 -0.082042694
-0.29684606 -0.53795236 0.30820766 -0.035888586 0.30451557 -0.36457548 0.5044025 -0.3984515
-0.019025272 0.26178965 0.42072544 0.5580371 0.6436683 -0.4630326 0.25319758 -0.17804065
0.0023212864 -0.28771636 0.6062884 -0.35280004 0.40681505 0.31000996 0.29981053 -0.24245028
0.61379457 0.21272267 0.19416578 -0.32853234 0.3167121 -0.040439088 -0.14413305 0.59861964
0.19046998 -0.25780848 -0.2449191 0.077667795 0.4423696 0.01742989 -0.2823728 -0.11543136
-0.2941341 0.28725824 0.52824557 -0.49104628 0.20634893 0.4333285 0.19845903 -0.14084832
0.368684 0.3800292 0.35484698 0.090200424 -0.09482872 0.17186755 0.069768466 -0.06094855
0.46133798 0.63620204 0.028920557 0.03604341 0.108320795 0.09785076 0.21319307 0.2301199
-0.39624614 -0.14818515 0.5625716 0.28747928 0.14024425 -0.2843911 -0.4021238 -0.33452597
-0.107321106 0.30555084 0.52364564 0.366799 -0.44570357 -0.24804197 -0.0152671365 0.65494275
0.15537192 -0.10953081 0.34440362 -0.069010705 -0.25355053 0.4733132 -0.2025324 -0.022026747
-0.52840346 0.52545244 0.5103974 0.37073746 -0.33796522 -0.4389066 -0.4309527 0.60653
0.38905582 0.67739254 0.37904727 0.22318417 0.18188322 -0.36921635 -0.28596842 -0.5142962
0.30138925 -0.18884489 -0.065565705 -0.31436005 -0.0267647 -0.2731687 -0.331407 0.29022232
-0.08698939 0.44475055 -0.07715355 -0.3690306 -0.04253707 -0.15996014 -0.15026353 -0.5256385

w f4 [100, 2]
00000000: ae81 453c 28c2 44bc e8e2 9f3a 81a3 83bb
00000010: 4811 a6bc a9e9 2a3c 0107 2cbb 2580 93bb
00000020: 7397 3b3d 94be 57bd 8c18 71bd 4198 5a3d
00000030: e3ac 9c39 5e59 cbbb 3cdb af3c c770 6ebc
00000040: d0dd d1bc 8578 b23c 2d7b ce3c 18dd 64bc
00000050: 8775 8dbc 7095 873b 1d44 d13a b855 87bc
00000060: 71fa 5c39 ba5a 7d3b 6383 c2ba e6b2 11b9
00000070: d561 b8bb 4ae7 8f3a 0864 983b 43e8 83bb
00000080: 4cf7 4c3b 9d7a 6abc 6968 0fbd 146f 363d
00000090: 1f40 8d3c 3832 91bc b598 563c b95b 66bc
000000a0: fdd5 98bc e81d 973c 9625 2d3c 6900 08bc
000000b0: 613c 1fbd d40e f73c 7713 143c 07f3 71bb
000000c0: b112 05bd 160a f53c 1ce2 3c3b 4377 af3b
000000d0: dac8 943c d244 edbc df90 88bd 52ba 9c3d
000000e0: eb33 86bd b7cc 753d 9459 4fbd 611d 223d
000000f0: c09d cfbc 6876 be3c 6cf9 85bd b009 ab3d
00000100: 4e04 aebd ee4e aa3d 5051 9dbc 637b 9b3c
00000110: f0da 8f3c 4ecd 2abb 0898 683c 7308 42ba
00000120: c387 603b d0b3 b23a ef6e a4bc a1cb aa3c
00000130: f3e0 133d 38bb 21bd 6f23 dbbb 62bf 97bb
00000140: 1e4b a43c ab01 ebbc a13c 91bd d279 633d
00000150: 2840 d13b 36f3 453a d84a e4b9 eef5 7b3c
00000160: 498e 52bd 93d0 143d 2a0c 7ebd 7544 923d
00000170: fa0a 95bc 742d 583c 8ea4 083c 0ee0 3c3a
00000180: 3c67 4cbc 4a06 703c 1697 d4bb 4560 8e3c
00000190: aa70 b83c 2a2b c0bc 5602 cdbb 66b5 183c
000001a0: f3ab 0cbd 7eff 133d 5bae 763c 6074 2abc
000001b0: 41e7 7bba d4a6 673b c26c c0bc 1a22 223c
000001c0: b1eb ae3b 9d44 b0ba 1158 903c 8c29 8cbc
000001d0: acd5 4ebc d694 863c 893e d5bb 1942 833c
000001e0: bc56 b039 5d23 5fbc 6474 8dbc 9ff5 403c
000001f0: 9897 523a f399 0fbb 374d 3fbd 5f70 7a3d
00000200: 1637 113d 2f78 ddbc 6dfb 18bc bef0 183c
00000210: 9219 7db9 da29 31bc c0c2 64ba 80b9 da3b
00000220: 34ea cdbc a68c 093d 9d53 c7bd f2a3 aa3d
00000230: 45ab ffba 0faf 123b 5c57 523b 8442 18bc
00000240: 3cb3 46bc ffba 023c c59a 9d3c 7871 08bd
00000250: 4a60 4cbd f3fb 693d f17a 43bd cf5a 413d
00000260: fce5 efbd 3be0 f93d 288b d73b b542 33bc
00000270: 0480 a83b c9fd 393c e205 1bbd 7582 203d
00000280: cfd6 e83b ee5a c7ba 2a0f d2bc d9c2 2b3d
00000290: 5d05 d33c 7125 cbbc 7c54 3abc 0dac ae3b
000002a0: 0786 153b 2ac9 3bbc 6f1f a7bb 150f 623b
000002b0: 1ff5 bfbc 217a b93c 1daf 693d 727b 29bd
000002c0: 8afa 36bb 09fc 4a3c 8872 973c 419d 37bc
000002d0: 51cc 863d 7ef4 80bd 6dc0 943a b6bb 92bc
000002e0: b6fe 393c c202 66bc ed0a 80bb 465c bb3a
000002f0: 4656 783c 2d79 e8bb 4313 c3bd 4faf cc3d
00000300: a4b2 0e3b 4c3d 00bb ab3d 6e3b 1452 9fbc
00000310: 086a 41bd c005 1b3d 6318 0bbd 161a fc3c
0.012054844 -0.012009181 0.0012198361 -0.004017294 -0.020271912 0.0104316855 -0.0026249292 -0.00450136
0.04579873 -0.052671984 -0.0588613 0.053367857 0.0002988345 -0.0062057218 0.021466844 -0.014553255
-0.025618464 0.021785984 0.02520522 -0.0139687285 -0.017267955 0.0041376874 0.0015965734 -0.016520366
0.00021074132 0.0038658814 -0.0014840182 -0.00013894922 -0.005626897 0.0010978964 0.0046505965 -0.0040254905
0.003127533 -0.01431146 -0.035011683 0.044539526 0.01724249 -0.017724141 0.013097932 -0.014059954
-0.018656725 0.018446878 0.010568043 -0.008300879 -0.03887594 0.030158438 0.009037844 -0.0036918537
-0.03248853 0.029912036 0.0028821295 0.0053547933 0.01816218 -0.02896348 -0.06668257 0.07652725
-0.06552871 0.060009684 -0.050622538 0.0395788 -0.025343776 0.02324982 -0.06541714 0.08351457
-0.08496915 0.08315836 -0.019203812 0.018979734 0.017560452 -0.0026062313 0.014196403 -0.0007401772
0.0034260608 0.001363391 -0.020072429 0.020849051 0.0361032 -0.039485186 -0.0066875736 -0.004630969
0.02005535 -0.028687319 -0.07091642 0.0555361 0.006385822 0.0007551195 -0.00043543312 0.015378458
-0.051405225 0.036331724 -0.06202332 0.071419634 -0.01819371 0.013194431 0.008340014 0.00072050176
-0.012475785 0.014649937 -0.0064877374 0.01737989 0.02251466 -0.023458082 -0.006256382 0.0093205925
-0.03434367 0.03613233 0.015056218 -0.0104037225 -0.00096093497 0.003534724 -0.02348936 0.009895826
0.005338155 -0.0013448183 0.017620118 -0.017109655 -0.0126241855 0.016428392 -0.006507699 0.016022729
0.00033633958 -0.013619271 -0.017267413 0.011777311 0.00080334535 -0.002191183 -0.046704497 0.06114232
0.035452925 -0.027034847 -0.009337288 0.009334741 -0.00024137486 -0.010813201 -0.000872653 0.0066749454
-0.02513609 0.0335814 -0.09732745 0.08332051 -0.0019505998 0.0022382175 0.0032095527 -0.009293202
-0.012127694 0.007979154 0.019238839 -0.033311337 -0.049896516 0.057125043 -0.047724668 0.047205742
-0.11713788 0.12200972 0.006577868 -0.010941197 0.005142214 0.011352011 -0.037847407 0.039186914
0.0071056853 -0.0015209594 -0.025641996 0.041933868 0.025759393 -0.024798127 -0.011372682 0.0053305686
0.0022815482 -0.0114615355 -0.0051001827 0.0034493853 -0.023432313 0.022641243 0.057051767 -0.041377492
-0.002792033 0.012389191 0.01848723 -0.011206926 0.06581939 -0.06296633 0.0011348851 -0.017911773
0.011352232 -0.014038743 -0.0039075525 0.0014294467 0.015157288 -0.0070945234 -0.09525158 0.09994375
0.0021773959 -0.0019567786 0.0036352675 -0.019448318 -0.04722026 0.03784728 -0.033958804 0.030774157
