zy_f04.pt (torch, 10706 bytes, 2 tensors)

networks.0.w f4 [20, 100]
000000 ec 07 10 3f ff ca 02 3f 40 09 10 bd 9f 7a 10 3f
       0.5626209 0.51091 -0.03516507 0.56437105
000010 70 0b ef bc db d6 5b 3e b8 88 2c be b0 bf d8 3e
       -0.029180259 0.2146868 -0.16849029 0.42333746
000020 48 47 18 3f 87 ce de be 1e bf 2a 3f 8e 82 28 3e
       0.59483767 -0.43516943 0.6669787 0.16456053
000030 be d4 e5 3e 0b 2b 5a 3e 84 da f3 3e 32 b3 2a bd
       0.44888872 0.21305482 0.47627652 -0.0416748
000040 23 9d 24 3f d2 3d 1a 3e d8 af 8d be fe c3 98 3e
       0.6430227 0.15062645 -0.2767322 0.2983703
000050 64 d0 a2 bd 25 9c 2e bc 71 68 15 be fa 64 eb 3e
       -0.079499036 -0.010657345 -0.14590622 0.45975477
000060 bb 13 d2 be 03 de df bd 85 b8 54 3d 8d 00 86 be
       -0.41030678 -0.10931017 0.051933784 -0.26172295
000070 7a 7c 15 3e 0e 5c f2 be 4a 20 58 3f 62 32 e6 be
       0.14598265 -0.47335857 0.8442427 -0.44960314
000080 45 96 0d 3f cd 45 ee 3d 24 c2 d8 bd 9c 80 d9 3e
       0.5530742 0.11634407 -0.105839044 0.42480934
000090 db 6c 44 3e ee 7f 0e 3f ed c2 1c 3e 6d 66 ed bd
       0.1918215 0.55663955 0.15308733 -0.11591802
0000a0 35 e9 6b 3e 51 55 95 bd 98 52 df 3e 23 8a 14 3f
       0.2303818 -0.072916634 0.43617702 0.5802328
0000b0 2f 34 e4 3e cd bd 30 be e1 1c c9 3e e2 55 e0 3d
       0.44571063 -0.17259903 0.39279845 0.10953881
0000c0 69 58 c8 3e dd 4c 6a be 4d 1f 07 bf c6 74 d9 bd
       0.39129952 -0.22880884 -0.52782136 -0.10617976
0000d0 98 ab b6 be 86 da 44 3f 2b 5f 03 3f 69 59 a0 3e
       -0.3567779 0.7689594 0.5131709 0.31318215
0000e0 b9 63 b8 3e 6e 0e 47 3d fe 1d 41 3f 96 2f 70 be
       0.36013582 0.048597746 0.7543639 -0.23455653
0000f0 05 e8 00 3e b1 dc b6 be c6 b9 90 3e 9e 31 d5 bd
       0.12588508 -0.3571525 0.28266734 -0.10409854
000100 3e 14 8f 3e 19 b5 fe bd 1a 53 16 3f 28 d3 9b be
       0.2794513 -0.124368854 0.5872055 -0.30434537
000110 65 c3 ad be 4c a5 77 be c1 3a 51 3f bb f0 07 3f
       -0.33938137 -0.2418415 0.81730276 0.531017
000120 ce 1e 19 3f f6 a5 cd be 8f 09 08 bf 8a c8 e5 be
       0.5981263 -0.4016568 -0.53139585 -0.44879562
000130 93 8f 95 be 36 8c a8 3e 0d 73 fe 3e 6b a2 12 3f
       -0.292111 0.32919472 0.49697152 0.5727908
000140 27 1a 37 be 1a 1d 80 be da 95 b5 3e 81 e9 ac bd
       -0.1788107 -0.25022203 0.3546589 -0.08442975
000150 18 6d bd 3e d8 90 84 3d f0 d4 d8 3e ee 5d cc be
       0.36997294 0.06472939 0.42349958 -0.39915413
000160 dc d3 6c be b4 8f 34 3e b9 52 25 3e b8 ad 8e 3d
       -0.23127693 0.17632943 0.16144837 0.06966728
000170 8b da bb 3e 85 e9 ee 3e 41 c0 c6 be f6 4c 19 be
       0.36690173 0.46662536 -0.38818553 -0.14970765
000180 31 8a 27 3f 50 e6 f8 bd a5 d4 13 be f3 09 01 bf
       0.6544524 -0.121533036 -0.14436586 -0.50405806
000190 cc 18 5a be 84 27 4f 3e ba 78 62 3c 33 8f c7 be
       -0.21298522 0.20229918 0.013822729 -0.3897644
0001a0 a3 fb d7 3d cd a2 95 be 5d 12 cd be 7a 14 65 be
       0.10546043 -0.2922577 -0.40053073 -0.22371092
0001b0 5c c9 dc be 3b 92 bf be 96 1f 42 3f d9 53 4a 3e
       -0.43122375 -0.37416252 0.75829446 0.19758548
0001c0 82 00 53 3e 87 2b e4 be c4 fb 87 be e1 c0 1d be
       0.20605662 -0.4456446 -0.2655927 -0.15405609
0001d0 04 63 9e 3e 63 97 df be 07 ab 65 be 5d 2c 5e be
       0.30934918 -0.43670186 -0.22428523 -0.21696611
0001e0 64 64 f5 3d 49 ad 2d be 9d d0 7b 3d 48 4a ae be
       0.119820386 -0.16960634 0.061478246 -0.34041047
0001f0 e5 e1 b3 be ee 82 5b be 45 7e ac 3b 9e 9a bd be
       -0.3513328 -0.21436664 0.005264076 -0.37032026
000200 86 55 17 3f d2 cb 27 3b 54 a4 51 3f 99 a1 85 3e
       0.59114873 0.0025603664 0.8189137 0.26099852
000210 31 fa db be 1e 04 da 3e 1f 38 ad bd 24 41 2e be
       -0.42964318 0.42581266 -0.0845797 -0.17017037
000220 ba 96 df be cf bf f5 be 49 ee 86 3e e4 fc 69 bd
       -0.43669683 -0.479979 0.26353672 -0.05712594
000230 ac a8 9e 3e 71 13 d2 be ab c4 20 3f 44 05 b5 be
       0.3098806 -0.41030458 0.6280009 -0.3535558
000240 75 74 24 3c 86 f8 60 3e 09 1c b8 3e 02 2f ff 3e
       0.010037531 0.21969804 0.3595889 0.49840552
000250 4a 71 26 3f ab 24 aa be 2d bc 54 3e f6 93 42 be
       0.65016615 -0.332311 0.20774908 -0.19001755
000260 1a 78 1d 3d a0 e5 5c be d5 32 4f 3f 0e af b2 be
       0.038444616 -0.2157197 0.8093694 -0.3489918
000270 5f a2 02 3f db 72 86 3e 9a 31 05 3f db 18 24 be
       0.5102901 0.26259503 0.5202881 -0.16025107
000280 26 29 21 3f 56 88 32 3e 1d 7b 27 3e 67 3c d4 be
       0.6295341 0.1743482 0.16355558 -0.41452333
000290 2f ec b5 3e d9 07 80 bd bd 2b 2f be b6 0e 07 3f
       0.35531756 -0.06251497 -0.17106529 0.5275682
0002a0 c2 b6 2a 3e 21 cd 75 be ac fd bf bc 45 d7 92 3e
       0.16671279 -0.24004032 -0.02343639 0.28679863
0002b0 44 5f b7 3e 47 94 78 bd 2e b8 7f be 16 4e 41 be
       0.3581487 -0.060688283 -0.24972603 -0.18877444
0002c0 19 c3 b5 be 93 62 9d 3e 11 62 3c 3f 97 e5 f3 be
       -0.3550041 0.3073927 0.7358714 -0.476361
0002d0 51 7c 65 3e a8 d6 f3 3e 62 2b 2b 3e 3e d3 58 bd
       0.22410704 0.47624707 0.16715768 -0.05293583
0002e0 54 36 bb 3e b5 56 09 3f 17 44 a5 3e 9c 1f 42 bd
       0.36564887 0.5364793 0.3227851 -0.047393426
0002f0 72 2d 92 bd 9a 70 a3 3d 4d 31 33 bd 95 f9 8c 3c
       -0.07137574 0.079804614 -0.04374819 0.017208854
000300 b8 a0 d0 3e bb 25 17 3f 95 c2 49 bc 24 55 e8 3c
       0.4074762 0.5904195 -0.012314458 0.02836091
000310 7f 6f e5 3d 50 19 65 3c f6 77 4d 3e 6f 1a 7e 3e
       0.11202907 0.013983086 0.20065293 0.24814771
000320 7d 44 d1 be 4c 01 2c be 2a ba 19 3f ff a0 81 3e
       -0.40872565 -0.1679737 0.6004969 0.25318143
000330 ac 3e 73 3d 6a 56 77 be 9c b1 84 be cd 0f d8 be
       0.05938594 -0.24154058 -0.25916755 -0.42199555
000340 8b 72 0f be 64 73 52 3e df 95 07 3f a1 be a0 3e
       -0.14008538 0.2055183 0.5296306 0.31395438
000350 a4 c7 fa be 15 33 76 be a8 c7 2f 3d a2 f3 1d 3f
       -0.4898044 -0.24042924 0.042915016 0.6169988
000360 b1 7f 8b 3e 26 6b b3 bd cd df 88 3e 8c bd bb bd
       0.27245858 -0.08760671 0.26733246 -0.091670126
000370 6a 64 9d be b2 8d fa 3e 9b d1 1e be a9 dd 21 bd
       -0.30740672 0.4893623 -0.15509646 -0.039518032
000380 a0 bd 0e bf d6 bc 18 3f 4a 46 2c 3f 3a d5 a9 3e
       -0.55758095 0.5966314 0.6729475 0.3317049
000390 91 37 a0 be 35 b5 ec be 13 76 04 be c1 f3 09 3f
       -0.31292394 -0.46232 -0.12935667 0.53887564
0003a0 f5 11 c9 3e 5c c1 05 3f 5e 34 cb 3e a3 1e 62 3e
       0.39271513 0.5224817 0.3968839 0.22082
0003b0 c3 fc c3 3d 3e 1e a5 be dd 10 d9 be 7b c2 ec be
       0.09569695 -0.32249635 -0.42395678 -0.46242127
0003c0 f3 b5 a8 3e d2 73 42 be 31 f4 2d 3d 4b 1e 8a be
       0.32951316 -0.18989494 0.042469207 -0.26976237
0003d0 0a 1b 0a bc 36 fd ab be 94 c6 ab be a8 9b 5d 3e
       -0.008429298 -0.33591622 -0.3354994 0.2164141
0003e0 de c1 b5 bd bf 41 01 3f c1 b3 d2 bd fa 01 ab be
       -0.08874868 0.50490946 -0.102881916 -0.33399945
0003f0 c4 9e 63 bc d3 d8 4b bd 62 9b d0 3d 2a 59 ef be
       -0.013892833 -0.049767327 0.10185887 -0.46747714

networks.1.w f4 [100, 3]
000000 0a 0d 97 bc df e9 90 bc 4b d6 d2 3c 3a 5d c0 bc
       -0.018438835 -0.017689643 0.025736948 -0.023481954
000010 1f 2a 9e ba 7d e0 1e 3c 8c c0 90 bb 06 da 76 bc
       -0.0012066996 0.009697077 -0.0044174846 -0.015066629
000020 55 44 8a 3c 2c b8 64 bc ce 7b 17 3c af 0b a3 3a
       0.016878286 -0.013959926 0.009245826 0.0012439395
000030 e3 46 29 bd db 98 31 bc bc 3f db 3c 7f ff b3 bc
       -0.04132737 -0.010839666 0.02676379 -0.021972416
000040 ba 69 65 bc 8b bd ba 3c e0 38 84 3d 73 b9 c7 bc
       -0.014002258 0.02279546 0.064561605 -0.024380421
000050 25 f3 53 bd 44 0a c6 bc dc 0d f5 ba 5c 6c a3 3c
       -0.051745553 -0.024174817 -0.0018696147 0.01994913
000060 f2 4d 86 bc 73 fa 9e 3b 51 33 95 3b ab 97 a1 bc
       -0.01639459 0.004851633 0.0045532365 -0.019725641
000070 d2 5c 9c 39 53 63 8b 3c 43 1f 95 3c d5 47 8e 3c
       0.00029823795 0.017015135 0.018203383 0.017368237
000080 63 56 b9 bc 78 9a 6e bc 7a b0 61 3b 72 37 4c bb
       -0.0226242 -0.014563195 0.0034437464 -0.0031160978
000090 b0 c9 47 bc a2 e4 27 3b c1 61 68 3b 98 2e 8c 38
       -0.012194082 0.0025618454 0.0035458656 6.684399e-05
0000a0 e2 30 57 3c de 43 3c bc d3 ae 0d 3c ce 44 a1 3b
       0.013134213 -0.01149079 0.008647638 0.0049215322
0000b0 92 f9 87 bc bd 55 47 bc 18 7d 04 3c 01 2e 76 3c
       -0.016598497 -0.012166438 0.008086465 0.015025617
0000c0 0c 76 93 3c 4d 56 4d 3c 1d 3d a7 bc 02 43 50 bc
       0.018000625 0.012532783 -0.020414883 -0.012711288
0000d0 56 c5 06 b9 86 63 0c 3c 55 90 78 bc f4 f2 a3 3b
       -0.00012852749 0.00856865 -0.01517113 0.0050033275
0000e0 6c d0 00 3c f8 96 6d ba 18 17 e0 3b cf ec 7e bc
       0.007862192 -0.00090633286 0.0068386905 -0.015559389
0000f0 42 a6 ec 3d 83 bb 36 be bd 4e 1e 3d 37 ce c4 bb
       0.11555149 -0.17844968 0.03864931 -0.006006028
000100 52 cb 93 3c bc cf 9e bb 43 22 07 3c 9b e9 f6 bc
       0.018041287 -0.004846541 0.008247915 -0.030140689
000110 96 c0 bc 3c 59 b1 b9 bb 94 c0 53 bc b4 59 97 3c
       0.02304105 -0.0056668934 -0.012924332 0.018475391
000120 a8 9c 36 bc 5e 03 2a 3c e2 8b 3a 3a ef 33 04 3e
       -0.011145748 0.010376779 0.0007116181 0.12910436
000130 36 29 c3 bd 3c 66 92 bd 0b ca 02 3d d6 01 01 3c
       -0.09529345 -0.07148406 0.031930964 0.007873973
000140 82 4c f2 bc 95 cb 07 3d a6 3c 8a bc e5 ec 75 bc
       -0.029577497 0.033153135 -0.016874623 -0.015010093
000150 89 6d a6 bc a3 4e 93 bb c4 a2 b4 3c 73 48 c2 bc
       -0.020315902 -0.004495458 0.022050269 -0.023716187
000160 4f 9a 4b bc 7c 43 c4 3c ca 9a 31 3d 44 46 2b bc
       -0.012426927 0.02395796 0.04336051 -0.010453764
000170 9e fa 9f bc 55 36 63 bc 0b 09 a0 ba 38 d9 13 3c
       -0.019528683 -0.013867934 -0.0012209726 0.009023957
000180 94 a1 02 3d 87 29 23 bc 2c d9 97 bc 05 8d 52 bc
       0.031892374 -0.009958631 -0.018536173 -0.0128510045
000190 e8 36 83 3c 92 08 30 bb 42 c9 92 bc c9 4b 44 bc
       0.016017392 -0.0026860577 -0.017918233 -0.011980959
0001a0 da 88 99 3c 79 13 30 bc 21 44 f5 ba 47 42 bd 3c
       0.018742014 -0.01074683 -0.0018712321 0.023102893
0001b0 03 02 8d 3c 86 7e 69 bc c4 94 0d 3b ec 54 89 bc
       0.017212873 -0.014251357 0.0021603564 -0.016764127
0001c0 5b 07 5b bc 36 c3 da 3c 28 a8 c5 bb db 9d 9b ba
       -0.013368453 0.026704412 -0.0060320087 -0.0011872606
0001d0 cb 81 b2 3c e1 0c aa bc c5 ed 4b 3b 3b d1 c9 3c
       0.021790406 -0.020758094 0.0031117063 0.024635902
0001e0 2a c2 fa bc 98 a8 22 bc d8 bb 2f 3d c3 94 b4 3a
       -0.030610163 -0.009927891 0.04290375 0.0013777245
0001f0 c7 e7 7f bb 4c fc 50 3c 5a 4b 1d 3c 71 c6 14 3c
       -0.0039048062 0.012755465 0.009600485 0.009080515
000200 d2 98 db bb 2a 4e 1b bc 96 de 9c 3b ed d7 53 3c
       -0.006701567 -0.009479085 0.0047872765 0.012929899
000210 dc 89 91 bc d6 e4 84 bb 67 24 68 3c 9a 69 87 3d
       -0.017765932 -0.0040555997 0.014168835 0.06611939
000220 f8 8a 81 bb ed d3 58 bd 0c b2 7f bb 10 8c df 3a
       -0.003953334 -0.052936483 -0.0039016036 0.0017055292
000230 d2 2a e7 3b 5a 26 8c bc 6c 92 42 ba 2f 88 ad 3c
       0.007054665 -0.017108131 -0.0007422331 0.021183101
000240 82 f1 5e 39 93 90 8c 3c ae dd cf b9 97 b7 bd bc
       0.00021261538 0.017158782 -0.0003964728 -0.023158832
000250 20 bb c3 bc c5 70 19 3d 69 b5 71 bc 4c 5d 68 bb
       -0.02389294 0.03746106 -0.014752724 -0.0035456
000260 97 fe 9b 3b 93 9f 7e 3d 63 d6 1f bb b5 39 1c bd
       0.004760574 0.0621639 -0.002438926 -0.03814097
000270 49 34 e6 bb f1 ce 74 3c b9 31 89 ba 0c c3 a8 3c
       -0.007025276 0.014941917 -0.0010467089 0.020600818
000280 7a 69 d5 ba 90 7b c2 bc f7 fc 1a 3d a3 6e 14 3b
       -0.0016282045 -0.02374056 0.037838902 0.0022648952
000290 91 16 52 bc 7e 5e bb bc ed 9c 33 bc 88 80 8f 3c
       -0.012822763 -0.022872206 -0.010962707 0.017517343
0002a0 79 53 66 3c a1 0c 89 3c a4 c7 33 bc 64 d3 ad bc
       0.014057987 0.016729655 -0.010972891 -0.021218963
0002b0 f4 d5 07 bc e1 24 14 3c 93 5b e9 3c 21 50 14 bb
       -0.0082907565 0.009041996 0.028486049 -0.0022630768
0002c0 02 aa 5d bc d2 12 26 3c 80 3d b2 3b 4a 22 e7 bb
       -0.013529303 0.010136323 0.0054394603 -0.007053648
0002d0 b9 4c 7e bc ce 71 9d bc a6 ae b6 3c 19 6b b7 bc
       -0.015521222 -0.019219305 0.022300076 -0.022389935
0002e0 f2 bc 01 b9 62 31 7e 3c ad 68 98 bb 82 81 9d 3b
       -0.00012372786 0.0155147035 -0.00465115 0.0048066983
0002f0 69 7c f4 bb 20 83 fd bc 06 65 cd bc b7 4f ec 3c
       -0.00746112 -0.030946314 -0.025072586 0.028846605
000300 68 4b 03 3d e0 9d 01 bc 63 4e b5 bc af 27 7d bc
       0.032054335 -0.0079111755 -0.022132104 -0.015451356
000310 bc 85 e9 3b 47 a8 c5 3a 53 4c ea bc c2 c4 08 bc
       0.007126538 0.0015080058 -0.028600847 -0.008347692
000320 5e eb 38 3d e2 24 b0 bc ec 16 18 bb 23 b8 b7 3b
       0.04514634 -0.021501962 -0.0023207022 0.0056066676
000330 cf 4a 75 bc e3 1b d1 3b e4 41 c9 3b 17 b8 24 bb
       -0.014971449 0.006381498 0.006141888 -0.002513414
000340 25 fb 29 3c 99 6e b1 3a 03 ac 13 3d ce 7d 39 bb
       0.010374819 0.0013536989 0.036052715 -0.0028303745
000350 e8 69 be bc 49 94 43 3d 9e 5b 7d bc 9b e5 94 bc
       -0.02324386 0.047748838 -0.015463738 -0.01817589
000360 7a 05 b0 bc 7f 02 81 bc 5e f8 8a 3c ec db 31 bc
       -0.021486986 -0.01574826 0.016964134 -0.010855656
000370 1e 96 3d bb 25 e1 be 3c 38 6e a5 bc a6 51 54 bc
       -0.0028928588 0.023300717 -0.020194158 -0.01295892
000380 55 29 af 3c ed 1f 1e bc 28 86 bd 3b f5 d9 33 3c
       0.021382013 -0.009651166 0.005783815 0.010977258
000390 47 1f 91 3c c5 7a e1 bc 84 1b 6f 3b 86 04 9a bb
       0.01771511 -0.027524361 0.0036484906 -0.0047002463
0003a0 bf 05 85 3c cb 91 c2 bc ee 48 f9 3c 9e f6 a7 bb
       0.016238092 -0.02375116 0.030430283 -0.0051258346
0003b0 4b 05 46 bc a0 4c 80 bc 17 e3 d4 bb 0e be 1e 3c
       -0.012086223 -0.015661538 -0.006496798 0.009688867
0003c0 5d 78 6c bb 86 3d 5a 3c 27 e5 ef bb cf 42 c4 3c
       -0.0036082484 0.013320332 -0.0073210183 0.023957638
0003d0 60 69 8b bd 26 26 47 3a 83 b1 78 bc fc 27 c3 bb
       -0.06807208 0.0007596932 -0.015179041 -0.0059556942
0003e0 4b 88 6e 3c d9 dd bb b9 b5 c5 95 3b 50 a8 8b bc
       0.014558862 -0.0003583271 0.0045706877 -0.017048031
0003f0 ff 71 b0 bc 71 45 10 bc b6 71 76 3c 87 16 68 3c
       -0.021538733 -0.008805619 0.015041759 0.014165527
