zy_f08.pt (torch, 7634 bytes, 2 tensors)

w f4 [10, 100]
000000 56 12 0a 3f 43 98 14 3f d3 6a 44 bd 0a 63 1d 3f
       0.5393423 0.5804483 -0.047953438 0.61479247
000010 1c ba 4f 3d b7 f7 65 3e a0 f7 c6 bd 3c 5b eb 3e
       0.050714597 0.22457777 -0.097151995 0.45968044
000020 c3 11 22 3f 31 53 9d be c3 aa 30 3f ba 65 63 3e
       0.6330835 -0.30727533 0.6901056 0.22206774
000030 1f a3 09 3f 7b c0 44 3e d2 84 c3 3e 79 04 4e 3d
       0.5376453 0.1921405 0.3818727 0.050297234
000040 d4 51 04 3f d8 e0 44 3e 1c c7 04 be 84 a6 89 3e
       0.5168736 0.19226396 -0.12966579 0.26884854
000050 08 e8 47 be 98 51 2f 3c 8e 22 24 be a4 16 dc 3e
       -0.19522107 0.010700606 -0.16028807 0.42986023
000060 f4 a6 c6 be 2d e6 5f be 1d 8c f0 bc 60 31 9f be
       -0.3879925 -0.21865149 -0.029363686 -0.31092358
000070 da 78 06 3e a1 61 19 bf 41 55 32 3f b4 2a ec be
       0.13132039 -0.59914595 0.6966134 -0.4612633
000080 a3 3d 19 3f 1d 6c 71 3e 67 78 17 bc 7a 3f e7 3e
       0.59859675 0.23576398 -0.009245015 0.45165616
000090 6e 08 7a 3e aa 83 1b 3f 18 d2 6a 3e 7c 45 e9 bd
       0.24417278 0.6074778 0.22931707 -0.11390206
0000a0 a7 76 73 3e e5 53 3d bd 56 68 9b 3e dd d9 20 3f
       0.23775731 -0.046222586 0.3035304 0.62832433
0000b0 18 88 e4 3e 61 7f 1a be 1e 32 e9 3e 28 f3 4f 3e
       0.4463508 -0.15087654 0.4554605 0.203076
0000c0 e3 d6 e1 3e 36 e1 98 be 71 dc ef be 74 9f 23 be
       0.44109258 -0.29859322 -0.4684787 -0.15978795
0000d0 96 64 dc be a4 b1 09 3f 96 20 70 3e 0e 45 9f 3e
       -0.4304549 0.53786683 0.2344993 0.31107372
0000e0 f1 c5 91 3e cc 8c a6 3d 8e 2b 14 3f 6e 38 b7 be
       0.2847133 0.081323236 0.5787896 -0.3578524
0000f0 c3 fa 22 3e 9b 65 93 be 01 be 8c 3e 4a a8 80 be
       0.1591597 -0.28788456 0.2748871 -0.25128394
000100 ca 38 89 3e 86 4d 4c bd 97 3e 18 3f db c2 30 be
       0.2680114 -0.04987862 0.59470505 -0.17261831
000110 eb 68 9f be 24 15 6b be fb 31 23 3f 88 c3 94 3e
       -0.31134734 -0.22957283 0.6374814 0.29055429
000120 06 50 22 3f 0f d9 90 be 48 af 14 bf ac 54 d4 be
       0.63403356 -0.28290603 -0.5807996 -0.4147085
000130 80 b2 93 be a9 08 a1 3e 3e 4f a9 3e 1c 8c 25 3f
       -0.28847122 0.3145192 0.3306827 0.64666915
000140 82 45 70 be b8 3a ac be 2a 76 ca 3e 2e 26 2c be
       -0.23464015 -0.3363855 0.39543277 -0.1681144
000150 b0 9a ea 3e 67 c4 96 bd f5 6c e1 3e e5 ec 80 be
       0.45821142 -0.073616795 0.4402844 -0.25180736
000160 0d 5b 72 be f5 46 83 3e 26 61 8e 3e 49 1e e9 bd
       -0.23667546 0.25640073 0.27808493 -0.113827296
000170 6c ed e6 3e 45 a9 f4 3e 42 01 c5 be 77 6c 57 be
       0.45103014 0.47785392 -0.38477522 -0.2103747
000180 46 ed 25 3f 4e 15 b5 bd e6 e2 b0 bb bb 16 fa be
       0.64815176 -0.08841954 -0.005398142 -0.48845467
000190 a2 6e 4d be 18 e0 7a 3e 6d f9 4a 3b 3d 23 8a be
       -0.20061734 0.24499547 0.0030971423 -0.2698001
0001a0 24 83 45 3e 76 40 b4 be fd 14 69 be 68 45 13 be
       0.19288307 -0.3520543 -0.22761913 -0.14381945
0001b0 50 95 ee be 68 90 63 be 0b 49 4c 3f df 0e 44 3e
       -0.4659829 -0.22223055 0.79798955 0.19146298
0001c0 7b d0 8d 3e 2a 73 db be 4e b3 98 be 40 bd 9b bd
       0.2769812 -0.428613 -0.298243 -0.07604456
0001d0 ae ea 47 3e 0a fe f0 be 05 15 e3 bd 13 44 3a be
       0.19523117 -0.47068816 -0.110879935 -0.18190031
0001e0 d2 bb b9 3d 45 09 24 be 79 dd 2a 3d 6d 35 ac be
       0.09069027 -0.16019161 0.04171512 -0.3363451
0001f0 0e ca 94 be 8c 85 6e be 88 fb 55 bd 94 a8 cf be
       -0.29060405 -0.23293132 -0.052241832 -0.40558302
000200 ee 0d 12 3f f6 61 c9 bd f4 fa 28 3f 4f 4a 85 3e
       0.57052505 -0.09833138 0.66007924 0.26033255
000210 8d 23 d6 be 7b c4 0a 3f 95 5d cd bc ec 34 c9 bd
       -0.41823998 0.54206055 -0.025069037 -0.09824547
000220 7f 5e b6 be 2c b5 05 bf 6d 9c 9d 3e b9 ae 41 bd
       -0.3561897 -0.5222957 0.30783406 -0.04728577
000230 7c e7 af 3e 9f ee c3 be 9c 46 fa 3e 5c a0 ae be
       0.34356296 -0.3826799 0.48881996 -0.3410672
000240 71 a6 9b 3c d6 4a 7a 3e 69 2a e3 3e cb e7 0e 3f
       0.019000264 0.2444261 0.44368294 0.5582244
000250 04 78 2d 3f 04 71 dd be 66 e6 73 3e df 41 34 be
       0.67761254 -0.43250287 0.23818359 -0.17603253
000260 82 73 c1 bc ff c4 aa be c7 3f 1d 3f c5 49 ce be
       -0.023614649 -0.3335342 0.6142544 -0.40290657
000270 72 9a c8 3e 7d fc 8d 3e b0 b8 97 3e 58 49 57 be
       0.39180332 0.27731696 0.29633093 -0.21024072
000280 0a 06 19 3f fc 09 58 3e 66 14 3e 3e 98 bd 18 bf
       0.5977484 0.21097559 0.18562469 -0.596643
000290 59 93 b7 3e 54 00 fa 3c 73 04 25 be 8b 81 21 3f
       0.35854605 0.030517735 -0.16114978 0.6308829
0002a0 f9 25 71 3e 84 93 7a be 97 7c 54 be 47 c9 8f 3d
       0.23549642 -0.24470335 -0.20750652 0.070208125
0002b0 64 9f df 3e 49 bb fe 3c 6b 02 97 be dd 12 28 be
       0.43676293 0.031095164 -0.29494032 -0.16413446
0002c0 5c 56 a5 be 95 1b 98 3e 5e 0e 10 3f 9d 0b 05 bf
       -0.3229245 0.29708543 0.5627192 -0.51970845
0002d0 da b6 8c 3e 22 b7 c6 3e c8 f7 4a 3e e0 b1 05 be
       0.27483255 0.38811594 0.19821084 -0.13056135
0002e0 a2 16 d8 3e e5 19 bb 3e 7e 72 9f 3e fd d0 83 3d
       0.42204767 0.36543193 0.31142038 0.06436346
0002f0 d9 0f bc bd 64 02 3b 3e fb 95 a5 3d 0b 98 c3 bd
       -0.0918271 0.1826263 0.08085247 -0.09550484
000300 19 68 e5 3e 30 bd 22 3f 46 c2 95 bc 0a 26 03 bd
       0.44805983 0.6356993 -0.018281113 -0.0320187
000310 76 e4 03 3e fc f3 03 3e 06 cf 98 3e fb 29 5c 3e
       0.1288012 0.12886041 0.29845446 0.2150039
000320 f5 f1 be be a3 65 0e be c0 b3 30 3f 3a fb 98 3e
       -0.37293974 -0.13905959 0.69024277 0.2987917
000330 f1 e3 07 3e 7f b1 89 be e5 11 0f be 08 0c b8 be
       0.13270546 -0.2689323 -0.1397167 -0.3594668
000340 44 26 fd bd c2 d0 97 3e 9d 7d 07 3f df e0 a9 3e
       -0.12360814 0.29651457 0.52926046 0.33179376
000350 37 c8 e3 be c0 bb 76 be be 34 05 3d 13 0c 26 3f
       -0.4448869 -0.24095058 0.032521002 0.64862174
000360 41 66 25 3e e8 96 a7 bd 4a a8 ad 3e 9e ae bb bd
       0.16152288 -0.0818308 0.33917457 -0.09164165
000370 74 d0 8b be 76 ab e0 3e 42 34 33 be ce 34 59 bd
       -0.27307475 0.43880814 -0.17500404 -0.053028874
000380 4a 58 14 bf 48 d6 04 3f f8 2d 01 3f dd 0c a3 3e
       -0.5794722 0.5188947 0.5046077 0.3184575
000390 f4 10 9d be ee 7d 1a bf 12 bf cc be 43 f4 10 3f
       -0.30676997 -0.60348403 -0.39989525 0.56622714
0003a0 53 bb ea 3e 8f 21 2a 3f 47 30 cb 3e 5f 8b 66 3e
       0.45846042 0.66457456 0.3968527 0.22514103
0003b0 6b 01 17 3e 11 ba c5 be 5e 19 82 be c0 6f 02 bf
       0.14746635 -0.3861852 -0.2540998 -0.50951767
0003c0 da 76 a0 3e 06 12 49 be 4a d5 1d bc 0b f4 8d be
       0.31340677 -0.19635782 -0.009633372 -0.27725253
0003d0 93 68 cd bc 95 50 a0 be e5 c7 a1 be 94 80 97 3e
       -0.025074279 -0.3131148 -0.3159782 0.29590285
0003e0 35 3b 8b bd 84 21 e6 3e 23 de 8a bd f1 62 c2 be
       -0.06798402 0.44947445 -0.067806505 -0.3796611
0003f0 22 c2 8c bd 03 c8 27 be 2f 82 fa bd 6f 47 00 bf
       -0.068729654 -0.16384892 -0.12231862 -0.50109

w f4 [100, 2]
000000 02 61 c0 3c 3f 01 c0 bc 40 0d c5 3a 1d ee 8c bb
       0.023483757 -0.023438094 0.0015033856 -0.0043008463
000010 68 44 0a bd 59 ec c3 3c 86 92 d6 3a 33 94 0f bc
       -0.033756644 0.02391641 0.0016370572 -0.008763361
000020 a3 58 26 3d c2 7f 42 bd a7 52 a0 bc 34 a4 66 3c
       0.040611874 -0.04748512 -0.019570662 0.014077235
000030 9f 25 bb bd b3 0c af 3d dd 6d 32 3d 7b 1c 16 bd
       -0.09138035 0.08547344 0.043561805 -0.036648255
000040 df f1 b4 bc 91 8c 95 3c 01 0f a9 3c d9 04 1a bc
       -0.02208799 0.018255504 0.020637037 -0.00940057
000050 ae 20 d8 bc 0a 21 59 3c 88 75 d9 3a c8 d8 87 bc
       -0.02638277 0.013252506 0.0016590813 -0.016582862
000060 44 fe 68 b9 22 dd 8c 3b 43 11 a6 3b bc 3f db bb
       -0.00022219965 0.004298822 0.0050679757 -0.0066909473
000070 ae d6 44 bc 63 45 f5 3b 40 48 15 3c 56 0a 0b bc
       -0.012014074 0.007485078 0.009111464 -0.008486351
000080 5f 0f 3e bb ed b8 07 bc 60 5e 36 bc 6d 3c a9 3c
       -0.002900086 -0.008283836 -0.011130899 0.020658696
000090 32 35 74 3d 41 2e 76 bd d5 81 74 3c 69 22 82 bc
       0.059621044 -0.060102705 0.0149235325 -0.015885549
0000a0 47 3a 89 bd 45 cc 88 3d f9 0f 95 3b 49 8b 15 bb
       -0.06700569 0.06679586 0.004549023 -0.0022818616
0000b0 bb 70 3d 3c 4b 22 a6 bc 85 a0 62 3c cf 09 0b bc
       0.011562522 -0.020280024 0.013832216 -0.008486225
0000c0 71 ca c9 bc 28 af b4 3c 87 26 43 bd 91 e3 64 3d
       -0.024632664 0.022056177 -0.047644164 0.055881087
0000d0 10 33 9b 3c 05 af f3 bc f4 ad d7 bc db 29 14 3d
       0.018945247 -0.029746542 -0.026328065 0.03617273
0000e0 b4 a5 6f 3b 1e 56 16 bc 53 d5 d0 3b b5 ad 8e bc
       0.0036567273 -0.009175805 0.0063730865 -0.017416814
0000f0 04 da e0 bc aa b2 cf 3c 9d 11 54 bd 16 19 8f 3d
       -0.027447708 0.025353748 -0.05177461 0.06987207
000100 e8 84 88 bd 86 cf 84 3d 85 c5 d0 bc 91 ef ce 3c
       -0.06665975 0.064848945 -0.02548481 0.025260719
000110 39 6a 09 3d 23 53 98 bc 2c 63 8b 3c 52 3b 69 bb
       0.033548567 -0.01859433 0.017015062 -0.0035588336
000120 f0 c9 07 3c 00 46 65 bb 00 98 fe bb 5b 05 0c 3c
       0.008287892 -0.003498435 -0.0077695847 0.008546199
000130 82 98 27 3d c1 72 35 bd bf 8d c5 bc 09 aa 51 3c
       0.040916927 -0.04429889 -0.024115441 0.012796887
000140 6b d9 09 3d b1 34 2d bd 69 f1 94 bd 69 e3 6a 3d
       0.03365461 -0.04228658 -0.07272608 0.05734578
000150 be ea ae 3c 42 d6 68 bc fe aa 98 b9 df 98 79 3c
       0.021352168 -0.014211239 -0.00029119098 0.015234201
000160 11 87 23 bd bd 92 cb 3c f4 b3 b8 3c 10 75 57 bc
       -0.03992373 0.024850244 0.022546746 -0.0131504685
000170 1c 9f 80 bc b3 55 2f 3c 49 23 14 3c 86 92 9e 37
       -0.01570087 0.010701585 0.009041616 1.8903298e-05
000180 27 3d f2 bb ab bd 1c 3c 1d 5e 40 bc 85 69 b9 3c
       -0.007392544 0.009566705 -0.011741188 0.022633323
000190 d2 1e a7 3c 50 d9 ae bc c4 c2 f1 bc 64 6e 05 3d
       0.020400438 -0.021343857 -0.029511817 0.03257598
0001a0 85 d4 0a bd 0c 28 12 3d b1 40 9f 3c 5a 47 72 bc
       -0.03389408 0.035682723 0.019440027 -0.014787519
0001b0 aa aa d0 39 99 97 0e 3b a6 e1 79 bc b2 51 d9 3a
       0.00039800006 0.002175784 -0.015251553 0.0016580133
0001c0 86 17 f3 3b 19 7a 60 bb de 66 85 3c 53 38 81 bc
       0.0074185757 -0.0034252463 0.016284402 -0.015773928
0001d0 26 44 31 bc 1f 98 6f 3c 31 32 93 bc a8 24 e1 3c
       -0.0108194705 0.014623671 -0.017968269 0.0274833
0001e0 05 03 b7 ba 4a c0 42 bc 46 e4 4f 3c b8 eb 94 bc
       -0.0013962692 -0.011886666 0.012688702 -0.018178806
0001f0 97 b3 83 3c 1e 12 8f bc c3 7e a7 3c c4 e1 c4 bb
       0.016076846 -0.017464694 0.020446187 -0.0060083587
000200 6c 60 15 3d e8 ca e5 bc bf b2 9c bc 62 ad 9c 3c
       0.03646891 -0.028050855 -0.019128202 0.019125644
000210 55 b6 7a bb 5d e1 ec bb 32 4e e1 3c e1 c5 b1 bc
       -0.003825565 -0.007229014 0.027503107 -0.021700801
000220 11 0d 10 bc 9c 35 8d 3c 94 d2 84 bd e4 45 50 3d
       -0.008792178 0.017237477 -0.06485477 0.050847903
000230 d1 75 09 bc 25 2c 0e 3c 5c 90 e7 ba 41 75 8d bb
       -0.008389906 0.008677517 -0.0017666924 -0.0043169563
000240 86 d5 1d bc 8e ba b3 3b 27 08 d5 3c 23 28 24 bd
       -0.0096334275 0.0054848855 0.026004864 -0.04007734
000250 e0 24 cb bc 17 2e 03 3d ad 9e d1 bc 68 5e cd 3c
       -0.024797857 0.032026377 -0.025588358 0.02506943
000260 ee ba b7 bd 28 b5 c1 3d 6b 7e 16 3c 90 fb 5d bc
       -0.08971201 0.09458381 0.009185414 -0.013548747
000270 36 ac 21 39 8b db 85 3c 08 11 1e bd 95 8d 23 3d
       0.0001541831 0.016340038 -0.03859046 0.039929945
000280 bd 34 b9 bb 64 1a 38 3c 44 9b 4f 3c d5 46 6d 3b
       -0.005652039 0.011236761 0.012671296 0.003620555
000290 46 6a e5 3c 5e 8a dd bc 9f 7a 4a bc 5a f8 ce 3b
       0.028004777 -0.027043518 -0.012358337 0.006316227
0002a0 96 d8 8c 3c 66 0c d8 bc bd ea fa bb cb d2 c4 3b
       0.01719312 -0.0263731 -0.0076573775 0.006006574
0002b0 f7 4d 26 bc f0 57 19 3c d4 45 79 3d 2b 12 39 bd
       -0.010150424 0.009359345 0.06085761 -0.045183342
0002c0 25 d1 38 bc 45 07 ab 3c a2 79 86 3c 77 ab 15 bc
       -0.011280333 0.02087749 0.01641542 -0.009135119
0002d0 77 28 93 3d a6 50 8d bd 8f c3 87 bc 0a 10 56 b9
       0.071854524 -0.06900148 -0.016572742 -0.00020414605
0002e0 32 8b 60 3c 9a 47 86 bc 92 96 3d bc a2 fc 14 3c
       0.013705062 -0.016391564 -0.011571543 0.0090934355
0002f0 6a d5 8f 3b e7 bb 70 3b 09 21 6e bc b8 80 9d 3c
       0.0043894546 0.0036733092 -0.014534243 0.019226417
000300 c2 27 8a 3c 1d 59 88 bc 6a c6 db 3b e7 7b b8 bc
       0.016864661 -0.016644055 0.0067070024 -0.022520019
000310 9e cc 5c 3d 74 98 81 bd e2 88 fd bc 39 72 e3 3c
       0.053906076 -0.06327906 -0.03094906 0.027764427
