zy_f06.pt (torch, 10706 bytes, 2 tensors)

networks.0.w f4 [20, 100]
0	0x3f0a3601	0.53988653
1	0x3f0554ce	0.52082527
2	0xbdae485e	-0.08509897
3	0x3f1eef79	0.62084156
4	0xbd538b5d	-0.05164658
5	0x3e4ceb89	0.20011725
6	0xbe21f4b8	-0.15816009
7	0x3ed5323b	0.41639885
8	0x3f1fd287	0.62430614
9	0xbedac09b	-0.4272507
10	0x3f3809e6	0.71890104
11	0x3e20ae9d	0.1569161
12	0x3ef9d457	0.48794815
13	0x3e819509	0.25309017
14	0x3efc2c7a	0.49252683
15	0xbd16e14b	-0.03683595
16	0x3f2a0272	0.6640998
17	0x3e161d2c	0.14659566
18	0xbe7ff154	-0.24994403
19	0x3eb585b1	0.3545356
20	0xbe0a4c40	-0.1350565
21	0xba8d3fbd	-0.0010776442
22	0xbe21414f	-0.1574757
23	0x3eee35bb	0.46525368
24	0xbede8b2c	-0.43465555
25	0xbe10f5d7	-0.1415628
26	0x3d47726c	0.048693106
27	0xbe8b5d45	-0.27219597
28	0x3e14c1ae	0.14527008
29	0xbef44d22	-0.47715098
30	0x3f4d114e	0.8010453
31	0xbee69af1	-0.45040086
32	0x3f0ce919	0.5504318
33	0x3e18f9b2	0.14939001
34	0xbdfd54a0	-0.123696566
35	0x3ed13930	0.40863943
36	0x3e546741	0.20742513
37	0x3f0f814d	0.5605667
38	0x3e0ef4e4	0.13960606
39	0xbdd67ff2	-0.104736224
40	0x3e563c0e	0.20921347
41	0xbd9ba5a9	-0.075999565
42	0x3ec0762b	0.37590155
43	0x3f1f0dd5	0.6213048
44	0x3ee23924	0.4418422
45	0xbe1b0239	-0.15137567
46	0x3ebddb68	0.37081456
47	0x3e021fab	0.12707393
48	0x3ed96998	0.42463374
49	0xbe8a63da	-0.27029306
50	0xbf087e86	-0.5331806
51	0xbe08f43c	-0.13374418
52	0xbeba3c73	-0.36374244
53	0x3f4374a9	0.76349884
54	0x3ee3cd92	0.44492775
55	0x3e9cc57d	0.30619422
56	0x3ebe938f	0.37221953
57	0x3d029af7	0.031886067
58	0x3f3ae852	0.7301074
59	0xbe77bba9	-0.2419268
60	0x3e1056c9	0.14095606
61	0xbeba4f2a	-0.36388522
62	0x3e923eab	0.28563437
63	0xbdf8745f	-0.12131571
64	0x3e89b077	0.26892444
65	0xbdeb228f	-0.11481201
66	0x3f133335	0.5750001
67	0xbea84fa0	-0.3287325
68	0xbeaafa2f	-0.33394
69	0xbe80790f	-0.2509236
70	0x3f53d18e	0.8274163
71	0x3eec58ea	0.46161586
72	0x3f1b0d6c	0.60567355
73	0xbee1ed51	-0.4412637
74	0xbf039355	-0.51396686
75	0xbedee29d	-0.43532267
76	0xbea68f56	-0.32531232
77	0x3ebcdd95	0.36887804
78	0x3ee70adb	0.4512547
79	0x3f17b3a7	0.592585
80	0xbe671e07	-0.22570048
81	0xbea498f0	-0.32147932
82	0x3ebaeca0	0.36508656
83	0xbdb1db2a	-0.0868438
84	0x3ecacda4	0.39610016
85	0x3d75c48f	0.060001906
86	0x3eda75c9	0.42667988
87	0xbec76912	-0.3894735
88	0xbe4f8cfd	-0.20268627
89	0x3e3655d3	0.17806177
90	0x3e27114a	0.16315189
91	0x3cff5451	0.031168135
92	0x3ec2e46f	0.38064906
93	0x3eed1877	0.46307728
94	0xbecd5906	-0.40106982
95	0xbe5041f7	-0.20337664
96	0x3f2e2966	0.6803192
97	0xbe1d8a04	-0.1538468
98	0xbe1e74ef	-0.15474294
99	0xbf021ede	-0.5082835
100	0xbe829a09	-0.25508144
101	0x3e428a9c	0.18998188
102	0xbc917ecd	-0.017760659
103	0xbeae3872	-0.3402744
104	0x3dbf090a	0.09327896
105	0xbe8ecaa5	-0.2788898
106	0xbed04ad5	-0.40682092
107	0xbe7c2732	-0.24624327
108	0xbedb85f2	-0.4287563
109	0xbeb18d90	-0.34678316
110	0x3f4e92a8	0.8069253
111	0x3e459e6a	0.19298711
112	0x3e7cf143	0.24701409
113	0xbed46159	-0.4148052
114	0xbe802247	-0.25026152
115	0xbe2a36e3	-0.166225
116	0x3ea014a2	0.31265742
117	0xbedcb0db	-0.4310368
118	0xbe6c26c5	-0.23061664
119	0xbe3b0aee	-0.18265888
120	0x3e14812c	0.145024
121	0xbdfca020	-0.12335229
122	0x3d57cfea	0.052688517
123	0xbe9c396a	-0.30512553
124	0xbebe1588	-0.37125802
125	0xbe814992	-0.25251442
126	0xbb8f5c3e	-0.00437501
127	0xbec6c17c	-0.38819492
128	0x3f1ae8a6	0.60511243
129	0x3a7a1835	0.00095403503
130	0x3f41f465	0.7576354
131	0x3e7a904e	0.2446911
132	0xbed90f60	-0.42394543
133	0x3efb4a6c	0.49080217
134	0xbda3f7b7	-0.08006232
135	0xbe261ffa	-0.16223136
136	0xbec15120	-0.37757206
137	0xbefe54fb	-0.4967421
138	0x3e81803a	0.25293142
139	0xbd38c4ab	-0.045109432
140	0x3e8dc464	0.27688897
141	0xbed1e370	-0.40993834
142	0x3f111e2d	0.5668667
143	0xbeaff37e	-0.34365457
144	0xbb9f9a59	-0.0048706946
145	0x3e76ee6a	0.24114385
146	0x3ebda299	0.37038115
147	0x3f084c18	0.5324111
148	0x3f2c21b9	0.67238957
149	0xbebb7ba1	-0.3661776
150	0x3e55d219	0.20880927
151	0xbe2599a3	-0.16171889
152	0x3cf3d0de	0.029762682
153	0xbe437d0a	-0.19090667
154	0x3f48869a	0.78330386
155	0xbebd162a	-0.36930972
156	0x3efebce3	0.49753484
157	0x3e8f47dc	0.27984512
158	0x3ee1e2d2	0.44118363
159	0xbe14f08b	-0.14544885
160	0x3f24b63f	0.64340585
161	0x3e370e48	0.17876542
162	0x3e29004a	0.16504017
163	0xbedd11cc	-0.4317764
164	0x3eb2becc	0.3491119
165	0xbd318656	-0.043341003
166	0xbe1c5e46	-0.15270337
167	0x3f098785	0.5372241
168	0x3e0da867	0.13833772
169	0xbe68f827	-0.22750913
170	0xbd963e27	-0.07336073
171	0x3e6b26d9	0.22964038
172	0x3ecbc4fe	0.3979873
173	0xbdbd4f88	-0.09243685
174	0xbe874ea4	-0.26427186
175	0xbe21fb64	-0.15818554
176	0xbeba0108	-0.36328912
177	0x3eb9dd1a	0.363015
178	0x3f3139b8	0.69228697
179	0xbeefcd6c	-0.46836412
180	0x3e625dd7	0.2210611
181	0x3ed8bb3d	0.4233035
182	0x3e240cfd	0.1602058
183	0xbd761d13	-0.06008632
184	0x3eb29e1b	0.3488625
185	0x3f0b890e	0.54506004
186	0x3ea031f9	0.31288126
187	0xbce8d22b	-0.028420528
188	0xbd862d1d	-0.065515734
189	0x3da3c09a	0.0799572
190	0xbd9c3996	-0.07628171
191	0xbb4bc140	-0.0031090528
192	0x3ed8d53c	0.42350185
193	0x3f15d082	0.5852128
194	0xbd081628	-0.033224255
195	0x3c052be1	0.008128137
196	0x3dec46ed	0.115369655
197	0xbb4d19dc	-0.003129593
198	0x3e5a7017	0.21331821
199	0x3e63b949	0.2223865
200	0xbee6b888	-0.4506266
201	0xbe196d6d	-0.14983149
202	0x3f11e86e	0.56995285
203	0x3e9d8f82	0.3077355
204	0x3d6ce872	0.057838865
205	0xbe725d47	-0.23668395
206	0xbe7e5bc7	-0.24839698
207	0xbee38b7d	-0.4444236
208	0xbdcba70a	-0.099439695
209	0x3e673edf	0.22582577
210	0x3f137c54	0.57611585
211	0x3e94af49	0.29039982
212	0xbef4a7c4	-0.47784245
213	0xbe544d28	-0.20732558
214	0x3d994883	0.07484534
215	0x3f2088ef	0.62708944
216	0x3e929974	0.286327
217	0xbd8a69e2	-0.06758477
218	0x3e876802	0.2644654
219	0xbd69f859	-0.05712161
220	0xbe6443bf	-0.22291468
221	0x3ee6b4fb	0.45059952
222	0xbe1f5274	-0.15558797
223	0xbc7047ff	-0.014665603
224	0xbf088f16	-0.5334333
225	0x3f04cef4	0.51878285
226	0x3f29a095	0.66260654
227	0x3e9b5f65	0.30346218
228	0xbea04365	-0.31301418
229	0xbef2f755	-0.47454324
230	0xbe74c3ae	-0.23902771
231	0x3f034449	0.5127607
232	0x3ec6734e	0.38759845
233	0x3f0d4151	0.5517779
234	0x3ec6c88d	0.38824883
235	0x3e69a68e	0.22817442
236	0x3ddcc3f6	0.10779564
237	0xbeb3448d	-0.35013238
238	0xbed79db3	-0.42112502
239	0xbeebe1a1	-0.4607058
240	0x3e9d0a90	0.3067212
241	0xbe4f14da	-0.20222798
242	0xbc4c2117	-0.012459061
243	0xbe7cde64	-0.2469421
244	0xbc31f191	-0.010860817
245	0xbea7eea7	-0.32799265
246	0xbea4d943	-0.32197008
247	0x3e77c8da	0.24197713
248	0xbd6f4171	-0.05841202
249	0x3eec9dab	0.4621404
250	0xbe0cde4f	-0.13756679
251	0xbea53c9e	-0.3227281
252	0xbd04b543	-0.032399427
253	0xbd6258af	-0.055260357
254	0x3d3f1a44	0.04665591
255	0xbefb73ff	-0.49111935

networks.1.w f4 [100, 3]
0	0xbb629bd9	-0.0034577756
1	0xbc959532	-0.018259618
2	0x3c85f7fe	0.016353603
3	0xbcda6dcd	-0.026663685
4	0xba4efbb9	-0.0007895786
5	0x3c359fb2	0.011085438
6	0x3c876421	0.016527237
7	0xbc1a6ab3	-0.009424853
8	0xbba077ef	-0.0048971097
9	0xbb164b52	-0.0022933078
10	0x3b9a51e2	0.004709468
11	0xbba612b7	-0.005068149
12	0xbd02c581	-0.031926636
13	0xbc102eb3	-0.008800196
14	0x3ca95c53	0.020673906
15	0xbcc46f92	-0.023978982
16	0x3a5e1e9d	0.00084731897
17	0x3c3973d8	0.011319123
18	0x3d042e72	0.032270856
19	0xbbdd8165	-0.00675981
20	0xbcd7fb96	-0.026365083
21	0xbcaa26c1	-0.020770432
22	0x39997572	0.00029269938
23	0x3c81a51f	0.015825806
24	0xbc13ed90	-0.009028807
25	0x3b502ee8	0.003176624
26	0xba659c6f	-0.0008758967
27	0xbc900b88	-0.017583624
28	0x3b00c37f	0.0019647775
29	0x3c5dc281	0.013535143
30	0x3ccb6b1f	0.024831353
31	0x3bdc639b	0.006725741
32	0xbc9ed964	-0.01939077
33	0xbc9987f2	-0.018741582
34	0x3b82c8b4	0.003991211
35	0xba5631de	-0.0008170883
36	0xbc2f9367	-0.010716296
37	0x3b055040	0.0020342022
38	0x3aa02bb8	0.001222006
39	0x3bde6b48	0.0067876913
40	0x3a57df59	0.00082348805
41	0xbbe29133	-0.0069142818
42	0x3c098516	0.008393547
43	0xbb4d33a6	-0.0031311302
44	0xbc2c4a5f	-0.010515778
45	0xbb9517bf	-0.00454995
46	0x3babca30	0.0052426085
47	0x3c2aa442	0.010415139
48	0x3c9d7eb0	0.019225448
49	0x3bf55afb	0.0074876524
50	0xbc9696b8	-0.018382415
51	0xbc78104c	-0.015140604
52	0x3af1df4d	0.001845339
53	0x3c1217c0	0.008916795
54	0xbc54d7d7	-0.012990913
55	0x3b614cc5	0.0034378034
56	0x3bdfe68c	0.0068329033
57	0x3bc564c0	0.006023973
58	0xbad791c2	-0.0016446637
59	0xbc6e6991	-0.014551536
60	0x3da7fc84	0.082024604
61	0xbe1ff112	-0.15619305
62	0x3d180718	0.03711614
63	0xbbbc7804	-0.0057516117
64	0x3c32ad83	0.010905626
65	0x3912baa9	0.00013993181
66	0xbaad1183	-0.0013204071
67	0xbc9aff31	-0.018920513
68	0x3ca2ee9c	0.019889168
69	0xbc6f9ea1	-0.014625222
70	0xba81ced6	-0.0009903561
71	0x3c67dc7d	0.01415169
72	0xbc2510f9	-0.010074847
73	0x3c029ddd	0.007972208
74	0x3aacd72d	0.0013186686
75	0x3d18cf05	0.037306804
76	0xbd817064	-0.06320265
77	0x3ceb00d7	0.028686924
78	0x3cfc5ca8	0.0308059
79	0x3b31550d	0.002705875
80	0xbcd16033	-0.025558567
81	0x3cfeb8a0	0.031093895
82	0xbc5e2fbb	-0.0135611845
83	0xbc7bef51	-0.015376882
84	0xbc4518e0	-0.012029856
85	0x3bba64d1	0.005688288
86	0x3c01fafb	0.007933374
87	0xbcafd79e	-0.021465119
88	0xbbbd85b2	-0.00578376
89	0x3c9647ff	0.018344877
90	0x3cf9b4c1	0.030481698
91	0xbb8fbcc5	-0.0043865168
92	0xbc8580b5	-0.016296724
93	0xbc590294	-0.013245244
94	0xbb314403	-0.0027048595
95	0x3c0993f7	0.008397094
96	0x3cca0ca6	0.024664234
97	0xbc88548a	-0.016641874
98	0xbb1cf17c	-0.0023947647
99	0xbc122b79	-0.0089214975
100	0x3c44a942	0.012003245
101	0xbb4cdd3a	-0.003125979
102	0xbc8f22ac	-0.017472588
103	0xbbf31a0a	-0.0074188756
104	0x3c59be9c	0.013290074
105	0xbc3aa955	-0.011392911
106	0x3ada110c	0.001663716
107	0x3ca48457	0.020082636
108	0x3b443e90	0.0029944517
109	0xbc72a31d	-0.014809397
110	0x3c50f1a6	0.012752926
111	0xbc9c4d8e	-0.01907995
112	0x398bcb5d	0.00026663663
113	0x3c87fc63	0.01659984
114	0xbc14b28d	-0.009075773
115	0x3b014267	0.0019723417
116	0x3caee00b	0.021347066
117	0xbc8ba50f	-0.01704648
118	0x3c19b833	0.009382295
119	0x3c8af198	0.016960904
120	0xbcb5af50	-0.022178322
121	0xba4aa282	-0.0007729904
122	0x3cfcff98	0.030883595
123	0xba67ce11	-0.0008842657
124	0x3b5cf572	0.0033715633
125	0x3c0802bf	0.008301436
126	0x3c00e672	0.007867442
127	0xba25aad2	-0.00063197047
128	0x3af33d09	0.0018557619
129	0xbc3e2928	-0.011606492
130	0x3c1b76d5	0.009488781
131	0x3c26708d	0.01015867
132	0xbc853310	-0.0162597
133	0xbac4f018	-0.0015025167
134	0x3c23b19c	0.009991076
135	0x3d466dcf	0.048444565
136	0xbcf12d43	-0.029440528
137	0xbc8c485d	-0.01712435
138	0xbb58c771	-0.003307786
139	0x3b0b88ad	0.0021291182
140	0x3bafb750	0.0053624287
141	0xbc951ba0	-0.01820165
142	0x3be5a88a	0.007008617
143	0x3c7a80b1	0.0152894715
144	0x3bee8995	0.0072795846
145	0x3c7d4ad6	0.015459737
146	0xbba05a8a	-0.0048936056
147	0xbb3d47f7	-0.0028882006
148	0xbc4b448c	-0.01240648
149	0x3c397360	0.011319011
150	0xbc8966c4	-0.016772635
151	0xbaf98e63	-0.0019039627
152	0x3ba767ec	0.005108824
153	0x3d4e3406	0.050342582
154	0xbc44ff36	-0.012023738
155	0xbca7cab0	-0.020482391
156	0xbc1780d8	-0.009247027
157	0x3c15200f	0.009101882
158	0x3bb2369d	0.0054386393
159	0x3c9c4be2	0.019079152
160	0xbbb02958	-0.0053760223
161	0xbcac0548	-0.020998612
162	0x3d02cbb8	0.031932563
163	0x3aa1d811	0.0012347718
164	0xbc13324e	-0.008984162
165	0xbc5026fa	-0.012704605
166	0xbc5010ff	-0.012699365
167	0x3c280954	0.01025613
168	0x3c3590c4	0.011081878
169	0x3c4931eb	0.012279968
170	0xbbb5b86f	-0.005545668
171	0xbcb3236b	-0.021867475
172	0xbc011b9e	-0.00788012
173	0x3c12e8d0	0.00896664
174	0x3ccabb4c	0.024747513
175	0xbba69cdb	-0.0050846166
176	0xbc1c611c	-0.009544637
177	0x3c87adb7	0.016562326
178	0xbbabb0a6	-0.005239564
179	0xbb67ac9b	-0.0035350684
180	0xbcbfa8b3	-0.023395872
181	0xba5a8bb5	-0.0008336858
182	0x3c2e824d	0.010651183
183	0xbcbc6d72	-0.023001406
184	0x39b6cdb1	0.00034866997
185	0x3c79d2e3	0.015248033
186	0xbb2c7468	-0.00263145
187	0x3a4cf9b1	0.00078191893
188	0xbbc3bff3	-0.00597381
189	0xbc701907	-0.0146544045
190	0xbc9d1f90	-0.01918009
191	0x3c4793b9	0.012181216
192	0x3d05366b	0.0325226
193	0xbc62f0d9	-0.013851368
194	0xbc8647da	-0.016391683
195	0xbc39a42e	-0.011330647
196	0x3b43b9a9	0.00298653
197	0x3a436f90	0.0007455284
198	0xbcb245b6	-0.021761756
199	0x3bd2bfbe	0.006431549
200	0x3ce81f1d	0.028335148
201	0xbc8b7831	-0.017025085
202	0xbb7e2dad	-0.003878455
203	0x3b5bbc20	0.003352888
204	0xbc8a6c08	-0.016897216
205	0x3bf400bd	0.007446377
206	0x3bdb26a8	0.006687958
207	0xbb2d3d68	-0.0026434306
208	0x3bf150e9	0.0073643816
209	0x3b85a679	0.004078683
210	0x3ceacb6b	0.02866145
211	0xbb2b53e6	-0.0026142537
212	0xbc9ce6a9	-0.019152956
213	0x3d1e3ddd	0.038633216
214	0xbc6b33d9	-0.014355623
215	0xbc5e680a	-0.0135746095
216	0xbcc04fd1	-0.02347556
217	0xbbd4bc62	-0.0064921835
218	0x3c200de7	0.00976894
219	0xbc5894b7	-0.01321905
220	0xbb6e0cf8	-0.0036323648
221	0x3cda5e79	0.026656376
222	0xbc7f357f	-0.015576719
223	0xbc587484	-0.013211373
224	0x3c9c8a92	0.019109044
225	0xba808a78	-0.0009806892
226	0x3adae355	0.001669983
227	0x3bdcc2d8	0.0067370944
228	0x3cc99da9	0.024611311
229	0xbcaafcac	-0.020872436
230	0xbbd8e304	-0.0066188592
231	0x3afa1af3	0.0019081518
232	0x3b6eb8d1	0.0036426077
233	0xbc9d2617	-0.019183202
234	0x3cd7ea38	0.026356801
235	0xbc11e995	-0.008905788
236	0xbbf4657c	-0.007458387
237	0xbc5c071c	-0.013429429
238	0x38f73f66	0.00011789687
239	0x3a616399	0.000859791
240	0xba242261	-0.00062612264
241	0x3af9d9f9	0.0019062153
242	0xb9ad65a5	-0.00033072862
243	0x3df4c841	0.11952258
244	0xbd9b49e0	-0.0758245
245	0xbdad4ade	-0.084615454
246	0xbc8e680e	-0.017383602
247	0xbb7ee6aa	-0.003889481
248	0x3c5c9984	0.013464335
249	0x3a87a921	0.0010350087
250	0xbb564e04	-0.003270031
251	0xbc4786ea	-0.012178162
252	0xbc7af79b	-0.015317823
253	0xbbd8fc50	-0.006621875
254	0x3bf3570b	0.007426148
255	0x3c6c1159	0.014408433
