zy_f05.pt (torch, 7634 bytes, 2 tensors)

w f4 [10, 100]
00000000: f2ee 17be 56dc bb3e 64e5 d53e f05f 883e
00000010: 8d55 0a3f 2b8b d03b 4a95 81bd 5a3d f9bd
00000020: 256a 1f3f da06 8bbe 684d 0b3f 49e3 05bf
00000030: 1fc5 093f 4126 9a3e 37ee 5ebe 7269 ecbc
00000040: 26b8 513e 8f45 243f 8842 0cbd 2780 0cbf
00000050: 0a53 15bf 160c b4be 8776 df3e 1927 0b3f
00000060: 53a5 f8be 3e64 093f f635 cb3e acfc 4a3f
00000070: 8c4c 01bf 1afe fabe 486a d4be 8640 a6be
00000080: d2a9 933e fc7d af3e 4ef6 01be a48d b1be
00000090: 3fc4 b73e bdfa 643e 631f 943e d7d0 edbd
000000a0: ecd8 243f 0ce4 803e 1652 d9be 1684 19be
000000b0: 93de 113e d3f0 e43e 5a2a 563d df05 f53d
000000c0: ff1b 833d 8786 73be d197 0a3f 8e73 94be
000000d0: 5269 793e c69c f23e a22f d3be bd35 6e3d
000000e0: 9b81 07bb 1dc8 2ebc 868f a83e e3fa 83be
000000f0: 96d8 ec3c 3f29 a3be b48f b83e 23b2 24be
00000100: 90a9 9f3e 0a4c 8f3e 898c 013f 0ecb c5be
00000110: f6f9 0dbf 547b be3e 4480 ddbe 550a 6f3d
00000120: 2d4a 9fbe c243 8cbe 3711 65bd ffb1 d9be
00000130: 668f 853e a513 b5bc 1ab9 aebd 745e 84be
00000140: 313d 8f3e 0439 4dbd 6614 1abd 92e2 873e
00000150: 350a a13e e5fb 0dbc 5b14 043f 591a e13e
00000160: 902f 923d 18a7 e9be e725 1d3f c5da b13e
00000170: dc02 ecbe dde9 0f3c e075 2b3f 523a d13e
00000180: c4ad 093f 75a4 93be 6839 b63e 53bd 9cbe
00000190: 7f7d 72bd 6352 c93e 9d8d babd 449f e3be
000001a0: fd70 00bf fcca 413e 2023 06be 803f cc3e
000001b0: d899 31be f9fa 3d3e b76e c6be f135 34be
000001c0: 4b27 f93d 0659 19be fa60 0ebe fb1e 7c3d
000001d0: db3b c23e 2053 263f edf3 523e cffa 743e
000001e0: d4d4 54be dedb dabe 3398 243f df70 e03e
000001f0: 524d 89be 0e7e 50bd bf73 6f3e f96a 9a3e
00000200: ada2 cdbe 5129 e3be 3499 f23e ed82 bebe
00000210: 76ca 6e3e 5421 323e 41f8 03bf 9952 a5be
00000220: cd4f 77be 49ae bf3e c621 833e 2ea9 ed3e
00000230: 4f8a 7f3e 97f7 8e3e 51c3 aebe b19c acbd
00000240: cdd6 e0bd 946a ab3e 3e50 d3be 5a37 6b3e
00000250: 675f b4be a676 46be 324b b0be 226b ccbe
00000260: 350d e0be 305c 3f3e 2651 ddbe cc23 1cbe
00000270: 0c6a 9ebe 8f73 1e3f 5d5a 093f c076 ef3e
00000280: d9c5 55be 95ed 123f 3b9e b13e 148f 58be
00000290: 9457 293f 4863 87be 7730 dcbe 24b4 093f
000002a0: 6c1f 093f efe4 a2bd 29cd 853c 7a62 ce3e
000002b0: 2b46 f7be 6859 383f 3d7a 2c3f e43c 2c3f
000002c0: 6c2c 4c3d 705d b33e 8189 a0be 134b 8fbe
000002d0: fbaa c73c f41f 463e b953 0fbf 33b2 4a3e
000002e0: 56ba 9fbe 62a5 39be c5db 863e ac18 c83e
000002f0: 9575 4c3d 0674 15bc 97ed 263f bd64 b03e
00000300: 3575 2bbe 5a6d 2c3f 2a2e d7be 2b3c bc3e
00000310: 7f44 a93e fa3f f5be 0a5e 0d3e 25c8 03bf
00000320: 6341 b8be b08a 463f 7de7 7e3e 2077 953e
00000330: 4d21 0a3f b91f 963e 7c21 5cbd a1af d5bd
00000340: 263a e03e cb56 e13e 3c7c fabe 99f6 d73e
00000350: b723 f9be 5add 2e3f 7994 1bbc 5481 be3e
00000360: 5c05 e13e d288 833e cca5 15be d055 1d3f
00000370: 3986 0d3f 202e cd3e 242d 91be 7141 f43d
00000380: fe67 1d3f 3d24 8fbe 166b bf3e b9c5 683e
00000390: 2097 0dbf 54b2 da3e 81a2 f73d 0c1d 84bd
000003a0: 8d68 ff3e 2f5b 14bd 907f b73e cb67 8d3e
000003b0: daed cfbe a54e 02bd 02b1 643e 48c6 bfbd
000003c0: 9228 133f 7c57 a6bc 2cb4 113f 8b53 a83e
000003d0: 3ae2 b9be 57d9 09bf 8c57 aa3e b29a 6a3e
000003e0: cadb 29be 0e35 b4be 742b f8be 789a a0be
000003f0: 246a dabd 0ca2 4d3f fb9a c9be 9cda 9dbd
-0.14837244 0.3669154 0.41776574 0.26635695 0.5403679 0.0063642464 -0.06327303 -0.12169905
0.6227134 -0.27153665 0.5441499 -0.52299935 0.5381641 0.3010731 -0.21770559 -0.028858874
0.20480403 0.6416864 -0.034243137 -0.54883045 -0.5832983 -0.3516547 0.43645117 0.54356533
-0.48563632 0.5366858 0.39689606 0.79291797 -0.50507426 -0.4902199 -0.41487336 -0.32471102
0.288405 0.34275806 -0.12691614 -0.34678376 0.3589191 0.22361274 0.28930196 -0.11612099
0.64393497 0.25173986 -0.4244544 -0.14991793 0.14245062 0.44714984 0.052286483 0.119640104
0.06401824 -0.23781787 0.54137903 -0.2899441 0.24356583 0.47385234 -0.41247278 0.058156718
-0.0020676616 -0.010667828 0.32922 -0.2577735 0.02891187 -0.31867406 0.36047137 -0.16083579
0.31184053 0.279877 0.50605065 -0.3863148 -0.55459535 0.37203467 -0.4326192 0.058359463
-0.3111128 -0.27395445 -0.05592462 -0.42518613 0.26085967 -0.022104094 -0.08531399 -0.25853312
0.27976373 -0.050103202 -0.03761711 0.26540047 0.314531 -0.008666013 0.5159356 0.43965414
0.07137978 -0.45635295 0.6138596 0.3473722 -0.46095932 0.008783785 0.6697674 0.40864807
0.5378077 -0.28836408 0.35590672 -0.30613193 -0.059201714 0.3932067 -0.09109042 -0.44457448
-0.50172406 0.18925089 -0.13099337 0.39892197 -0.17343843 0.1855277 -0.38756344 -0.17598702
0.12165698 -0.14975366 -0.13904181 0.061552983 0.3793629 0.6497059 0.20600863 0.23923801
-0.20784312 -0.4274587 0.6429474 0.43836114 -0.26816803 -0.050901465 0.23383997 0.3015974
-0.40163174 -0.4436746 0.4738251 -0.37209263 0.2331942 0.17395526 -0.5155068 -0.3228958
-0.24151535 0.37437657 0.25611705 0.46418136 0.24955104 0.2792327 -0.3413339 -0.08428324
-0.1097847 0.3347975 -0.41272157 0.22970334 -0.35229036 -0.19381198 -0.3443237 -0.39925486
-0.43760076 0.1868751 -0.43225974 -0.1524803 -0.30940282 0.6189508 0.5365351 0.46770287
-0.20876254 0.5739377 0.34691033 -0.2114833 0.6614926 -0.26442933 -0.43005726 0.537905
0.5356357 -0.07953822 0.01633318 0.40309507 -0.4829572 0.72011423 0.6737402 0.6728041
0.04984705 0.35032225 -0.31354907 -0.27986965 0.024373522 0.19348127 -0.55987126 0.1979454
-0.3119685 -0.18129495 0.26339546 0.39081323 0.049916822 -0.0091219 0.65206283 0.34451857
-0.1674393 0.6735436 -0.42027408 0.36764655 0.3306007 -0.47900373 0.13805404 -0.5147727
-0.35987386 0.7755537 0.24892993 0.29192448 0.5395706 0.29321077 -0.05374287 -0.10433889
0.43794364 0.4401153 -0.48922908 0.42180327 -0.4866006 0.68306506 -0.009495848 0.37208045
0.439494 0.25690323 -0.14614028 0.61459064 0.5528293 0.40074253 -0.28354752 0.119265445
0.61486804 -0.27957335 0.37386388 0.22731675 -0.55308723 0.4271418 0.12091542 -0.06450853
0.49884453 -0.036219772 0.3583951 0.2761825 -0.40611154 -0.031813283 0.22333148 -0.09363991
0.5748378 -0.020305388 0.56915545 0.32876238 -0.3630541 -0.5384726 0.33269918 0.22910574
-0.16587749 -0.35196728 -0.48470652 -0.3136785 -0.10664776 0.8032539 -0.39376053 -0.07707712

w f4 [100, 2]
00000000: eff5 fcbd d5ee fb3d 7415 7f3c 1769 c7bc
00000010: 902a 80bc 92c7 9b3c 1b70 cfbd 98b4 cc3d
00000020: d14c b1bc 02bc d13c 809f 0a3c 9ed5 f5bb
00000030: cba6 42bd 8092 233d a5cb 3e3c 91ab 52bc
00000040: c583 ac3b f170 d13a 1776 c93b d398 e1bb
00000050: 7cb1 bebc a4f5 c83c 8221 52bd 4756 333d
00000060: 6a3d 17bc 8ae5 aa3c ed26 a43c fc56 a1bc
00000070: 8999 813c e12c acbb 7e43 d63c da68 b1bc
00000080: c050 c73c 2e05 7dbc 052c 193c 0a0e 17bc
00000090: 867f e9bb 9dd3 733c 00f6 cabb 969f 173c
000000a0: 6e5c 16bd 77b7 473d 9927 60bd d030 4e3d
000000b0: 802c 48bb efd0 c03a 25df 02bd 6804 ed3c
000000c0: 30c5 4fbd ca6b 833d 847c b0bc 9295 953c
000000d0: d9d5 8d3c b831 aabb b14b 353c 1d9a 8abc
000000e0: 60fd 17bd 2d0d 143d d3b3 67bd 84f4 473d
000000f0: 3099 043b 8ff1 c6ba 2bc3 8d3b 3468 793b
00000100: 976d 403c fcdd 8cbc ab73 7b3c c5c5 7fbc
00000110: 9585 2abd e14a 3a3d f1d1 babc 7ef4 c13c
00000120: 96f2 c63b d523 0fbc 1c48 31bd 8688 4a3d
00000130: 8614 703c ca2c debc 4a44 55bd 5d51 833d
00000140: 509f 11bc 4d55 193c 9dde 873c 331b c1bc
00000150: 62c1 1ebe be7a 123e 96f9 353c 5c97 9bbc
00000160: 20e2 00bc e102 6f3c bfcb 03bd e1a0 173d
00000170: a5cf bbbc 3e79 873c 5703 1f3c ee35 99bc
00000180: 26b5 d8bc 1c92 ef3c a7fd 01be 1f97 103e
00000190: 18c1 38bd 2682 0e3d df31 9dbd a060 913d
000001a0: aa00 35bd ce5d f13c 773f 8a3c 8670 adbc
000001b0: d79e a0bd 95b7 ad3d a75a e13b b190 0b3c
000001c0: 9bf6 d0ba 00fe 5d3b b4f6 02bd 7f6f 073d
000001d0: 4ae0 41bc 87aa 413c d8ed 763b cadd 36bc
000001e0: 4385 5dbd 613d 2e3d 4eb2 0dbd 51ba 143d
000001f0: f3ec 9b3c c8f6 57bc 2b35 b5bd 5771 a73d
00000200: 2bb1 3e3b d2e6 22bc 4079 bc3c 1ad7 dcbb
00000210: 34eb 6bbd 8087 723d 6415 f1bc c4da 013d
00000220: 4211 7dbc faf2 b03c 7421 763b 484a 7ebb
00000230: 6e8f e7bd 168e e33d 6774 a6bb 92fd 613c
00000240: 9754 05bc dc88 d73b 4627 b93c da57 a2bc
00000250: 99ae 9a3a 8b56 333c 17d8 e53b a9de 51bb
00000260: bfbe 833c d558 08bd 9a18 17bc bead f93b
00000270: b81c 0fbd f723 133d fb2e e8bc 45e7 d93c
00000280: cbd2 94bc 5232 a93c 669e bebb 2179 8c3c
00000290: 0942 86bb 4cef 663c 57fa 773c d6c7 a6bc
000002a0: 4dc5 183b f3c7 473b 92e8 583c 31f8 82bc
000002b0: a1a1 a5bb 8172 84bb 636a 623c cf3e a1bc
000002c0: 1181 8e3b 8690 573b 1bcc 7dbd 180f 683d
000002d0: 0b31 533c 5321 00bc eb8c cbbc 62ac ab3c
000002e0: 021c 4f3c bb3e 2d3b af85 24be 0ef6 233e
000002f0: 0593 0e3c f6ca c43a b7cc ce3c a485 62bc
00000300: e677 2cbc 13f4 9c3c 3bfd 57bd 0de1 513d
00000310: db16 71bd ad3f 4c3d 9b68 b5bc d4e8 8a3b
-0.123515956 0.12301413 0.01556908 -0.024342103 -0.015645295 0.019016061 -0.10128804 0.09995383
-0.021643074 0.025602344 0.008460879 -0.007502272 -0.047522347 0.039934635 0.011645232 -0.012858287
0.0052647316 0.0015979094 0.0061481106 -0.006884673 -0.02327799 0.024531193 -0.051301487 0.043783452
-0.009230951 0.020861406 0.020038093 -0.019694798 0.015820282 -0.0052543734 0.02615523 -0.021656442
0.024330497 -0.015443129 0.009348874 -0.009219656 -0.0071257977 0.0148819955 -0.0061938763 0.009254357
-0.03670924 0.04875895 -0.054725263 0.05033952 -0.0030544102 0.0014710705 -0.03195109 0.028932765
-0.050725162 0.064170435 -0.021543749 0.018259797 0.017313885 -0.005193915 0.0110654095 -0.01691919
-0.03710687 0.036145378 -0.056567978 0.048817173 0.0020232908 -0.0015178191 0.0043262444 0.0038056495
0.011744878 -0.017195694 0.015347402 -0.015611117 -0.0416313 0.045481566 -0.022805186 0.023676153
0.006071399 -0.00873657 -0.04328166 0.049446605 0.014653331 -0.027120966 -0.05206708 0.06412003
-0.008888081 0.009358716 0.016585642 -0.02357254 -0.15503457 0.14304635 0.011106869 -0.018993072
-0.007866412 0.014588089 -0.03217673 0.03701866 -0.022926161 0.016537305 0.009705386 -0.018702473
-0.026453566 0.029244475 -0.12694417 0.14120148 -0.045106024 0.034792088 -0.07675528 0.07098508
-0.044190086 0.029463675 0.016875966 -0.02117182 -0.07842796 0.08482281 0.0068772617 0.008518384
-0.0015942635 0.003387332 -0.031973556 0.033065315 -0.01183326 0.011820442 0.0037678387 -0.011161277
-0.054082166 0.042539004 -0.034593873 0.036310498 0.019033885 -0.013181396 -0.088480316 0.08175915
0.00290973 -0.009942727 0.023007035 -0.0067395093 -0.057597354 0.059211254 -0.029429145 0.03170277
-0.015446009 0.021600235 0.003755656 -0.00388016 -0.11306654 0.11111085 -0.005079794 0.013793366
-0.008137844 0.006577594 0.022601735 -0.019817282 0.0011801302 0.010945926 0.0070142853 -0.0032023585
0.016082166 -0.03328784 -0.009222174 0.0076195886 -0.034939498 0.03592297 -0.028342715 0.026599536
-0.01816692 0.020653877 -0.0058172224 0.017147603 -0.0040972275 0.014095139 0.015135369 -0.020358961
0.002331096 0.003048417 0.013239043 -0.015987488 -0.005054668 -0.0040419702 0.01381931 -0.01968327
0.004348882 0.003289254 -0.06196223 0.05665502 0.012890111 -0.007820445 -0.024847468 0.020956222
0.012640955 0.0026435095 -0.16066621 0.16011831 0.008702044 0.00150141 0.0252441 -0.013825808
-0.010526633 0.019159352 -0.052731734 0.051240016 -0.058859687 0.049865413 -0.022144606 0.004239181
