code_tidy/model_step4/s4_3_f05.pt (torch, 356955 bytes, 3 tensors)

w1 f4 [224, 200]
000000 f0 3d 37 3d 66 02 16 3d 42 85 57 3c 34 28 3f bd
       0.044736803 0.03662338 0.01315433 -0.0466692
000010 3b 70 1b 3c df e0 42 bc df d3 a3 38 d3 68 a8 bc
       0.009487207 -0.011894434 7.81191e-05 -0.020557797
000020 ff 51 c0 bc 9a 35 ae 3c a6 27 42 bb a8 d4 52 bd
       -0.023476599 0.021265794 -0.0029625683 -0.051472336
000030 52 8d 0a bc 77 4d 81 b8 9f 87 5b bb 16 12 1c 3c
       -0.008456545 -6.165628e-05 -0.0033497585 0.009525796
000040 11 7a cd 3c 3a 2b 63 3b 9c 63 59 bd 6a d1 18 3c
       0.02508262 0.0034663216 -0.05307351 0.009327272
000050 1d ba 2a bc 05 19 56 3c 85 09 fa 3b fa be 50 bc
       -0.010420349 0.013067489 0.0076305293 -0.012740845
000060 4b 50 a8 3c 49 a7 3b 3c db b3 a6 3b 8b 62 58 3c
       0.0205461 0.011453458 0.0050873584 0.013207088
000070 be 12 35 bb be 99 4a bd b4 24 58 bb 6f 01 e3 3b
       -0.002762958 -0.049463026 -0.003298086 0.006927661
000080 f6 a4 9a bc c5 db 66 bb 9d e7 3f 3a 84 11 ba 3c
       -0.018877488 -0.0035226208 0.0007320585 0.02271343
000090 08 ff 33 38 d7 3c bf 3b 1c 0b cc 3b 3b ad 0d bd
       4.2914442e-05 0.00583611 0.0062269103 -0.034589034
0000a0 72 e8 26 bd 84 7d 92 3c 50 ca e1 bb 04 b5 98 bd
       -0.04074902 0.017882116 -0.0068905726 -0.07456401
0000b0 0b 89 67 ba 2f 18 d1 3c 0a 97 cf bc 1a 55 7a bb
       -0.00088323717 0.025524227 -0.025340576 -0.0038197697
0000c0 5c 8c 89 bd 3a 1b fe 3b 3f 2c 4a bb 69 d2 49 3b
       -0.067162246 0.0077547105 -0.0030849127 0.003079558
0000d0 a3 1c 01 bc 38 3d 87 3c 9b 38 86 bc 39 13 ef ba
       -0.007880363 0.016508684 -0.016384413 -0.0018239982
0000e0 be 43 a6 bc f0 a2 2e 3c 7a 5a a8 ba 5c ac e2 ba
       -0.020295974 0.0106589645 -0.0012844347 -0.0017293799
0000f0 53 b6 b0 bc a9 67 8c 3c c3 d6 1c bc 76 e2 f6 3b
       -0.021571314 0.017139273 -0.009572688 0.0075343205
000100 03 dd ca 3c df b0 55 3c 42 a5 84 3c a7 fe a8 3b
       0.02476359 0.013042658 0.016192082 0.00515731
000110 ee e9 ea bb fe 8e 80 bd ac e9 62 3b aa 5d 89 3b
       -0.007169 -0.062772736 0.0034624143 0.004192074
000120 99 a5 8f 3c f3 cf 9e 3b fc 38 c2 3b 1b 3f c2 b9
       0.017535018 0.004846567 0.005927203 -0.0003704958
000130 e7 a9 00 3c 5b 15 93 3b c7 32 62 bc 2d b5 23 bc
       0.007853008 0.0044886298 -0.013806052 -0.009991926
000140 4c b2 7c bb db c1 09 bb 92 93 a4 bc 4b c5 85 bd
       -0.0038558422 -0.0021020088 -0.020089898 -0.06531771
000150 e0 47 01 3c 18 3e d2 3b af 25 ac 3c 56 07 e0 b8
       0.0078906715 0.0064160936 0.021014063 -0.00010682519
000160 ab 89 3c bd 5f 16 96 bb 49 dc 2e bc 12 42 20 3c
       -0.046029728 -0.0045803036 -0.010672637 0.009781377
000170 32 cb 61 bc 2c 51 36 bc 3b 60 89 3c 5f dd 0d 3d
       -0.013781356 -0.011127751 0.01676952 0.034634944
000180 ff 62 13 bd be 80 c1 bb b6 b6 3e 3c 04 94 34 3c
       -0.035983082 -0.00590524 0.011640241 0.011021618
000190 5d d8 97 3c 9b 0e 84 38 d3 59 3b 3c 1d a2 02 bc
       0.018535787 6.296971e-05 0.01143499 -0.007973221
0001a0 88 3f 87 bc 21 6e 5a 3c ad 20 93 3c 47 4d b8 bb
       -0.016509786 0.013331921 0.017959917 -0.0056244466
0001b0 5d 62 0e 3b 66 43 69 3c 38 34 e1 bc e3 c8 bc bc
       0.002172611 0.01423726 -0.02749072 -0.023045009
0001c0 77 9a 79 bc a7 dc ef bb e3 c5 18 bc 0f 32 1c bd
       -0.015234581 -0.007320005 -0.009324524 -0.038133677
0001d0 a9 8e 6f 3c 62 21 2d 3b 0d d1 a2 bc 42 9b d0 3b
       0.014621415 0.0026417603 -0.019875074 0.0063661644
0001e0 9f a2 c5 3b 45 23 07 3c 59 e0 7d b9 24 4c ca 3a
       0.006031349 0.008248155 -0.00024211536 0.0015434069
0001f0 f8 eb 8c 3c a6 1c cf 3c 01 cd ea 3b de da ab 3b
       0.017202362 0.025282215 0.0071655517 0.005244597
000200 1b c2 e9 3c 19 ba 5f 3c 0a 56 87 bd 81 e2 0f bd
       0.02853494 0.013655209 -0.066082075 -0.03512812
000210 3e 75 d8 bb 03 75 70 3c ec 05 22 3c af a8 02 3c
       -0.0066057732 0.014676335 0.009889107 0.007974788
000220 02 51 e9 3b 95 2b 16 bd 6d 37 4d bd 04 7e 3f 3c
       0.0071202526 -0.036662657 -0.050101686 0.011687759
000230 ae f2 f5 3b 9b d2 3c 3c 63 34 28 bc 24 87 17 3c
       0.0075057363 0.011524822 -0.010266396 0.009248529
000240 0a 51 98 bd 97 8c 1c 3c 3c c1 95 3c e7 db a3 3c
       -0.07437332 0.009555004 0.018280618 0.020002319
000250 64 c7 03 ba 0c 42 90 3c 4a f7 40 bc b0 ff 8c bd
       -0.0005026965 0.017609619 -0.011777708 -0.06884706
000260 29 de 1d 3b 3e e3 e8 3b c8 64 85 bb be 6a 12 3d
       0.0024088717 0.0071071675 -0.004070852 0.03574633
000270 62 14 37 bd 44 69 14 bc f9 c0 7e bd e5 ac 22 3c
       -0.044697173 -0.0090583 -0.06219575 0.009928917
000280 9f 4e ec bc 83 41 7a 3b ed c4 1c bc bc 78 04 bd
       -0.028846083 0.003818602 -0.009568435 -0.032341704
000290 d3 b6 a4 3b 63 cb de bb a2 09 13 bb ad 04 d8 bc
       0.005026677 -0.006799148 -0.0022436162 -0.026369417
0002a0 d8 e4 fb bc 5e b0 0d 3c 27 0a 71 3c c2 2e cf bb
       -0.03074877 0.008648006 0.014711893 -0.0063227126
0002b0 5c 45 9c bc 3d 1e bb 3c 0e f0 48 bd 47 4f 00 3d
       -0.019076042 0.022841567 -0.04905706 0.031325605
0002c0 56 a8 1c bb 4a 79 58 bd 0d 36 9f bc 9b 25 6f 3c
       -0.0023904047 -0.052850045 -0.019434953 0.014596368
0002d0 0f b9 56 bc 32 0a c2 bc 99 7b f7 bc b2 b5 74 bc
       -0.013105645 -0.023686502 -0.030210303 -0.014935898
0002e0 58 1a 8c 3c c8 52 bd bc cb ba 1b bd 81 5a e8 ba
       0.017102405 -0.023110762 -0.038019937 -0.0017727168
0002f0 fd 9a d1 3c 8e 57 1b bc 85 d4 0e 3c 84 40 26 3c
       0.0255866 -0.009481324 0.008717661 0.010147218
000300 64 b9 84 3d 9f a7 3e bc b4 21 41 3a a2 78 a7 bb
       0.06480673 -0.011636644 0.0007367388 -0.005110816
000310 4e 1a 91 bc 5c 7e 8f 3c ee e9 8e 3c 0c ed 93 3c
       -0.017712738 0.017516308 0.01744553 0.018057369
000320 21 8c 09 3d 95 03 45 3d 78 c6 dd bc 0e 51 22 bd
       0.033580903 0.04809912 -0.027072176 -0.03962808
000330 3f 94 19 3c f0 ea f0 3b a7 b7 96 3c 8e a1 2b 3c
       0.0093737235 0.0073522255 0.01839812 0.010475529
000340 a7 bf 40 bc 26 e7 6a bc 75 fa 91 bb 0c 54 49 bd
       -0.0117644435 -0.014337337 -0.0044549056 -0.04915242
000350 79 f0 32 3a f2 03 5c 3c d1 8c 68 3b 3a bd c7 bc
       0.00068259944 0.013428675 0.0035484324 -0.024382222
000360 28 5a a0 bb 05 50 8e 3c 4e 3c c4 bd 3c 68 c3 3c
       -0.00489356 0.01737214 -0.09581815 0.023853414
000370 0a eb 3e 3a 68 6b 11 bc 9b 9b 42 3c 2a 8b b7 bc
       0.00072829484 -0.008875705 0.01187792 -0.022405226
000380 b1 25 8b 39 81 ef 80 3c 21 85 14 ba 68 09 68 bc
       0.00026540228 0.015739204 -0.00056655897 -0.014162399
000390 0b a1 0e bc a2 26 84 bd fb 53 bb 3b 95 f7 ae 3c
       -0.008705388 -0.06452681 0.0057167984 0.02135829
0003a0 21 2d a7 ba 5f 12 14 bc 32 ab e8 bc 57 6a 3f bc
       -0.0012754538 -0.009037583 -0.028401945 -0.011683068
0003b0 2a df 6f bb 11 4c 34 3b e6 0f 90 3b 16 e2 1e bc
       -0.0036601522 0.002751116 0.0043964265 -0.009697458
0003c0 cc 1f 34 bd 82 b9 8a 3b e7 d6 98 3b dd 34 66 bd
       -0.043975636 0.00423354 0.00466429 -0.056202758
0003d0 ac 10 25 3b 14 38 a1 ba 79 1c 87 bb 39 da 44 3c
       0.002518694 -0.0012300038 -0.0041232673 0.012014919
0003e0 d6 e9 0a bd b1 5e c0 3b 68 f1 ee 3b 7c e3 c0 3a
       -0.03391441 0.005870663 0.0072919615 0.0014716233
0003f0 b9 d7 c7 3b 6f 16 f2 3b 5f 77 87 3b 1c 3e 07 3c
       0.006098714 0.007387928 0.004134103 0.008254554

v1 f4 [200, 200]
000000 01 08 d9 3b 71 23 f4 3c 0e 39 ec 3c b3 19 86 3c
       0.0066232686 0.029802056 0.0288358 0.016369676
000010 5d cf 8d bc 14 c2 5b 3c 8b 8f bd 3c e5 0a de bc
       -0.017310793 0.013412971 0.023139736 -0.027104804
000020 14 9d b7 bc 12 46 58 3b 0d e8 a3 bb 23 21 db 3b
       -0.022413768 0.003300075 -0.005002028 0.0066873
000030 bb 4c f3 3c 43 51 dd bc e9 52 54 3c 9c b7 3a bc
       0.029699674 -0.027016288 0.01295922 -0.011396315
000040 8e a3 dc bc 71 40 a6 ba 82 2f 12 bc 70 11 49 3b
       -0.026933458 -0.0012684 -0.00892246 0.003068056
000050 4f d0 bd bb c6 8c bf bb ad 6f 64 bc 1d 3f 01 bd
       -0.0057926546 -0.005845639 -0.013942641 -0.03155433
000060 ce 79 7a 3c 52 9d 8d bc 6c 74 00 bc 55 a8 d5 bb
       0.01528783 -0.01728693 -0.007840257 -0.006520311
000070 59 5b 7c 3c a5 08 4e bc af e1 4e bc b1 87 ba ba
       0.015402638 -0.012575303 -0.012627049 -0.0014231113
000080 26 1e 79 3c df 2c e1 3c c1 bc e6 3c 8a c4 33 bc
       0.015204942 0.027487217 0.028166177 -0.0109721515
000090 d4 ab df 3c e1 09 16 3d 57 bc ce bb 5b 77 36 bd
       0.027303614 0.036630515 -0.006309073 -0.04454742
0000a0 68 d6 cb bb 02 e9 7c 3c 2e 6c 17 3c cb 30 8c bc
       -0.0062206276 0.015436413 0.009242101 -0.01711311
0000b0 9e 4d f6 3c ec 91 89 3c ec 5a 51 3c aa 25 e5 bb
       0.030066308 0.016793214 0.012778025 -0.0069930153
0000c0 48 bf 33 bd ca 46 88 bb a6 14 7b bc 8b 86 2c bc
       -0.043883592 -0.0041588293 -0.015324747 -0.010530124
0000d0 ec ee cc bc 84 7e 59 3c 03 e6 df bc 3b 1a cb 3c
       -0.02501627 0.013274793 -0.027331358 0.024792781
0000e0 55 83 11 bd 6a 23 a7 bc c1 ae 54 bc d4 a5 56 bc
       -0.03552564 -0.020402629 -0.012981118 -0.01310106
0000f0 c2 97 9c bc 94 f1 b3 3c d4 cd 48 bc d9 a1 29 bd
       -0.019115333 0.02196578 -0.0122561045 -0.041414116
000100 42 86 1a bc bb de 7e 3b 66 01 c5 3c 5d 9f 5e bc
       -0.009431424 0.0038890082 0.024048518 -0.0135878
000110 a2 88 b0 bc a4 14 63 bd e8 a5 98 3c ef 4e 7c bc
       -0.021549527 -0.055439606 0.018633798 -0.015399679
000120 0d 5b 57 3b 66 7b b1 bb e9 24 51 ba e4 e9 68 bd
       0.0032860667 -0.0054163216 -0.00079782173 -0.05686368
000130 ab 21 d9 38 b8 f8 28 3c 30 9f ac bb 92 ca 74 3a
       0.000103536375 0.010313205 -0.005268 0.00093380467
000140 5f 3d aa 3c 0c c7 2d bd 9a 96 67 bc 85 59 c9 bc
       0.020781217 -0.042426154 -0.014135027 -0.024578819
000150 cb cb 5e bc 7c a4 3c 3c f3 31 8b bb 50 12 33 3c
       -0.013598393 0.0115138255 -0.004247898 0.010929659
000160 11 d5 a9 bd 2c 55 78 bc ab 45 90 bc bc 34 33 3c
       -0.08292592 -0.015157025 -0.017611345 0.010937866
000170 31 e3 bb 3c 85 b4 7e 3b 74 8b b8 bc 5f de 66 3c
       0.022935482 0.0038864922 -0.022527434 0.014091103
000180 12 f7 b9 3c 22 15 cc bc ce c8 e4 bb 2d e4 91 3c
       0.02270082 -0.02491242 -0.0069819456 0.017808998
000190 eb 32 10 3d 6a 7a 2b bc 61 d8 a7 bc e9 d5 85 bc
       0.03520481 -0.0104661975 -0.02048892 -0.016337352
0001a0 4a d8 2d bc 24 e4 a3 3c 31 8a f4 ba dc 1a b4 bc
       -0.010610649 0.020006247 -0.0018656907 -0.021985464
0001b0 41 2a 53 3c b1 60 68 ba 75 4d 8a 3c 63 e5 d0 bc
       0.012888492 -0.0008864506 0.016882638 -0.025500005
0001c0 7b 08 fd ba dc 3a 7c bb 22 fc df 3b 24 3a c9 bc
       -0.0019304896 -0.0038487231 0.0068354765 -0.024563856
0001d0 54 90 85 38 e0 c7 c7 3a 49 e5 fe bb 3e 56 6d 3c
       6.3688174e-05 0.0015242063 -0.0077787978 0.014485894
0001e0 67 a5 ad 3c 5a aa 55 3c 07 46 4c bb c5 a2 9b bc
       0.021197034 0.013041103 -0.003116967 -0.018998513
0001f0 b9 66 9e bc 77 e7 dc bc 2d 22 27 bc e8 78 7f 3c
       -0.019336091 -0.02696584 -0.010201019 0.015592791
000200 96 dc 86 3c d6 99 0d bd aa 5a 79 3a e0 16 67 3b
       0.016462605 -0.034570538 0.0009512106 0.0035261437
000210 3f a6 f7 3b a5 bf 9c bc 4f 4e e9 3c 80 6d 49 3c
       0.00755766 -0.019134352 0.028479723 0.012294173
000220 94 e3 b3 bb 03 d7 3b bd 25 8b 23 bd e5 9c 76 bc
       -0.005489776 -0.045859348 -0.03992762 -0.015052055
000230 74 37 bd 3b 2d c4 1a 3d fa 8c 05 3d b6 1b bd 3c
       0.005774433 0.037784744 0.03260515 0.023084503
000240 17 48 95 3a 5b d1 d2 bc ae 73 d0 bc 09 49 4b bb
       0.0011389282 -0.025734594 -0.025445785 -0.0031018874
000250 c9 c8 12 bc a6 32 71 3c f1 ac 92 3c 88 30 aa bc
       -0.008959004 0.014721548 0.01790473 -0.020775095
000260 62 60 b4 3c 0c 7b 34 bb aa 98 7e 3c d2 8b 41 bb
       0.022018615 -0.0027539162 0.015539328 -0.0029532802
000270 67 cf 8e 3a e9 c8 d0 3b a5 c4 a6 bb c5 46 bf bc
       0.0010895551 0.0063716066 -0.00508936 -0.023349175
000280 e8 6f a9 3b fd 7e ce 3b 22 03 89 3c 22 41 e6 bc
       0.005170811 0.0063017593 0.016725127 -0.02810723
000290 53 41 a5 bc ef f7 37 3b 0b 20 5f 3c 88 75 8e 3a
       -0.02017275 0.0028071364 0.0136184795 0.0010868767
0002a0 23 bb a2 38 e5 45 ac b9 fc a0 b7 bb 36 1e bf 3b
       7.759619e-05 -0.00032858472 -0.0056039076 0.005832459
0002b0 15 02 fe 3c a2 5d 17 3d c7 b0 ac bc 20 7c 2f bc
       0.031006852 0.03695453 -0.021080388 -0.010710746
0002c0 a8 84 eb 3b 81 21 37 bd 73 52 0c 3b bf 58 dc 3c
       0.0071874447 -0.044709686 0.0021411448 0.026897786
0002d0 3f 32 04 3d e2 2e 2d bd 33 b9 e2 bc 0c cc 6d bc
       0.03227448 -0.04228104 -0.0276762 -0.014513981
0002e0 03 76 89 3c d0 a8 88 bc 92 1d b8 bc f3 77 53 bc
       0.016779905 -0.016682059 -0.022475038 -0.012907016
0002f0 e2 b9 ad 3c 33 2b ad bb 7a 11 90 bb c7 8c 22 bc
       0.0212068 -0.0052846908 -0.0043966146 -0.009921259
000300 ce e2 bb 3c ed 66 0a 3b 4e c9 21 bc e3 c3 69 3b
       0.022935297 0.0021118477 -0.009874655 0.0035669736
000310 ec ec 6a 3c 2e b9 31 3c c3 11 01 bc 9d 85 56 bb
       0.014338713 0.010847373 -0.00787777 -0.0032733448
000320 40 59 13 bd e2 7f 42 3d 12 2a b7 bd 09 3c e8 bd
       -0.035973787 0.04748524 -0.08943571 -0.11339576
000330 e8 96 e6 bb ab 6c 46 bc 70 dc 4d 3c 96 65 3a 3c
       -0.0070370324 -0.012110869 0.012564763 0.011376759
000340 d8 a0 11 bd a7 9e 2c 3c 49 a5 72 bc 81 a7 00 be
       -0.035553783 0.010535873 -0.014809915 -0.12563898
000350 e5 ad d4 bc 7a a0 71 3b 04 bd 96 3c 73 51 5e 3c
       -0.025961826 0.0036869333 0.018400677 0.013569224
000360 38 a2 4b bc 69 bf d8 3b 51 a0 c4 bd 66 b4 b3 bc
       -0.012428813 0.0066146147 -0.096008904 -0.021936607
000370 13 8a ad bc 47 bc aa 3c 8c 5f a4 3b f3 09 9a bd
       -0.021184003 0.02084173 0.005016273 -0.07521429
000380 36 88 c5 39 a0 b1 da bc 4a 15 16 3a 9b eb fc ba
       0.00037676253 -0.026696026 0.0005725218 -0.001929629
000390 99 d3 19 3d 72 f9 14 be 29 d9 14 3c 9f 9f f4 bb
       0.03755531 -0.14548281 0.009084978 -0.0074653174
0003a0 b4 aa 10 bc 9d 32 8f 3c cc 88 a2 3b f7 95 de ba
       -0.008829761 0.017480189 0.004960155 -0.0016981949
0003b0 ef a8 64 bb 4f ce 93 bd 34 d1 b5 3b b5 0c 85 bd
       -0.0034890731 -0.072170846 0.0055486206 -0.06496564
0003c0 10 52 18 bd b5 c7 58 3a 1f 05 cc 3c 5e c0 3a bc
       -0.037187636 0.0008269505 0.024904786 -0.011398403
0003d0 4e c6 04 3d 70 4d 19 3b 39 88 9c bc f7 53 0e 3b
       0.03241568 0.0023392104 -0.019107925 0.0021717527
0003e0 e9 cb bf bd eb c3 2e 3d 40 98 56 bc 01 a5 86 3c
       -0.09365065 0.04266731 -0.013097823 0.016436102
0003f0 d4 87 7a 3c 96 07 67 3c 65 c6 0a 3c 93 4a 79 3c
       0.015291173 0.01410093 0.0084701525 0.015215534

w2 f4 [200, 20]
000000 ff b1 ae 3c eb 51 a3 3b 53 04 a6 bc b3 b5 17 bd
       0.02132511 0.0049841306 -0.020265734 -0.037038516
000010 f9 f7 6d bd bf 32 ca bc ad 04 33 3d 84 0f 5a bc
       -0.058097813 -0.0246824 0.04370563 -0.013309363
000020 d5 c1 ca 3c dc 4f 9e bc 9c f1 52 bd e4 80 6b 3d
       0.02475063 -0.01932519 -0.051499948 0.057495967
000030 7a bf 44 3c 9a 05 8c bc db 7a 5a bd 17 7c d0 3c
       0.012008542 -0.017092515 -0.05333982 0.025449796
000040 53 44 a8 3c 95 58 00 3c 52 2c 61 3d 97 8c fe bc
       0.020540392 0.00783362 0.054973908 -0.031072898
000050 cb d1 a7 bd a5 3a 26 3d 12 bd e6 3c 01 c0 3f bc
       -0.08194312 0.04058327 0.028166328 -0.011703492
000060 04 d4 cf bc 55 13 53 3d ce 01 77 bc 72 97 1a 3d
       -0.025369652 0.05153211 -0.015076114 0.037742086
000070 c8 84 45 3c 04 21 50 3d 31 59 1f bd 60 26 54 3d
       0.012055583 0.050812736 -0.03890342 0.05179441
000080 b4 4c 52 3d 8e b8 67 3d 21 3b 07 be d6 29 77 3c
       0.05134268 0.05657249 -0.1320615 0.015085658
000090 17 02 d1 3c cb cb 94 bd 92 41 7d bc ee d6 56 3d
       0.025513692 -0.07265433 -0.015457528 0.052451067
0000a0 aa 4c 76 3b 82 51 e2 bb ac 85 22 bc a8 9e 4d bb
       0.0037582316 -0.006906689 -0.009919565 -0.0031375084
0000b0 63 e2 13 bc 12 92 8a bc 40 d2 06 3c 5f 6e a4 bb
       -0.009026143 -0.016915355 0.008228838 -0.00501804
0000c0 3d f7 36 3c f6 7b 23 bc 99 25 b7 ba ed 55 52 3c
       0.011167345 -0.009978285 -0.0013972997 0.012837869
0000d0 c5 6d 9d 3a a1 28 99 bb a1 08 84 3b ea e6 db 3a
       0.0012010863 -0.004674033 0.004029349 0.0016777192
0000e0 7e 7f fa bb d5 f6 7b bc 15 26 e9 b9 a0 62 4b bc
       -0.007644593 -0.015378674 -0.00044469596 -0.012413651
0000f0 50 48 88 3a c0 51 9f 3b 30 78 04 3c 59 a1 b1 3c
       0.0010397527 0.0048620403 0.008085296 0.021683382
000100 08 59 a9 bc b1 f6 9e bb 9f 50 48 3c dc a3 57 3a
       -0.020672336 -0.0048511853 0.012226253 0.0008226016
000110 cb ac 45 bc c2 ed d7 bc 59 7e 42 3c 02 be 5d 3c
       -0.012065123 -0.026358489 0.011870944 0.013534071
000120 a5 40 00 bd b5 c8 9d bc 63 e2 dc 39 80 38 a5 3b
       -0.03131165 -0.019260744 0.0004213034 0.0050421357
000130 fc 11 7c 3c 1f 03 c5 39 84 10 1c bc b2 ae fa bb
       0.015385147 0.00037577093 -0.009525422 -0.00765022
000140 c7 6a df bc 04 38 e8 3c ff 3d 94 3c c1 7b 47 bb
       -0.027272595 0.028347023 0.018095968 -0.0030438753
000150 3b 47 44 3d 8c ff cc 3c 7a 7e 20 3c 0f 09 7b bc
       0.047919493 0.025024198 0.009795779 -0.015321984
000160 da 81 13 3c a4 38 38 3d 9e 29 7a 3b b4 d7 b4 bb
       0.009003127 0.04497589 0.0038171778 -0.005518878
000170 6f 3e 91 bc c6 8d f3 bb bb 0c a7 39 b6 25 27 3c
       -0.017729966 -0.007432672 0.00031862207 0.010201862
000180 6b 6a 69 3c 5f fc 74 bd a8 7f f3 3c 06 6d d5 3c
       0.014246563 -0.059810992 0.029723957 0.026052963
000190 1f 82 07 bd 2a 17 84 bb aa ec 74 ba bf 92 f5 bc
       -0.033083078 -0.0040310817 -0.0009343127 -0.0299772
0001a0 3b cc 0c 3c e1 de d8 bc 3e 3d 8a 3d 2d 45 23 bd
       0.008593614 -0.026473464 0.06749962 -0.039860893
0001b0 1f 90 e2 3a 15 60 c9 3b f2 d2 ee bc 11 d2 63 bd
       0.0017285383 0.006145487 -0.029153321 -0.055620257
0001c0 84 cd e4 bc 1c 03 97 bc 7c c6 d9 bc 12 3a 23 3c
       -0.027930029 -0.0184341 -0.026583903 0.0099625755
0001d0 9a df 33 bb 1a 8a 46 bd c9 5f 85 bb a6 1e 1a 3d
       -0.002744651 -0.048471548 -0.0040702564 0.037626885
0001e0 63 27 9e bb 66 b6 3e ba ec a1 ff 3b af 54 98 3b
       -0.0048264726 -0.0007275104 0.007801285 0.004648767
0001f0 73 93 50 3c f9 96 83 bc 38 f4 cd bb ea a4 6f bb
       0.012730467 -0.0160632 -0.0062852167 -0.0036566802
000200 be 55 13 3c 48 68 1d bc cd 1a 01 3c 79 d9 73 3c
       0.0089926105 -0.009607382 0.007879925 0.0148833925
000210 d8 fe 90 3c 59 1f f1 3c cf 21 05 3c 36 43 49 3b
       0.017699644 0.029433893 0.008125736 0.0030710227
000220 86 74 aa bc c6 a1 28 bc 14 2c 76 bc 57 73 a5 3b
       -0.020807516 -0.010292476 -0.0150251575 0.00504915
000230 43 75 a5 bb 4a 1f 90 3c 13 48 27 bc 8c 93 88 bc
       -0.005049379 0.017593045 -0.010210055 -0.016671918
000240 c6 83 87 bc bb be ae bc 31 84 96 bb 4c 5b a5 3b
       -0.016542327 -0.021331182 -0.004593395 0.005046284
000250 6a 9e 09 bd 04 87 ec 3c cb 25 b5 3c 9a de 63 bc
       -0.03359834 0.028872974 0.022112748 -0.013908053
000260 10 67 01 3b 0b cb 83 3c 6d 73 5a ba df 99 5d bc
       0.0019745268 0.01608803 -0.000833324 -0.013525455
000270 fa c3 20 bb de 72 5a 3b 12 06 81 bc d4 ae 26 bc
       -0.0024530874 0.0033332626 -0.015749965 -0.010173518
000280 dc 51 25 3d 17 db 11 3d 05 62 6a 3c 69 fa 07 3d
       0.04036127 0.03560933 0.014305596 0.033197794
000290 f5 b7 1f 3d 05 52 bd bc 47 66 30 bc 0a 0b de bc
       0.038993794 -0.023110399 -0.010766572 -0.027104873
0002a0 45 3b ca b9 f6 a6 d9 3c 59 d6 ba 3c e4 45 81 bd
       -0.00038572602 0.026568871 0.022807287 -0.06312159
0002b0 63 57 a7 bc e9 fa f4 bb 91 f2 c2 3b 6c 9b 28 bc
       -0.020427411 -0.0074762 0.0059493263 -0.010290962
0002c0 a3 f3 eb bb 84 ee c5 3c 64 b9 7d bc a6 5e d2 3c
       -0.0072006746 0.024161585 -0.015486095 0.025679898
0002d0 2e f0 ab bc 5b ca 67 3c 4d 83 77 3c fb f5 b3 3c
       -0.02098855 0.014147366 0.015106988 0.021967879
0002e0 9c f5 ad bc fa 32 29 bb e2 81 c9 3b f7 6d d8 bc
       -0.02123528 -0.0025817738 0.0061495164 -0.026419623
0002f0 61 4f bf bc c5 f6 53 bb 14 40 3d bc 0a d6 1a 3c
       -0.02335328 -0.003234313 -0.011550922 0.009450445
000300 56 2e 39 bb 08 9b 4c bb d7 a9 87 3c e0 4f 10 3a
       -0.0028256378 -0.0031220336 0.016560478 0.00055050664
000310 10 0f a4 bc de 38 8e bc 6a b3 2a 3c 64 fd 55 3c
       -0.020026714 -0.0173611 0.010418752 0.013060901
000320 b1 b9 4b bd f6 5f 5e bc b6 81 89 3c fb 5e 6d bd
       -0.049737636 -0.013572684 0.016785484 -0.05795191
000330 eb fd 11 3b 7f a3 b6 bb d2 4b 4e 3d 11 9a 83 bc
       0.002227659 -0.0055736895 0.050365277 -0.016064676
000340 98 a8 17 3d 20 bc 3e 39 c2 8f 8a 3c a3 4a 4e bd
       0.037026018 0.00018189894 0.016914252 -0.050364148
000350 ee a4 06 bd 96 03 8b bd dc 64 3a bd e1 29 ea 3c
       -0.032872133 -0.06787793 -0.045506343 0.028584423
000360 a4 75 da 3c 73 61 c3 bc 14 8d 62 3d 43 c0 16 bc
       0.026667424 -0.023850178 0.055310324 -0.009201112
000370 c4 5c 84 bc 06 08 a6 3b c1 3f 9b 3b aa 77 8a 3b
       -0.016157515 0.0050668744 0.0047378247 0.004225691
000380 6d fb a1 3c fb be 0f 3c f8 26 34 3c c3 82 13 3c
       0.01977321 0.008773561 0.010995619 0.009003344
000390 81 9e e4 ba 7e 20 0a 3a c6 37 b5 ba 57 c0 e4 3b
       -0.0017442257 0.0005269124 -0.0013825826 0.0069809365
0003a0 76 30 dc b8 dc af 8a bc d1 f8 a8 3c 10 ca fb 3a
       -0.00010499444 -0.01692956 0.020626457 0.001921
0003b0 d6 4c cf 3c 17 c9 58 3c ab 67 c7 bb ad 97 80 bc
       0.025305193 0.013231537 -0.006085356 -0.015697325
0003c0 17 7c fd 3c f4 47 3b bd 37 41 d7 ba 1f f2 20 bc
       0.03094296 -0.045722917 -0.0016422634 -0.009823351
0003d0 b2 59 ca 3c 4c 08 bc bc 22 19 bf 3c b0 3a 8f bd
       0.024700973 -0.022953175 0.023327414 -0.069936156
0003e0 25 40 e9 3c 95 67 8b bd 62 06 ec 3b 71 ac 1d bd
       0.02847297 -0.06806866 0.0072029093 -0.03849453
0003f0 88 b2 8b bd 1c b8 69 bd 26 00 a7 3d 45 59 1e 3d
       -0.068211615 -0.057060346 0.08154325 0.038659353
