code_tidy/model_step4/s4_3_f00.pt (torch, 356955 bytes, 3 tensors)

w1 f4 [224, 200]
000000 14 5d 72 3c ba 2e 11 3d d3 6f 40 3d f6 54 ce bc
       0.014792699 0.035444953 0.046981644 -0.025186997
000010 1a 11 a9 3c 41 64 b5 bc 87 ef 5e 3b 33 e9 43 bb
       0.020638037 -0.022142531 0.003401728 -0.0029893636
000020 1b 3b ec bc d4 2f 41 3c 02 b9 1d bc 4b 4d 7a 3c
       -0.028836777 0.011791188 -0.009626629 0.015277217
000030 ee 1b 6e bc a8 bb d5 bb 4e 12 12 3b 92 64 97 3c
       -0.014533026 -0.0065226145 0.0022288742 0.018480573
000040 28 5e b2 3c 55 c7 22 bb e8 b6 d7 bc 6e 39 e9 b9
       0.021773413 -0.002483805 -0.026332334 -0.00044484012
000050 58 a2 c4 3a 1f 73 a9 3c 0b cd 04 3c d0 8d a5 ba
       0.0015001995 0.020684777 0.008105527 -0.0012630764
000060 9d b6 b9 3c ae c6 8b 3c 24 14 db bb 65 ae 68 3c
       0.022670085 0.017062511 -0.0066857506 0.014201735
000070 95 5d 4b bb 22 e3 eb bc 5d 6f 45 bb 88 5b 1f 3b
       -0.003103112 -0.028794829 -0.0030126192 0.0024316031
000080 be 17 a5 bc b7 e0 71 bc 12 ea 05 bc 62 df 06 3d
       -0.020152923 -0.014763049 -0.0081734825 0.03292788
000090 5a b8 18 3c b9 0c 77 3c 07 0f 4c 3c 12 ee a0 bc
       0.009321297 0.015078717 0.012454755 -0.01964477
0000a0 b7 66 88 3b fb c9 a2 3c d9 ab 14 bc ff 9b 89 bd
       0.004162635 0.019871702 -0.009074175 -0.06719207
0000b0 6e 8e a0 bc 5c 58 02 3d f9 1c 0d bd b9 eb 1d bb
       -0.019599166 0.031822547 -0.03445146 -0.00240968
0000c0 1d 6c 81 bc a1 bd 8c b9 b6 d9 25 bc fc 13 49 3a
       -0.015798623 -0.00026844165 -0.010122707 0.00076705194
0000d0 1d 7d 62 bc 7e 22 9c 3c e2 60 b4 bb d2 66 45 3b
       -0.013823775 0.019059416 -0.0055047134 0.00301211
0000e0 29 1c b6 bc b9 1a 6f 3c 98 e6 b9 ba 18 e3 1d bc
       -0.022230225 0.0145937735 -0.0014183102 -0.009636663
0000f0 9a 15 94 ba 18 7f f9 3c 69 96 c8 bc ec d5 76 3c
       -0.0011297942 0.03045611 -0.024485784 0.015065651
000100 6b 55 be 3c 9f 81 0d 3c 3a 0f 33 3d 28 01 4d 3c
       0.02323409 0.008636861 0.043715693 0.012512483
000110 9d df 08 bc 0e a3 b7 bc d4 74 f5 bb c8 69 f9 bb
       -0.008354095 -0.022416618 -0.0074907336 -0.007611487
000120 1a 59 88 3c 44 df 90 3b e5 30 2d 3c ca 6f 0b 3b
       0.01664405 0.0044211466 0.010570739 0.0021276348
000130 1f d6 8a 3c 06 5b 2a 3c b5 4c fd bc df fc 15 bc
       0.016947804 0.010397678 -0.030920366 -0.009154527
000140 65 33 77 3b 8e f1 ff 3b 62 60 2d bc e9 0b 1b bd
       0.0037719843 0.007810778 -0.0105820615 -0.037853155
000150 12 bf 5a 3c 10 c6 eb 3a 5d e9 82 3c f5 c4 ea 3b
       0.013351219 0.0017988104 0.015980417 0.0071645924
000160 22 e9 df bc 66 41 2a 3c 97 3b b4 3b 3a 3c 07 3b
       -0.027332846 0.010391569 0.0055002677 0.0020635263
000170 8d c5 a8 bc 4e 01 d2 bb 73 25 5a 3c 62 ca 01 3d
       -0.020602012 -0.006408847 0.013314593 0.031687148
000180 c4 dc e9 bc c4 74 d9 3b 23 e3 17 3c 26 d2 50 3c
       -0.028547652 0.006636234 0.009270462 0.012745416
000190 04 43 27 3c aa 9e 35 bc 70 c3 40 3c 02 04 2b 3c
       0.010208849 -0.011085192 0.011765346 0.010437967
0001a0 e8 80 70 bc 8b da a2 3c b7 05 4a 3c 61 a7 53 3b
       -0.014679171 0.0198796 0.012330464 0.003229581
0001b0 f1 37 20 3c f4 76 86 3c 56 7f 7e 3c cd 11 7d 38
       0.0097789625 0.016414143 0.015533289 6.033648e-05
0001c0 4c 84 a0 bc 6a 9f 1a ba 3f 03 f5 3b 4d 06 58 bb
       -0.019594334 -0.00058983883 0.0074771936 -0.003296274
0001d0 d6 13 0b 3c f1 79 ed bb a3 91 86 bc f2 08 61 3c
       0.008488616 -0.0072472026 -0.016426867 0.013735043
0001e0 15 42 13 3c b7 43 35 3c ec 22 dd 3b ea a4 86 3c
       0.008987923 0.011063508 0.006748548 0.016436059
0001f0 95 03 ce 3c 9e f7 bd 3c aa f7 da 3b 12 2c 50 3c
       0.025148192 0.023189362 0.006682356 0.01270582
000200 99 12 73 3c 07 48 71 3c b0 d0 bf bc 68 89 66 bc
       0.014835977 0.014726645 -0.02341494 -0.014070846
000210 2a a1 a5 bb 8d 34 de 3b c3 a4 09 3c fd 15 8c 3b
       -0.0050546126 0.006781167 0.008401099 0.004275082
000220 38 bc 5b bb f7 45 84 bc 97 44 a0 bc 36 cb 9f 3c
       -0.0033528935 -0.016146643 -0.019563956 0.019506078
000230 6e 89 02 bb 0a 39 13 3d 92 fc 42 bb 45 01 51 3b
       -0.001991834 0.03594307 -0.0029752594 0.0031891626
000240 10 12 0b bd a0 78 f0 3c 27 9b 5f 3c 3d 86 9c 3c
       -0.033952773 0.029354393 0.013647831 0.019106979
000250 1e c1 65 3b 35 36 43 3c 42 b8 bc 39 10 92 3f bd
       0.0035057734 0.011914779 0.00035995437 -0.046770155
000260 c2 b9 96 bb d5 bd 13 3c 47 a8 b9 bc 5b 41 ee 3c
       -0.004599781 0.009017427 -0.022663249 0.029083898
000270 f1 b4 19 bd c8 10 01 bc 86 f9 89 bb a3 aa 16 3c
       -0.037526075 -0.007877536 -0.0042106537 0.009195956
000280 6b 7f f9 bc f7 cb 7e 39 b0 cb bd 3a f7 9b dc bc
       -0.030456265 0.0002429931 0.0014480259 -0.026929839
000290 5b e7 55 3b e9 6b 65 3b 8d 1f 1a 3b 28 18 54 bc
       0.003263912 0.0035006946 0.002351734 -0.012945212
0002a0 ed 74 88 bc 55 65 17 3c 7e a6 96 3c 56 56 ad ba
       -0.016657317 0.009240468 0.018389937 -0.0013224583
0002b0 12 a7 d8 bc 8c bf b0 3c d2 a4 be bc 13 5e fa 3c
       -0.026446853 0.021575712 -0.023271952 0.030562436
0002c0 b9 e0 72 bb 05 b7 5f bc 95 c2 31 bc db ab fe ba
       -0.0037060215 -0.013654475 -0.010849615 -0.0019429879
0002d0 76 d3 cb bc 61 b5 a0 bc cf 89 db bc 38 c5 ac ba
       -0.024881106 -0.019617738 -0.02679911 -0.0013181334
0002e0 0d 05 98 bb cc 1f 14 bd fd 4f 73 bd a3 7c 5e bc
       -0.004639274 -0.036163136 -0.059402455 -0.01357952
0002f0 ff 56 8e 3c cc ab 68 3b d6 c0 85 3c ed b0 b5 3c
       0.017375467 0.003550279 0.016327303 0.022179091
000300 95 ed 40 3d ff 90 f7 bb e1 11 69 3b 28 02 9d 3b
       0.047101576 -0.0075551267 0.0035563635 0.004791517
000310 72 c6 8c bc 8a ed 38 3c 45 b6 2f 3c b9 ca d1 3c
       -0.01718447 0.0112871025 0.010724609 0.025609361
000320 c4 6a 1a 3d b5 56 52 3d e3 92 49 bb d2 a3 40 bb
       0.037699476 0.05135222 -0.0030757717 -0.002939452
000330 ee ab 08 3c 57 86 8c bc ab 82 9b 3c 3c 44 5e 3c
       0.0083417725 -0.017153902 0.018983206 0.013566073
000340 ef 0b a7 bc e5 26 1c bc 06 35 89 bc 10 9f c0 bc
       -0.020391433 -0.009530758 -0.016748916 -0.023513347
000350 17 0d 1b bc bd 33 5d 3c 38 7e 14 3c 08 4c b9 bc
       -0.00946357 0.013501105 0.009063296 -0.022619262
000360 6e 9b 1c bc e1 a9 1d 3a ca 9d 88 bd 61 ad e1 3b
       -0.009558542 0.00060143886 -0.06670721 0.0068871235
000370 82 9f 24 3c 06 8a 00 bc 2c b2 c9 3b d0 fd ae b9
       0.010047795 -0.007845407 0.006155273 -0.0003337697
000380 5a d3 92 3b 02 8c 85 3c 92 44 9e bb 9f fc a3 bc
       0.0044807615 0.016302112 -0.0048299516 -0.02001792
000390 ba 93 8a 3c ec a3 25 bd 2e 00 88 3b 9f 0e 4b 3c
       0.016916145 -0.04043953 0.004150412 0.012393623
0003a0 2d 56 a9 3b fd f9 77 3b f3 3e 00 bd 3c 9d 7c bb
       0.0051677437 0.0037838214 -0.031310033 -0.0038545867
0003b0 c3 d2 9b 3b 38 f8 ce 3b ea e9 76 3c 1c 57 25 bc
       0.0047553494 0.006316211 0.015070418 -0.010091569
0003c0 77 f7 35 bb 46 96 62 3c f5 a9 ef 3a b1 f4 47 bd
       -0.0027765909 0.013829773 0.0018284904 -0.04881734
0003d0 b3 0c b8 bb fa 98 2f bb f8 9f 1d bc 26 0a a4 3c
       -0.0056167482 -0.0026794062 -0.009620659 0.02002437
0003e0 7b e5 27 3c e9 12 b6 3b ae b1 0a 3c f5 23 ad 3b
       0.0102475835 0.0055564535 0.008465214 0.0052838274
0003f0 45 e7 68 bb ee 26 37 3c 42 3b a5 3b f3 81 c8 3c
       -0.0035538238 0.011178715 0.0050424645 0.024476027

v1 f4 [200, 200]
000000 15 64 2b bc d6 89 5e 3c 47 39 4a 3c 60 5d 5b 3c
       -0.010460873 0.013582667 0.012342758 0.013388962
000010 90 0b 8d bc 25 84 4d 3a 7c 72 91 3c e1 a0 e4 bc
       -0.017217427 0.00078398205 0.017754786 -0.027908744
000020 56 65 dc bb 75 83 00 3b 43 de ed 3a 85 88 d5 bb
       -0.0067259474 0.0019609604 0.0018147904 -0.0065165185
000030 d2 94 72 3c 77 84 b4 bc 08 1f 2e bc de 3b 32 3b
       0.014805989 -0.02203582 -0.010627516 0.0027196328
000040 d7 cc 33 bd 6c 0c f6 3b 9d ac 0c bb dd c2 f1 3a
       -0.043896522 0.007508805 -0.002146519 0.0018444915
000050 5e b0 a4 ba 25 70 d9 bb 34 f4 72 bc d5 bc 35 3c
       -0.0012564769 -0.006635683 -0.01482873 0.011092384
000060 ae 0b 87 3c 41 99 23 bb 85 81 da bb cb 12 f3 bb
       0.016485061 -0.0024963173 -0.006668272 -0.007418012
000070 8d c7 de 3b 57 fd ac 3c e4 19 76 bc 05 17 88 3b
       0.0067986907 0.021116896 -0.015020821 0.0041531348
000080 cf 10 18 ba d9 e8 cd 3a 43 9d 51 3c bf c4 8c bc
       -0.00058008445 0.0015709653 0.012793842 -0.01718366
000090 76 71 32 3c 9a 12 40 3c 3a d8 2b bc 36 8b c8 b9
       0.010891309 0.011723185 -0.010488564 -0.00038250693
0000a0 10 4f a7 bb e5 c3 0a 3c 92 64 31 3b 91 b2 b7 bb
       -0.0051058605 0.008469556 0.0027068001 -0.0056060036
0000b0 e2 eb 19 3c 10 ce 6c 3c 1b 85 23 3b 46 b2 80 bc
       0.009394618 0.014453426 0.0024951163 -0.015710007
0000c0 16 9a ed bc cf 0b f4 bc 36 48 7d bc 76 1f 3f bc
       -0.029004138 -0.029790787 -0.015459111 -0.011665216
0000d0 e1 81 90 bc 6a 23 02 bc 97 f2 c0 bc 61 ca cd 3b
       -0.017640056 -0.007943014 -0.023553176 0.006280229
0000e0 f1 10 07 bd 1e 84 a6 bb 33 13 15 bc 7f 17 1b bc
       -0.03297514 -0.0050816676 -0.009098816 -0.009466051
0000f0 78 ed 63 3b 55 5f 2b 3c ea df 47 bc 87 7e a8 bb
       0.0034778994 0.010459741 -0.012199381 -0.0051420364
000100 eb 4b a5 bc b1 df 4a 3b 31 38 f2 3b e6 bc 59 bc
       -0.020177802 0.0030956084 0.0073919524 -0.013289666
000110 a7 62 75 3b b3 f2 bd bc a5 a4 8c 3c 4a b6 89 bc
       0.0037442835 -0.023187017 0.017168352 -0.016810555
000120 77 eb da bb 8c 70 b3 bc 5a c8 f0 3a 2c fa 94 bc
       -0.0066809016 -0.021904252 0.0018370256 -0.018185697
000130 51 a4 b3 ba 67 c9 e4 3a ba 43 0e bc 25 c7 be 3b
       -0.0013705586 0.0017455042 -0.008683139 0.0058220797
000140 da d2 62 3c cd 97 18 bd de 25 7f bc 34 4f 03 bc
       0.013844216 -0.037254144 -0.015572993 -0.008014489
000150 f0 49 23 bc 41 7e 27 3c 34 8e 3a bc ec 25 1f 3c
       -0.009966359 0.010222972 -0.011386443 0.009713631
000160 17 f3 07 bd 87 42 a6 bc 1f 5a cb bc d7 d2 64 3c
       -0.033190813 -0.020295395 -0.024823247 0.013966284
000170 82 6f bf ba 6b f2 43 3b 87 09 8c bc 7c 2f 6b 37
       -0.0014605375 0.002989913 -0.017094387 1.4018147e-05
000180 72 d0 93 3c f7 17 b8 bc 25 5f 3d bc b4 66 a9 3a
       0.01804373 -0.022472365 -0.011558329 0.0012924285
000190 7b 8b c3 3b 73 8a 07 3c 09 57 3d bc 55 47 a0 bc
       0.005967555 0.008272755 -0.011556395 -0.019565264
0001a0 dc c4 24 bc 08 75 0a 3c 21 45 fc 3a b7 65 e3 3b
       -0.010056701 0.008450754 0.0019246676 0.0069396156
0001b0 4b 48 10 3c 91 9c d0 3b de c1 cb bb b8 57 b2 bc
       0.0088062985 0.0063663204 -0.006218179 -0.021770343
0001c0 16 b5 7b bc e3 69 59 bc 14 68 dd 3b 57 95 ff ba
       -0.0153629985 -0.013269874 0.006756792 -0.0019499463
0001d0 fa 41 84 bc 5b 39 00 3c 3b c7 83 bc e5 39 7a 3c
       -0.016144741 0.007826175 -0.016086211 0.015272592
0001e0 15 97 79 3c 55 36 5a bb a7 98 f2 ba 23 45 8d 3c
       0.015233775 -0.0033296545 -0.0018508629 0.017244881
0001f0 b5 3e 9f bb 88 6a fb bc 2c 8a 19 bc 60 cc 84 3c
       -0.00485977 -0.030690446 -0.009371322 0.016210735
000200 b4 55 c4 bb 3f d5 ec bc c4 5d 31 3c d2 b2 03 3c
       -0.005991662 -0.028910277 0.010825578 0.00803824
000210 fd c0 38 3c 04 64 8a bc 9b 5e 10 3c c5 fb 20 3c
       0.011276481 -0.016893394 0.008811618 0.0098256515
000220 bb 56 da bb 93 74 1d bc 1a 96 b5 bb 76 f4 7f 3b
       -0.006663171 -0.009610313 -0.005541575 0.0039055622
000230 bd 0a 0f bc b2 21 8b 3c 56 07 00 3d 09 40 c2 3c
       -0.008730588 0.01698384 0.031256996 0.023712175
000240 62 ac a1 bb 66 d6 05 bd 0f 32 c8 bc a7 45 8f bb
       -0.0049338797 -0.03267517 -0.024437932 -0.004372317
000250 65 3d d6 bb b5 28 70 bc 36 b5 47 3c ea df 22 3c
       -0.0065380805 -0.014658143 0.0121892 0.009941081
000260 74 bf c2 3c 8d 59 2e 3c 21 ed 5f 3c 20 97 31 bb
       0.023772933 0.010641468 0.013667376 -0.0027098134
000270 bc 47 6e 3c 22 58 4b 3c 5a d2 c9 3c 3e c4 9f bb
       0.01454347 0.012411149 0.024636436 -0.004875689
000280 14 14 49 3c 77 8a b3 bb 3e 2d 75 bb 4b 8f 5d bb
       0.012272853 -0.005479153 -0.0037411 -0.0033807333
000290 f2 f9 5e bc 03 8c 5a 3b ea 74 1b 3c b1 86 b5 bb
       -0.013609396 0.0033347614 0.009488324 -0.005539738
0002a0 17 cc f7 39 76 e0 07 3c 4f de 90 3b b6 6c e6 3b
       0.0004726357 0.008293262 0.0044210325 0.0070320023
0002b0 24 24 a6 3c 6c 15 cd 3c c4 b2 74 3c 68 96 96 ba
       0.020280905 0.025034629 0.014935199 -0.0011488916
0002c0 30 5c 0f bb 9f eb fb bb 43 b9 14 ba a9 81 e9 3a
       -0.0021875016 -0.0076880003 -0.0005673358 0.0017815131
0002d0 09 b1 02 3d 2c 34 89 bc e6 11 de bc 2e 8f 69 bc
       0.031907115 -0.01674851 -0.027108144 -0.014255328
0002e0 68 e4 03 bc 0c 7a 61 3b da 93 8d bc 23 42 96 bc
       -0.008050062 0.003440502 -0.017282415 -0.018342083
0002f0 3c 91 22 3b b8 b7 1d bb ea 06 4d bb b7 1d 29 bc
       0.0024805805 -0.0024065804 -0.0031284639 -0.010322026
000300 af 66 bf 38 f6 12 05 b9 04 79 fc bb 96 a0 bd 39
       9.126716e-05 -0.00012690932 -0.007704856 0.00036168535
000310 e4 31 cd 3c 23 09 29 bc f2 38 78 bb 78 f6 42 3a
       0.025048204 -0.01031712 -0.003787574 0.00074372394
000320 08 1f 18 be 7b 10 83 3d 1f b1 10 be d5 ff 5e bd
       -0.14855587 0.06399628 -0.14130066 -0.0544432
000330 19 b9 74 bc a9 c2 04 be 13 f4 d6 3c 42 5d b0 3c
       -0.014936709 -0.12964882 0.02623943 0.021528844
000340 3e 35 bc bc 98 6c d5 3c ab e4 6e bc c6 0e 0f be
       -0.022974607 0.026052758 -0.014580886 -0.1397048
000350 d2 fc c5 bc d4 5f a9 38 d7 ed 90 3c 09 95 30 3c
       -0.024168406 8.076397e-05 0.017691536 0.01077772
000360 f2 4e 8d bc 44 cf d4 3b 48 ea 16 be 52 32 c4 bc
       -0.017249558 0.0064944346 -0.14737809 -0.023949776
000370 2d 26 70 bc 0a c1 d5 3c e1 e0 ef bb 81 f5 2d be
       -0.014657539 0.026093025 -0.007320509 -0.16988184
000380 41 b9 0e ba 45 e5 c0 bc 7e 10 d6 ba e0 95 1e bc
       -0.0005444475 -0.023546824 -0.0016331819 -0.009679288
000390 b7 23 36 3d d4 0e 78 be 90 64 49 3c 94 60 da bb
       0.044467654 -0.24224406 0.012292042 -0.006664345
0003a0 5b 95 8c 3b 05 c7 b0 3c 9f 44 9f bb 98 60 8a 3b
       0.0042902655 0.021579275 -0.004860475 0.0042229407
0003b0 43 6e c2 bb 45 1d be bb 2e fe e0 bb 0b ea cc 3b
       -0.0059335544 -0.005801829 -0.006866238 0.006253486
0003c0 3b 5d 77 ba d0 68 fc bb b8 42 0e 3d 13 a3 8a bd
       -0.00094361947 -0.0077029243 0.034731597 -0.06769385
0003d0 a9 2e d0 3c 10 e3 d7 3b 2f 7b 9b bc 15 95 5f bc
       0.025412874 0.0065883473 -0.018979637 -0.013646384
0003e0 aa 05 a1 bb f0 9e 9f 3c 7d 56 ba bc cf 60 2a 3c
       -0.0049140053 0.019484967 -0.022746319 0.0103990575
0003f0 01 f5 93 3c 1b c1 0f 3c 27 65 66 3c e1 dc 03 3d
       0.018061163 0.008774067 0.014062203 0.03219307

w2 f4 [200, 20]
000000 43 6a bf 3c 9d b6 9e 3b a2 27 6d 3a 69 17 b9 bb
       0.0233661 0.0048435465 0.0009046738 -0.0056485427
000010 67 76 b6 bc bb 09 73 bc d2 3a 0e bb 04 66 cc ba
       -0.022273256 -0.014833863 -0.002170254 -0.0015594368
000020 ff 1c 88 3c 7f 9d 24 bc 5a c5 19 bd 1c 03 9e 3c
       0.016615389 -0.010047316 -0.037541725 0.019288592
000030 95 af 05 3c 2d 81 41 3b 32 fa eb bb d4 9f 5d 3a
       0.008159538 0.0029526458 -0.0072014565 0.0008454297
000040 a1 98 ab 3b 57 a7 85 3c e4 3d c4 3c d4 0d b6 bc
       0.0052367006 0.016315145 0.023955293 -0.02222339
000050 15 70 08 bd 52 73 67 3d f2 24 d5 3c 20 2d e7 3a
       -0.033310015 0.056506462 0.026018593 0.001763735
000060 a8 80 82 bd be 14 1d 3d 51 c8 0b be 4d 30 9b 3c
       -0.063721955 0.03834986 -0.13650633 0.01894393
000070 c6 25 c6 3a 76 72 60 3d e1 4a c9 bb 2c 4a 04 bb
       0.0015117459 0.05479666 -0.0061429595 -0.0020185811
000080 82 e8 69 3d 4e 7b 9a 3d c4 e2 be bd 3d e0 ea 3b
       0.057106502 0.0754305 -0.09320596 0.0071678446
000090 a8 9c 42 3c 09 1d e0 bb 9a 34 34 bd e5 35 be 3d
       0.01187817 -0.0068393988 -0.043995477 0.09287623
0000a0 75 b8 93 3b 76 48 e2 bb 28 37 1f bc 2c ae 3d bb
       0.004508073 -0.0069056107 -0.00971774 -0.0028942926
0000b0 c4 4c 0e bc d4 ea 88 bc c4 20 0a 3c 1a 6c 8c bb
       -0.008685295 -0.016713537 0.0084306635 -0.0042853476
0000c0 a0 89 3d 3c f6 7b 23 bc 00 f5 fd b9 71 a4 55 3c
       0.011568457 -0.009978285 -0.0004843846 0.013039694
0000d0 e0 57 86 3a ff f6 8b bb 8f a5 8a 3b 0e 83 31 3b
       0.0010249577 -0.0042713876 0.004231162 0.0027086171
0000e0 e8 bd e0 bb 51 a8 78 bc a4 5e cf b8 f7 0b 48 bc
       -0.006858576 -0.0151768485 -9.8881574e-05 -0.012209884
0000f0 ef 8b 55 bd 00 61 03 bc 7b 4b b3 3c 2d f1 93 3d
       -0.052135404 -0.008018732 0.021886578 0.07223735
000100 d3 6b 41 bd 73 39 b3 3c 1e b4 0a 3d e2 36 94 bc
       -0.04722197 0.02187798 0.03386318 -0.018092576
000110 a4 fa 38 bd c2 1c 1a bd 9d 52 b0 bb f1 8d 00 3d
       -0.045160905 -0.03762508 -0.005380942 0.031385366
000120 b9 6e 94 bd 1a d5 eb bd d6 83 13 3c fc fb bd 3c
       -0.07247681 -0.11515255 0.0090036 0.023191445
000130 4d b3 73 3c 9b db 58 bb 83 36 04 bd 82 0c 8b bb
       0.014874292 -0.003308988 -0.03227855 -0.0042434344
000140 52 eb 94 bc 3a df 29 3d 5d 66 d0 bb 34 bd 8c 3b
       -0.018178616 0.04147265 -0.006359859 0.0042950157
000150 24 57 c8 3d ff 65 80 3d 63 f6 ed bc 41 de f1 3a
       0.09782246 0.06269454 -0.02904815 0.0018453078
000160 9e 5e 93 3b b1 8e ae 3d bb 45 d2 3b 9c ea 99 3c
       0.004497363 0.0852331 0.006417004 0.018788628
000170 13 4b b6 bc cf 80 08 3d 71 92 0f bd 4e fc f6 ba
       -0.022252595 0.033325966 -0.035051767 -0.0018843503
000180 88 da 50 3b 16 42 96 bd 34 02 34 3d 15 f2 04 3d
       0.0031868536 -0.07336824 0.043947414 0.03245743
000190 3d f5 de bc e5 a4 86 3a 4b c3 2a 3b 54 7e ef bc
       -0.027216548 0.0010272531 0.0026056345 -0.029235043
0001a0 53 cf 85 3b 67 ed 1a bc 22 84 01 3d ba 6d b0 bc
       0.004083553 -0.009456015 0.031620152 -0.021536697
0001b0 c8 ca a4 3b 0c 3e 33 bc 1a 03 88 bc 8c e1 8b bc
       0.005029056 -0.010940086 -0.016603041 -0.017075323
0001c0 d0 e7 6a bc c9 8b 8f 3b fc 2a 55 3a e1 be a8 3c
       -0.014337495 0.0043806774 0.00081317103 0.02059883
0001d0 7a b6 ba 3b 4d d1 bf bc 29 02 20 bc e4 12 37 3d
       0.0056980224 -0.023415232 -0.00976614 0.04469575
0001e0 5a fa 04 3c dd 52 8c 3c cc 47 16 3c c6 7e d7 3c
       0.008116329 0.017129356 0.009172391 0.026305567
0001f0 7e ce 18 3d 2b 64 ab bc 64 27 ac 3b 2f 93 bb 3b
       0.0373063 -0.020921787 0.005253719 0.0057243328
000200 d5 76 30 bb 15 90 f5 bc ae be da 3c 71 fe 0a 3d
       -0.0026926298 -0.02997593 0.026702251 0.03393406
000210 fa a2 60 3d 5b b3 98 3d 51 77 ed 3c 8b 02 75 3a
       0.054842927 0.07456084 0.028987559 0.0009346387
000220 c1 c0 e4 bc 0f 9e 1e bc 11 41 27 bd cd 68 0b 3d
       -0.027923943 -0.009681239 -0.040833537 0.034035493
000230 10 cb 46 3c 7c e5 16 3d ca 9d 5f bd 0d e6 35 bc
       0.012133375 0.036839947 -0.05459384 -0.011102212
000240 d9 8c 33 bd 48 23 1c bd 47 7f 01 bd 8c 39 1d 3d
       -0.043835495 -0.038119584 -0.03161552 0.03838496
000250 ed b0 f8 bd 0f 70 27 3d e8 0e 49 3d fd 68 2e 3b
       -0.12143121 0.04087835 0.04908648 0.002661287
000260 ba f8 0c 3d 8b 4b a1 3d 46 3c 5b 3a e1 b5 77 3c
       0.03441689 0.07875737 0.00083631685 0.015119047
000270 b8 bb be 3c fe 24 18 bd c8 8f 25 bc be 0c d5 bc
       0.02328287 -0.037144653 -0.010105081 -0.026007053
000280 b7 a5 4c 3d 00 08 5d 3d 8a 46 3b bb 81 cf 62 3d
       0.049962725 0.053962708 -0.002857598 0.055373672
000290 c8 9a 4d 3d e2 79 03 bd 8a 6c 40 bd 20 a5 8b bc
       0.05019644 -0.03209866 -0.04697851 -0.017046511
0002a0 d7 cd 9e bc 1a df d8 3c a7 3d 24 3d c6 b2 9e bd
       -0.019385261 0.02647357 0.04009786 -0.07748942
0002b0 9e 71 18 bd 0a 82 cb bc b2 11 d6 3b d7 3f 37 bd
       -0.03721773 -0.02484228 0.006532871 -0.044738617
0002c0 a4 d1 c2 bc 0a 2b 31 3d cc 43 2e bc 18 17 e2 3c
       -0.023781605 0.043253936 -0.010636281 0.027598903
0002d0 04 68 3b bd 44 11 19 3c 45 1d 3f 3d ad 9a a7 3d
       -0.045753494 0.009342495 0.046658773 0.08183799
0002e0 54 29 1d bd 4c a4 3f bc 2d 23 e4 3c 87 c9 56 bd
       -0.03836949 -0.011696886 0.027848804 -0.052438285
0002f0 f5 e0 9b bc 36 b0 4f bd 8d 46 c9 bc 05 85 05 3d
       -0.019028166 -0.050705157 -0.024569774 0.03259756
000300 36 8f e6 bc c6 66 ea 3b e8 ca 8c 3d 2d 9b 9b 3c
       -0.02814446 0.007153365 0.06874639 0.018994892
000310 d8 36 83 bb e1 c3 79 bd 88 d9 29 3d ad fe 05 3d
       -0.0040043406 -0.06097782 0.04146722 0.03271358
000320 81 1d 85 bd 25 e0 80 bd d9 14 7b 3d 2d 31 1e bd
       -0.06499768 -0.06292752 0.06129918 -0.038621116
000330 2b 7d 87 3d ac 7c f0 bc b8 4a a1 3c c1 8d 42 bb
       0.06615671 -0.029356323 0.019688949 -0.0029686543
000340 ef c6 25 3d f0 3c d2 bc 78 e0 ec 3c 56 43 01 bd
       0.04047292 -0.025663823 0.028915629 -0.031558357
000350 56 c2 71 3c a8 bf a4 bd 4a 53 b0 3c 8a 6d 2a 3d
       0.014755806 -0.08044368 0.02152409 0.04160837
000360 3f 8e 72 3c 78 a6 8f bd a7 b8 2e 3d d3 4b 12 3c
       0.014804422 -0.07014173 0.042656567 0.008929211
000370 00 b1 ab bc e1 b0 71 bb 9b 64 3c 3c 74 65 a7 bb
       -0.020958424 -0.003687911 0.011498596 -0.0051085297
000380 0a 3c 4f 3c cc 7d 86 3c 8c 2e a4 3b 3a 1e 15 3c
       0.012648592 0.016417406 0.0050104316 0.009101445
000390 10 d4 4a bc 5a 78 d0 39 30 a8 1b bc 17 cf 0e 39
       -0.012379661 0.0003976252 -0.009500548 0.00013619322
0003a0 54 33 82 bb f8 92 cf bc 73 e5 80 3c 04 ed c0 bb
       -0.003973404 -0.025338635 0.01573441 -0.0058876295
0003b0 d7 1a 8d 3c 74 67 78 3c 69 19 63 bc d2 57 e4 bc
       0.017224712 0.015161384 -0.013861039 -0.027873907
0003c0 2e e2 90 3c 48 01 f4 bc 3d 2e f7 3a 03 83 52 3a
       0.017685976 -0.029785767 0.0018858385 0.00080303865
0003d0 67 e1 5a 3d ee 8e 16 3c d9 f1 8d 3c e7 f3 b3 bb
       0.053437617 0.0091893505 0.017327236 -0.005491722
0003e0 7a a4 6e 3c 14 a4 cf bd e1 28 c1 bc 18 9e 76 3c
       0.014565581 -0.10138717 -0.023579063 0.015052341
0003f0 0c 39 e2 bd 00 bf 36 bd 1d 6c b0 3d 14 3e 3e 3d
       -0.11046037 -0.044615746 0.08614371 0.04644592
