code_tidy/model_step4/s4_3_f03.pt (torch, 356955 bytes, 3 tensors)

w1 f4 [224, 200]
0.028830731 0.0439651 0.0015423854 -0.054030254 -0.012678591 -0.04594062 0.008088306 0.000741466
0.0032477623 0.017636806 -0.007538117 -0.0126838265 -0.013461368 -0.006267433 -0.0065687574 0.017456625
0.02269204 0.0006872007 -0.040956974 -0.009166633 -0.0031609954 0.010456446 0.007909951 -0.0018053214
0.014533581 0.036980547 -0.00045557012 0.01738496 -0.0039946586 -0.06919698 -0.00065432553 0.0013259435
-0.013889673 -0.021946127 -0.002911073 0.0316743 0.009732278 0.02879255 0.013188105 -0.010838761
-0.05854813 0.012807171 -0.0032972675 -0.019805653 -0.019367412 0.02946939 -0.032843243 -0.0007307297
-0.0651827 0.0066772345 -0.010982539 -0.0088491095 -0.012243317 0.02686231 -0.016392734 0.0073687197
-0.014881083 -0.0013080902 -0.012103973 -0.0028676104 -0.0036940835 0.02537217 -0.010919855 0.013610564
0.02242791 0.005556213 0.010674385 0.008957942 -0.00038958288 -0.057288583 -0.011872036 -0.003538132
0.011315716 -0.0021031974 0.013757845 0.0030388513 0.02316412 0.004321052 -0.025805721 -0.009026329
-0.0008493071 0.0035137527 -0.018011367 -0.055965036 0.0098759765 0.0049956637 0.024942096 -0.010909953
-0.039245535 0.004124092 0.008750201 0.010650375 -0.011480763 -0.0073177954 0.0066218 0.028645087
-0.011601714 -0.0013438894 0.014189915 0.0034163592 0.006731528 -0.017986909 0.014554791 0.008362248
-0.017749807 0.008803386 0.020537013 -0.0026156905 0.009777693 0.012681538 0.012632875 -0.005137026
-0.025911618 -0.00537956 0.010026087 -0.0074649607 0.020656222 -0.04831831 -0.015167729 0.017867764
-0.0007567909 0.0061636698 -0.005535528 0.0072419536 0.024807872 0.030055195 0.009700841 0.008040505
0.028378632 0.013086851 -0.016993552 -0.014610231 -0.014287624 0.005430078 0.00633454 0.0005778456
0.002864984 -0.025222786 -0.033228897 0.018341351 -0.0006309862 -0.027641883 -0.00936942 0.010245409
-0.037360664 0.019438246 0.021835636 0.023793457 -0.00052584865 -0.002835728 -0.008965241 -0.07603503
0.012675337 0.011016921 -0.012589588 0.03849732 -0.029198496 -0.014011192 -0.031542443 0.006070981
-0.035296325 0.0015019416 -0.029824018 -0.049657464 -0.021643046 0.010820199 0.004274411 -0.019050412
-0.014977264 0.016509298 0.018317739 -0.008240552 -0.025070855 0.02850661 -0.044965733 0.02662134
-0.0029131826 -0.01937467 -0.00014651688 0.012290076 -0.018052384 -0.026727531 -0.019984243 0.005056197
0.009012261 -0.019055314 -0.043493606 0.0014240212 0.02983601 -4.3555807e-05 0.005653459 0.01165043
0.025082331 -0.011750892 -0.0017076505 0.007791836 -0.019352987 0.0030617765 0.0130829215 0.01666208
0.0103001315 0.059684977 -0.04546435 -0.03517313 -0.023851873 -0.023375373 0.026344998 0.020239584
0.0048020566 -0.0170774 -0.0037167324 -0.025876602 -0.008013915 0.0075776377 0.008123448 -0.012728412
-0.001658218 0.015146378 -0.07070162 0.009584294 0.00857591 -0.01668031 0.012436556 0.00068852317
0.00057709037 0.04928483 -0.0035605705 -0.0081767505 -0.0067569646 -0.071183525 0.009247619 0.009332324
0.009493482 -0.013416141 -0.028087242 -0.005567909 -0.0009701635 0.017632654 0.01426947 0.008777335
-0.049589586 0.0033280177 -0.0017716452 -0.010665468 -0.0142870415 -0.008121616 -0.012822455 0.024696866
-0.036999896 0.00096697727 -0.00019265302 -0.0023675812 0.0058838455 0.01147196 0.004084577 0.015946895
00000000: 6d2e ec3c c014 343d de29 ca3a d44e 5dbd
00000010: ddb9 4fbc 3b2c 3cbd d084 043c f15e 423a
00000020: 69d8 543b 107b 903c 4f02 f7bb d3cf 4fbc
00000030: 128d 5cbc 0a5f cdbb bb3e d7bb 3201 8f3c
00000040: a8e4 b93c 4225 343a 80c2 27bd a52f 16bc
00000050: b428 4fbb 8351 2b3c bd98 013c 89a0 ecba
00000060: 421e 6e3c ea78 173d 96d9 eeb9 e76a 8e3c
00000070: a0e5 82bb 25b7 8dbd 0b87 2bba 48cb ad3a
00000080: 8391 63bc 5dc8 b3bc b3c7 3ebb e9bc 013d
00000090: 2274 1f3c 5bde eb3c ec12 583c 0f95 31bc
000000a0: 2ad0 6fbd 2bd5 513c f816 58bb 773f a2bc
000000b0: 68a8 9ebc ca69 f13c a386 06bd 718e 3fba
000000c0: 827e 85bd b4cc da3b 1bf0 33bc dbfb 10bc
000000d0: 3298 48bc 590e dc3c 0e4a 86bc 4d75 f13b
000000e0: c9cf 73bc 3974 abba be4f 46bc 85ee 3bbb
000000f0: 7018 72bb 4cd9 cf3c 31e9 32bc d8fe 5e3c
00000100: bcba b73c e510 b63b 9ee3 2e3c 55c4 123c
00000110: ee40 ccb9 6fa7 6abd ee82 42bc 01e0 67bb
00000120: 8e65 393c ccd5 09bb 9668 613c 7727 473b
00000130: aec2 bd3c 9d97 8d3b 8566 d3bc 2be3 13bc
00000140: 09a4 5eba fd46 663b 938c 93bc 983b 65bd
00000150: d9ce 213c aab2 a33b 5e53 cc3c a9bf 32bc
00000160: edbf 20bd 6423 873b 015d 0f3c e97e 2e3c
00000170: cf19 3cbc 1eca efbb affb d83b 1aa9 ea3c
00000180: 1e15 3ebc 7225 b0ba d17c 683c ffe4 5f3b
00000190: 2694 dc3b 4859 93bc 3877 6e3c cf01 093c
000001a0: 0b68 91bc 143c 103c 3d3d a83c 016c 2bbb
000001b0: 9e32 203c 3ac6 4f3c 1efa 4e3c 7f54 a8bb
000001c0: 9a44 d4bc 0547 b0bb 7544 243c a19c f4bb
000001d0: 3d37 a93c 6ce9 45bd 1182 78bc 6b5f 923c
000001e0: 6163 46ba 9cf8 c93b 6063 b5bb e94d ed3b
000001f0: e139 cb3c 5036 f63c 47f0 1e3c 53bc 033c
00000200: 4e7a e83c 3b6a 563c 1036 8bbc c05f 6fbc
00000210: a316 6abc ccee b13b f991 cf3b 907a 173a
00000220: 75c2 3b3b 04a0 cebc 061b 08bd 9a40 963c
00000230: c468 25ba 3b71 e2bc 3282 19bc 5cdc 273c
00000240: 7f07 19bd f53c 9f3c a6e0 b23c 7fea c23c
00000250: 1bd9 09ba 9fd7 39bb f2e2 12bc 41b8 9bbd
00000260: 37ac 4f3c 5180 343c 8f44 4ebc 5eaf 1d3d
00000270: af31 efbc 338f 65bc a632 01bd 14ef c63b
00000280: e192 10bd ccdc c43a 8051 f4bc a065 4bbd
00000290: c24c b1bc 3447 313c 5c10 8c3b 9c0f 9cbc
000002a0: 3363 75bc 823e 873c 150f 963c 6103 07bc
000002b0: 6561 cdbc b286 e93c fd2d 38bd ff14 da3c
000002c0: 18eb 3ebb a1b7 9ebc 53a2 19b9 515c 493c
000002d0: 98e2 93bc b2f3 dabc ffb5 a3bc 74ae a53b
000002e0: 2aa8 133c e419 9cbc 5a26 32bd 39a6 ba3a
000002f0: a66a f43c b1af 36b8 a740 b93b 72e1 3e3c
00000300: 7679 cd3c d086 40bc 3ed3 dfba a852 ff3b
00000310: 288a 9ebc 16a8 483b c059 563c ea7e 883c
00000320: e2c1 283c 3c78 743d d438 3abd b311 10bd
00000330: 0165 c3bc b67d bfbc 77d1 d73c 7ccd a53c
00000340: 925a 9d3b e7e5 8bbc 6c94 73bb 2bfb d3bc
00000350: cc4c 03bc d54d f83b 3618 053c d48a 50bc
00000360: 9058 d9ba 8428 783c 03cc 90bd 7107 1d3c
00000370: f981 0c3c 25a5 88bc b2c2 4b3c 027e 343a
00000380: e147 173a e4de 493d 7658 69bb c7f7 05bc
00000390: 8769 ddbb abc8 91bd 5383 173c 9be6 183c
000003a0: 8d8a 1b3c 60cf 5bbc 3717 e6bc 0273 b6bb
000003b0: 9252 7eba 5b72 903c 7fca 693c d0ce 0f3c
000003c0: 731e 4bbd df1a 5a3b 8c36 e8ba 37be 2ebc
000003d0: 3214 6abc 8710 05bc 4615 52bc 1551 ca3c
000003e0: 348d 17bd bf7c 7d3a e702 4ab9 6c29 1bbb
000003f0: 46cd c03b e3f4 3b3c ead7 853b 10a3 823c

v1 f4 [200, 200]
-0.009440405 0.014854785 0.0127533665 0.013344633 -0.015876288 0.0006976301 0.018828878 -0.026151273
-0.00530208 0.0032465835 0.0026002428 -0.0066855755 0.016013132 -0.020974565 -0.009523714 0.0042250175
-0.042963363 0.008527152 -0.0020663827 0.0029355448 -8.166049e-05 -0.0059274845 -0.013988285 0.010924162
0.017870272 -0.001372217 -0.005398816 -0.005415728 0.008604805 0.02099204 -0.013980493 0.005454826
0.0017016014 0.0019941458 0.013284651 -0.015341242 0.012171823 0.011919094 -0.010027475 0.00085963326
-0.0048586414 0.010008583 0.0036035508 -0.0050976556 0.010018495 0.015742416 0.003720051 -0.015337779
-0.028159609 -0.028186778 -0.013848936 -0.010715322 -0.016271682 -0.0074968725 -0.022177666 0.007811163
-0.032350626 -0.0035883202 -0.008213966 -0.00821644 0.003435481 0.01185679 -0.010472195 -0.0046801125
-0.019214112 0.00454591 0.007168852 -0.011829153 0.005030301 -0.023352992 0.01805636 -0.015239198
-0.005067537 -0.020789504 0.0033982515 -0.017240206 0.00030813616 0.0033972007 -0.008169355 0.007213321
0.014809033 -0.03595647 -0.014563416 -0.0076477625 -0.008937245 0.011019036 -0.010927281 0.010079867
-0.032904398 -0.019221956 -0.023689982 0.015559969 -0.0008268578 0.0034978979 -0.015754782 0.00013369572
0.019064683 -0.021574693 -0.010776037 0.0025960791 0.0059458106 0.00883236 -0.011123352 -0.018928561
-0.008900519 0.009220067 0.0034715175 0.008558509 0.009774329 0.007153851 -0.005637669 -0.020016197
-0.014829424 -0.012161903 0.007937 -0.002333167 -0.01572889 0.008275489 -0.014971454 0.016247941
0.0152284745 -0.0020938155 -0.0007818304 0.01870143 -0.0035059787 -0.029142179 -0.0085307285 0.017669173
-0.005080694 -0.028620025 0.011727632 0.00831129 0.011379227 -0.01564912 0.009797996 0.010255525
-0.0049118735 -0.009989175 -0.0055491757 0.005720758 -0.008518221 0.017239539 0.03171513 0.025528625
-0.004567936 -0.03118007 -0.022594392 -0.0029732361 -0.00621461 -0.01366624 0.013532763 0.010440855
0.024989076 0.011170606 0.014348636 -0.0010087414 0.015296608 0.011894033 0.024433408 -0.0039498773
0.012858972 -0.0038916285 -0.0026363656 -0.0034773191 -0.013186808 0.0047705285 0.010681319 -0.0045144362
0.0019233779 0.0095328465 0.005465446 0.008218933 0.021633407 0.026050046 0.015007796 -0.0012298244
-0.00012804684 -0.007489257 0.00083973707 0.002966064 0.033184193 -0.01570227 -0.025778122 -0.012801227
-0.0067009493 0.0051525156 -0.016398335 -0.016493652 0.004234157 -0.0013353708 -0.0016759126 -0.00837004
-0.0002649991 0.00041498625 -0.006429815 0.0018650318 0.026169013 -0.009055324 -0.0023418167 0.002316088
-0.042048924 0.034641497 -0.01950033 -0.0944631 -0.019305402 -0.15300749 0.024704317 0.006558071
0.001342529 0.0047942037 -0.010872414 -0.08916917 -0.020344907 -0.0023907362 0.031504028 0.010137686
-0.021873154 0.022042174 -0.0830107 -0.06520179 -0.018841246 0.027542677 0.0028687133 -0.07981165
-0.00669356 -0.0042919465 -0.03550682 -0.004829953 0.035164632 -0.17477003 0.014202344 -0.0042431075
-0.016418923 0.00944193 -0.00069103914 0.0020535816 0.0019566233 -0.03739198 0.020295791 0.021623312
-0.015645355 -0.0021270295 0.01978725 -0.002277716 0.027554737 0.008402388 -0.033352606 0.0026850288
-0.10127498 0.028183918 -0.0017873016 0.0065604984 0.007376748 0.010978665 0.0060030064 0.017447473
00000000: eeab 1abc 7c61 733c 7ff3 503c 73a3 5a3c
00000010: fd0e 82bc 2ae1 363a 053f 9a3c 323b d6bc
00000020: 12bd adbb a2c4 543b d668 2a3b ac12 dbbb
00000030: f92d 833c dad2 abbc 5a09 1cbc 0472 8a3b
00000040: 5afa 2fbd 78b5 0b3c 266c 07bb 4562 403b
00000050: 2441 abb8 583b c2bb 1f2f 65bc 42fb 323c
00000060: ad64 923c f6db b3ba 8de8 b0bb 6b76 b1bb
00000070: 2bfb 0c3c 80f7 ab3c 700e 65bc 66be b23b
00000080: 4508 df3a 37b0 023b dda7 593c d559 7bbc
00000090: 536c 473c 4e48 433c 474a 24bc 0359 613a
000000a0: 3d35 9fbb 0afb 233c 8d29 6c3b 3c0a a7bb
000000b0: 9d24 243c 3df6 803c 19cc 733b 4f4b 7bbc
000000c0: fbae e6bc f5e7 e6bc a6e6 62bc 518f 2fbc
000000d0: 314c 85bc 53a8 f5bb f0ad b5bc c9f4 ff3b
000000e0: 1782 04bd 062a 6bbb df93 06bc 3f9e 06bc
000000f0: cf25 613b fb42 423c 9293 2bbc a15b 99bb
00000100: ea66 9dbc dbf5 943b b0e8 ea3b 10cf 41bc
00000110: 39d5 a43b c64e bfbc eeea 933c d4ad 79bc
00000120: 950d a6bb c04e aabc 33b5 5e3b 553b 8dbc
00000130: 568d a139 92a3 5e3b c2d8 05bc b95d ec3b
00000140: 96a1 723c 1747 13bd 659b 6ebc 159a fabb
00000150: 866d 12bc 3089 343c 5708 33bc 0726 253c
00000160: c3c6 06bd 5d77 9dbc 7e11 c2bc 3def 7e3c
00000170: 7dc1 58ba fd3c 653b 2c10 81bc ac30 0c39
00000180: 8a2d 9c3c 69bd b0bc fa8d 30bc fb22 2a3b
00000190: 13d5 c23b 9ab5 103c b83e 36bc 1210 9bbc
000001a0: 7cd3 11bc c40f 173c 6682 633b fd38 0c3c
000001b0: 8224 203c da6a ea3b 32bc b8bb 02f9 a3bc
000001c0: 1df7 72bc b842 47bc 310a 023c 0ce8 18bb
000001d0: e0d9 80bc eb95 073c d44a 75bc 671a 853c
000001e0: da80 793c 6538 09bb c0f3 4cba be33 993c
000001f0: 90c4 65bb 94bb eebc 78c4 0bbc f1be 903c
00000200: f37b a6bb 8b74 eabc 4125 403c 142c 083c
00000210: f06f 3a3c 9532 80bc c687 203c ca06 283c
00000220: c8f3 a0bb a3a9 23bc dcd5 b5bb 3275 bb3b
00000230: 0290 0bbc ef39 8d3c b9e7 013d 6821 d13c
00000240: a0ae 95bb 596d ffbc e017 b9bc a0da 42bb
00000250: eda3 cbbb 5de8 5fbc 86b8 5d3c 1f10 2b3c
00000260: e4b5 cc3c eb04 373c 8b16 6b3c bf37 84ba
00000270: a09e 7a3c 31df 423c 9228 c83c f96d 81bb
00000280: 70ae 523c b10a 7fbb e0c6 2cbb bce3 63bb
00000290: 7b0d 58bc 1852 9c3b b300 2f3c d6ed 93bb
000002a0: da19 fc3a a82f 1c3c 7c17 b33b b4a8 063c
000002b0: 8b38 b13c e866 d53c 42e3 753c 0f32 a1ba
000002c0: 5044 06b9 7168 f5bb cd21 5c3a 4c62 423b
000002d0: 26ec 073d 0ca2 80bc a42c d3bc 3dbc 51bc
000002e0: a393 dbbb 6fd6 a83b cd55 86bc b21d 87bc
000002f0: afbe 8a3b 9c07 afba 4caa dbba 7e22 09bc
00000300: 94ef 8ab9 8392 d939 33b1 d2bb 1574 f43a
00000310: 6660 d63c c85c 14bc 2a79 19bb 82c9 173b
00000320: 7e3b 2cbd 3ee4 0d3d 28bf 9fbc df75 c1bd
00000330: 5d26 9ebc ffad 1cbe b560 ca3c 16e5 d63b
00000340: ccf7 af3a b218 9d3b 3622 32bc 539e b6bd
00000350: 5daa a6bc e6ad 1cbb 5e0a 013d 8918 263c
00000360: 542f b3bc ca91 b43c 8401 aabd 8488 85bd
00000370: f558 9abc 2ea1 e13c 0601 3c3b 4a74 a3bd
00000380: a755 dbbb 75a3 8cbb 996f 11bd 9544 9ebb
00000390: ca08 103d eaf6 32be f3b0 683c c409 8bbb
000003a0: fa80 86bc 53b2 1a3c da26 35ba 6295 063b
000003b0: b13a 003b 5528 19bd 5c43 a63c 5f23 b13c
000003c0: b02a 80bc a265 0bbb df18 a23c bc45 15bb
000003d0: 79ba e13c 2baa 093c be9c 08bd 4ff7 2f3b
000003e0: 4269 cfbd f6e1 e63c e443 eaba 73f9 d63b
000003f0: a6b8 f13b dcdf 333c deb4 c43b 01ee 8e3c

w2 f4 [200, 20]
0.022690926 0.004029521 0.00010137327 -0.0060329246 -0.022705799 -0.015197429 -0.0024009915 -0.001780932
0.016160645 -0.010395242 -0.037743524 0.019252455 0.008290629 0.0025167468 -0.007903505 0.00016493678
0.004804151 0.015716739 0.023324292 -0.02245412 -0.07097467 0.040736645 0.02500664 -0.005358455
-0.03368514 0.059490044 -0.012845111 0.023366569 0.003366848 0.049848717 -0.036760192 0.04290335
0.046566255 0.059120838 -0.10778164 0.008735367 0.01183772 -0.037979323 -0.0058184452 0.055369653
0.0040590563 -0.0069056107 -0.00971774 -0.0028942926 -0.009134321 -0.01716256 0.0084306635 -0.0047343713
0.0113541065 -0.009978285 -0.00093341 0.013039694 0.0014599207 -0.004841785 0.0037821373 0.002053797
-0.0073075998 -0.0151768485 -9.8881574e-05 -0.012209884 0.0010397527 0.0048620403 0.008085296 0.021683382
-0.020672336 -0.0048511853 0.012226253 0.0008226016 -0.012065123 -0.026358489 0.011870944 0.013534071
-0.03131165 -0.019260744 0.0004213034 0.0050421357 0.015385147 0.00037577093 -0.009525422 -0.00765022
-0.014261586 0.009364561 -0.0011215764 -0.0044528944 0.031447154 0.01862114 0.00048235568 -0.0076190024
0.00038100194 0.025036054 -0.0013830347 -0.006311022 -0.024143703 -0.0037298815 0.0019849099 -0.0069647096
-0.0061580776 -0.025429385 0.02780488 0.0023576813 -0.027216548 0.0013419082 0.0029202912 -0.028920388
0.0043982086 -0.009141357 0.031934787 -0.021222042 0.005029056 -0.010625429 -0.016603041 -0.017075323
-0.014022836 0.004695333 0.0011278278 0.020284176 0.006012678 -0.023415232 -0.0094514815 0.045010384
0.024362668 0.05391535 0.0042715212 0.019012822 0.025723439 0.011846413 -0.03996906 -0.014594399
-0.007720646 0.006005601 0.018800559 0.013893823 0.046352565 0.06342068 0.016752848 -0.0040429146
-0.014438838 0.0027280431 -0.039777216 0.044684656 0.014952126 0.05202513 -0.042118046 -0.029890789
-0.058963157 -0.06234932 -0.07207632 -0.0026402832 -0.056418262 0.03796302 0.04814482 -0.019393314
0.029153686 0.060456038 0.013153237 0.008397131 0.03520208 0.017028883 -0.037321016 0.011009651
0.051312126 0.011999634 0.004452173 0.03583808 0.04546242 0.022701273 -0.04731306 0.019189049
-0.0069264392 0.032880545 0.043687217 0.009274429 0.006096064 0.021485114 -0.00423908 -0.012008985
-0.049600635 0.053583674 -0.04681048 0.021629354 -0.015537188 0.011636251 0.010876578 0.019745646
-0.0231515 0.0019510345 0.010159434 -0.019067109 -0.023502104 0.0009075085 -0.010076381 0.0016301249
0.0015211592 0.0016285975 0.02334362 -0.0034685922 -0.017689541 -0.015326135 0.0066087954 0.015687807
-0.07486364 -0.028707001 0.04426645 -0.03486391 0.024156647 -0.028168373 0.04308304 -0.014324188
0.04734171 -0.011764319 0.0022500723 -0.039136495 -0.029388998 -0.12314334 -0.009888327 0.04528429
0.033288885 -0.083791 0.0675133 0.004296415 -0.016157515 0.0050668744 0.0047378247 0.004225691
0.01977321 0.008773561 0.010995619 0.009003344 -0.0017442257 0.0005269124 -0.0013825826 0.0069809365
-0.00010499444 -0.01692956 0.020626457 0.001921 0.025305193 0.013231537 -0.006085356 -0.015697325
0.00039138127 -0.06518693 0.007566178 -0.005070745 0.02492489 -0.02848872 0.038435996 -0.047794197
0.039571997 -0.08622502 -0.035283107 -0.03472053 -0.09135051 -0.076880656 0.07932781 0.049909834
00000000: 52e2 b93c 120a 843b 5c98 d438 d7af c5bb
00000010: 8301 babc a3fe 78bc f459 1dbb 296e e9ba
00000020: 5463 843c ce50 2abc f498 1abd 53b7 9d3c
00000030: 6bd5 073c 01f0 243b b47d 01bc e1f2 2c39
00000040: 246c 9d3b 64c0 803c 9612 bf3c b4f1 b7bc
00000050: 2b5b 91bd 78db 263d bada cc3c fa95 afbb
00000060: 6ef9 09bd d5ab 733d 4d74 52bc 3f6b bf3c
00000070: 56a6 5c3b 2b2e 4c3d db91 16bd 6cbb 2f3d
00000080: 42bc 3e3d b128 723d 9fbc dcbd c91e 0f3c
00000090: fff2 413c 3590 1bbd a8a8 bebb 4acb 623d
000000a0: d501 853b 7648 e2bb 2837 1fbc 2cae 3dbb
000000b0: 1ea8 15bc 7f98 8cbc c420 0a3c c922 9bbb
000000c0: 9306 3a3c f67b 23bc 16b0 74ba 71a4 553c
000000d0: cf5a bf3a d6a7 9ebb bcdd 773b ff98 063b
000000e0: 9774 efbb 51a8 78bc a45e cfb8 f70b 48bc
000000f0: 5048 883a c051 9f3b 3078 043c 59a1 b13c
00000100: 0859 a9bc b1f6 9ebb 9f50 483c dca3 573a
00000110: cbac 45bc c2ed d7bc 597e 423c 02be 5d3c
00000120: a540 00bd b5c8 9dbc 63e2 dc39 8038 a53b
00000130: fc11 7c3c 1f03 c539 8410 1cbc b2ae fabb
00000140: 6da9 69bc d16d 193c dc01 93ba 96e9 91bb
00000150: bbce 003d 5c8b 983c afe4 fc39 d3a8 f9bb
00000160: 37c1 c739 6918 cd3c f246 b5ba b1cc cebb
00000170: 04c9 c5bc 0771 74bb 4315 023b 3838 e4bb
00000180: b3c9 c9bb 4951 d0bc 0fc7 e33c 5483 1a3b
00000190: 3df5 debc f8e2 af3a 5b62 3f3b 73ea ecbc
000001a0: d91e 903b a1c5 15bc 0dce 023d d9d9 adbc
000001b0: c8ca a43b 4816 2ebc 1a03 88bc 8ce1 8bbc
000001c0: 0ac0 65bc 4fdb 993b 9fd3 933a 002b a63c
000001d0: 0006 c53b 4dd1 bfbc 63da 1abc cf5c 383d
000001e0: 3894 c73c 58d6 5c3d 1ef8 8b3b c7c0 9b3c
000001f0: f6b9 d23c 7517 423c 99b6 23bd 591d 6fbc
00000200: 79fd fcbb a2ca c43b a103 9a3c eba2 633c
00000210: 30dc 3d3d b4e2 813d 453d 893c 6d7a 84bb
00000220: e090 6cbc f8c8 323b 6fed 22bd 4207 373d
00000230: c3f9 743c 4d18 553d f983 2cbd 87dd f4bc
00000240: 5a83 71bd 0062 7fbd c09c 93bd 9a08 2dbb
00000250: d616 67bd 1d7f 1b3d 8133 453d bade 9ebc
00000260: b6d3 ee3c c0a0 773d ad80 573c 1f94 093c
00000270: 0e30 103d 2880 8b3c ecdd 18bd d361 343c
00000280: aa2c 523d 1d9a 443c 89e3 913b f3ca 123d
00000290: cd36 3a3d 05f8 b93c 57cb 41bd 5a32 9d3c
000002a0: 2ff7 e2bb c0ad 063d 5ef1 323d c6f3 173c
000002b0: 7ec1 c73b 8d01 b03c fbe7 8abb 55c1 44bc
000002c0: 092a 4bbd 8e7a 5b3d 59bc 3fbd 0b30 b13c
000002d0: b18f 7ebc f9a5 3e3c ad33 323c 9fc1 a13c
000002e0: 37a8 bdbc dbb9 ff3a c173 263c a032 9cbc
000002f0: 7c87 c0bc dde5 6d3a 6817 25bc eaa9 d53a
00000300: a261 c73a aa76 d53a 1f3b bf3c 5251 63bb
00000310: a8e9 90bc 781a 7bbc 988e d83b b783 803c
00000320: 1c52 99bd f22a ebbc bd50 353d 76cd 0ebd
00000330: 29e4 c53c 5cc1 e6bc d777 303d 00b0 6abc
00000340: 62e9 413d 21bf 40bc f375 133b 974d 20bd
00000350: 32c1 f0bc 9332 fcbd a602 22bc 057c 393d
00000360: ed59 083d 9e9a abbd 6a44 8a3d f1c8 8c3b
00000370: c45c 84bc 0608 a63b c13f 9b3b aa77 8a3b
00000380: 6dfb a13c fbbe 0f3c f826 343c c382 133c
00000390: 819e e4ba 7e20 0a3a c637 b5ba 57c0 e43b
000003a0: 7630 dcb8 dcaf 8abc d1f8 a83c 10ca fb3a
000003b0: d64c cf3c 17c9 583c ab67 c7bb ad97 80bc
000003c0: 4e32 cd39 ba80 85bd b4ed f73b 7e28 a6bb
000003d0: 482f cc3c 2d61 e9bc 106f 1d3d d9c3 43bd
000003e0: 3f16 223d be96 b0bd 0585 10bd 1d37 0ebd
000003f0: fa15 bbbd 9b73 9dbd 9e76 a23d 416e 4c3d
