code_tidy/model_step3/sss3_f05.pt (torch, 737819 bytes, 3 tensors)

w1 f4 [700, 200]
0.014893123 0.018404748 0.011868535 -0.017034248 0.003698503 -0.012912533 0.0027137974 -0.00043595798
0.0059997044 0.016494174 0.0027017188 -0.027222423 -0.012081955 -0.0012812782 0.0047697364 -0.0070526632
0.013743003 0.004889267 -0.0025178231 0.004320962 -0.023354542 0.0153326765 0.008104663 0.010415523
0.011710724 0.010240126 -0.00068497343 0.005637889 -0.0027666627 -0.0013170092 0.0061433613 0.013933716
-0.010526571 0.005318928 -0.0031392956 0.013004879 0.018924402 -0.004120817 -0.015050282 -0.0049636094
-0.022099849 0.0067187613 -0.0015446364 -0.0033488635 -0.012134547 0.019457769 -0.0074133715 0.0034872266
-0.006165971 -0.009623535 0.00065101037 0.00989888 -0.008062778 0.005523075 -0.0016038587 -0.010081645
-0.0060614976 -0.0029052827 -0.011784895 -0.007497504 -0.013617516 0.0021140098 -0.009914678 0.0011285536
0.013763937 0.009515726 0.015158612 0.005165881 -0.00013620616 0.0008835436 -0.015331017 -0.003162631
0.007894614 0.0023659333 -0.010098469 0.004408598 0.005676346 -0.005483013 -0.022566257 -0.008217103
-0.0017960698 -0.013671222 -0.012520058 0.015303691 -0.0017223251 0.001975396 -0.009523818 0.0029301606
0.015011681 -0.0060234005 0.007926844 0.008776772 -0.003331549 -0.017596647 0.0038598306 -0.007869885
-0.018081866 0.009817608 0.0052328985 -0.003327792 0.011674695 0.008463302 0.010095507 -0.0019424151
-0.0004795868 0.012895371 -0.00030535355 0.0023487322 -0.00083766994 0.009518369 0.0020313002 -0.006548491
-0.015353937 0.002539995 -0.0011536289 0.004356373 0.012545638 0.0025553894 0.003454413 0.012652782
-0.0019834752 0.00040956264 0.0007076113 -0.00057690864 0.013706987 0.015192506 -0.006238342 -0.0038785595
0.01569102 0.0059559136 -0.0012659992 0.006998903 -0.006297246 0.0047597354 0.007939354 0.0087570725
0.0109140845 -0.0044573494 -0.014781766 0.009181172 -0.013410536 0.019879734 -0.007914909 0.0036570197
-0.013800061 0.0050270306 0.009010772 0.0027574406 -0.0014071453 -0.0022174846 -0.0072831684 -0.007967322
0.008499393 0.00041026392 0.0011110201 0.007964983 -0.014947621 -0.010767333 -0.009224617 -0.0007543899
-0.025262794 0.0061296327 0.0010631686 0.008753808 -0.0008123882 -0.008412409 -0.0030880955 -0.0028508701
-0.002897985 0.01939812 0.000950936 0.0050602723 -0.017987771 0.00010855246 0.005043041 0.015440073
0.009467133 -0.00570338 -0.009645476 0.0066260654 0.0021319175 -0.0047689746 -0.02601048 -0.0026137426
-0.004493816 -0.015701678 -0.008751833 0.008404323 0.0015888572 -0.0034238778 -0.0110938735 0.011212702
0.019193374 -0.008054088 -0.0016346419 -0.0040413872 -0.010533275 0.00065271265 0.0036212918 0.0039443783
-0.0055371816 0.01752119 0.004659906 -0.0073232073 -0.0015384053 0.008453215 0.0152339 0.0060755727
0.0046744435 -0.0077055776 -0.011570418 -0.017691541 -0.00014404654 0.009789342 -0.00035188743 -0.020488786
0.0007548936 0.021967262 -0.010028754 0.021802375 -0.013666566 0.008324773 0.013312168 0.007243438
0.0075057037 0.011111067 0.0046831067 -0.0001516402 -0.002701016 -0.007444117 0.0060827537 0.027505098
0.0050999867 -0.011291722 -0.015803536 -0.025272025 -0.004132222 0.0017526875 -0.022521162 0.012963807
-0.009750682 0.00020479699 0.00061060826 0.0027699128 -0.019958975 0.0036125593 -0.0074570053 0.009842186
0.01701753 -0.005877722 -0.0016895103 0.0079006655 -0.0077210804 -0.005327457 0.014629454 -0.0042622536
00000000: 4902 743c 8ec5 963c 3e74 423c 688b 8bbc
00000010: 9562 723b 178f 53bc f7d9 313b 4a91 e4b9
00000020: 2b99 c43b ca1e 873c 520f 313b 8f01 dfbc
00000030: 64f3 45bc 90f0 a7ba 734b 9c3b 071a e7bb
00000040: 552a 613c 2536 a03b 1002 25bb db96 8d3b
00000050: 0652 bfbc e835 7b3c 6cc9 043c dfa5 2a3c
00000060: 56de 3f3c 34c6 273c ca8f 33ba 0abe b83b
00000070: e650 35bb 7f9f acba 404e c93b 3e4a 643c
00000080: a477 2cbc 674a ae3b a4bc 4dbb 6a12 553c
00000090: 5907 9b3c eb07 87bb 7595 76bc c6a5 a2bb
000000a0: be0a b5bc 0e29 dc3b 6675 caba 9b78 5bbb
000000b0: fbcf 46bc e665 9f3c deeb f2bb f489 643b
000000c0: ea0b cabb 08ac 1dbc 91a8 2a3a e92e 223c
000000d0: be19 04bc e9fa b43b 9138 d2ba 7c2d 25bc
000000e0: 879f c6bb 8e66 3ebb 6f15 41bc 9fad f5bb
000000f0: 001c 5fbc 338b 0a3b 2c71 22bc faeb 933a
00000100: 2382 613c d9e7 1b3c d45b 783c 8d46 a93b
00000110: 90d2 0eb9 9b9d 673a f22e 7bbc 2544 4fbb
00000120: 6958 013c c60d 1b3b 0d74 25bc 0076 903b
00000130: a400 ba3b d9aa b3bb dfdc b8bc 07a1 06bc
00000140: 1a6a ebba 43fd 5fbc ee20 4dbc 55bc 7a3c
00000150: a4bf e1ba a575 013b ca09 1cbc f007 403b
00000160: 8ef3 753c f25f c5bb 98df 013c 73cc 0f3c
00000170: 1e56 5abb d826 90bc 36f5 7c3b b1f0 00bc
00000180: 6c20 94bc 08da 203c bc78 ab3b 1617 5abb
00000190: 3847 3f3c a9a9 0a3c a067 253c a398 feba
000001a0: 0d71 fbb9 1b47 533c dc17 a0b9 30ed 193b
000001b0: 1497 5bba eff2 1b3c 901f 053b b994 d6bb
000001c0: 148f 7bbc 0b76 263b 5d35 97ba e8bf 8e3b
000001d0: 388c 4d3c 5278 273b 6f63 623b 9d4d 4f3c
000001e0: 31fd 01bb 91ba d639 fe7e 393a af3b 17ba
000001f0: 4593 603c fde9 783c 016b ccbb 6e2f 7ebb
00000200: 748a 803c d329 c33b e2ef a5ba 0e57 e53b
00000210: 2159 cebb 8ef7 9b3b 1014 023c d379 0f3c
00000220: fdd0 323c f50e 92bb 382f 72bc a06c 163c
00000230: ddb7 5bbc d3da a23c 89ad 01bc 9caa 6f3b
00000240: a719 62bc cab9 a43b eba1 133c 2db6 343b
00000250: f66f b8ba 3853 11bb a5a7 eebb 5f89 02bc
00000260: 0a41 0b3c b118 d739 a69f 913a 8f7f 023c
00000270: dee6 74bc 7869 30bc d922 17bc 40c2 45ba
00000280: ebf3 cebc 16db c83b 055a 8b3a 226c 0f3c
00000290: 73f6 54ba 33d4 09bc a561 4abb aad5 3abb
000002a0: 1fec 3dbb cee8 9e3c 3c48 793a a4d0 a53b
000002b0: 175b 93bc a8a6 e338 1840 a53b 5cf8 7c3c
000002c0: 091c 1b3c 6be3 babb 0f08 1ebc 771f d93b
000002d0: a4b7 0b3b 0f45 9cbb ee13 d5bc 534b 2bbb
000002e0: dc40 93bb cea0 80bc d963 0fbc 49b2 093c
000002f0: 3341 d03a 2363 60bb 14c3 35bc 7bb5 373c
00000300: 6c3b 9d3c 4bf5 03bc 7b41 d6ba 9d6d 84bb
00000310: c293 2cbc ce1a 2b3a 3253 6d3b d83f 813b
00000320: 3f71 b5bb 9988 8f3c 20b2 983b 84f7 efbb
00000330: 51a4 c9ba 5a7f 0a3c 9c97 793c 9915 c73b
00000340: 132c 993b 127f fcbb da91 3dbc daed 90bc
00000350: 330b 17b9 7a63 203c 887d b8b9 19d8 a7bc
00000360: 0de4 453a b0f4 b33c a54f 24bc e59a b23c
00000370: bce9 5fbc a164 083c 481b 5a3c 5d5a ed3b
00000380: 68f2 f53b 310b 363c bf74 993b 9b01 1fb9
00000390: 8703 31bb c8ed f3bb d651 c73b 5f52 e13c
000003a0: ca1d a73b ea00 39bc 6b76 81bc 4707 cfbc
000003b0: 9767 87bb 6fba e53a 4d7e b8bc 2666 543c
000003c0: 53c1 1fbc c6be 5639 3a11 203a 6d87 353b
000003d0: 0181 a3bc b0c0 6c3b e559 f4bb 1f41 213c
000003e0: 5968 8b3c e899 c0bb 8f72 ddba cb71 013c
000003f0: 1e01 fdbb f391 aebb 61b0 6f3c 60aa 8bbb

v1 f4 [200, 200]
0.0148762055 -0.0025328714 0.00015098593 -0.044780802 0.00045368008 -0.0036373695 0.009435643 0.006688063
0.019006662 -0.009388209 -0.014845256 0.0055630384 -0.018102242 0.0028542907 0.006606293 0.031540934
0.006071286 0.014929033 -0.06499134 0.011129083 0.01633149 -0.04952867 0.011453368 -0.0065225805
-0.0074135894 0.00894037 0.0041617914 -0.013628293 0.009668426 -0.045977827 -0.0021139882 0.0165528
-0.021709079 0.0071516004 -0.026982814 0.022515537 0.0250823 -0.053897932 -0.046465434 -0.020893158
0.0019239116 0.015172155 -0.027836746 -0.0016096194 -0.011351058 0.026463231 0.005585246 -0.018847367
0.008990596 0.015436248 -0.012584741 -0.004291856 0.022426022 0.0018008135 -0.016814934 -0.021688538
-0.0069989557 -0.024855208 -0.003788535 0.016404942 -0.013057736 -0.0010887076 -0.021196343 0.020523973
0.0031956257 0.008370296 -0.07268961 -0.02355877 -0.05888044 -0.014826213 0.021665383 0.016305188
0.0036954274 -0.012976062 0.030505022 -0.022244409 -0.00355689 -0.014589986 -0.01784584 0.010763556
-0.050160408 -0.016801622 0.0014508561 -0.0019730804 -0.014568084 -0.035526093 0.02485803 0.021224918
-0.021572197 0.003632064 0.038291186 0.0052638245 -0.008673525 -0.027745793 0.005694896 -0.00516002
-0.037842773 -0.0024018514 -0.024331363 -0.011255746 0.00020599763 0.017388888 -0.012133709 -0.003399785
0.0051778518 -0.035710566 0.019260269 0.028544817 -0.03490669 0.0029298137 -0.015815614 -0.008788917
0.018896738 -0.0066811685 -0.014320362 -0.013838986 -0.01181665 0.009497917 -0.021466358 0.0079848
-0.007817745 -0.0019782747 -0.035297852 -0.003984054 0.03826375 -0.016071426 0.004441079 -0.013754122
-0.007825006 -0.05480833 0.010286444 0.009927558 0.015104343 0.004423154 0.038078327 0.026377281
-0.0112006655 -0.03013116 -0.023346707 -0.0014996388 -0.008511251 0.025459174 -0.025653876 -0.02936433
0.0056857443 0.00329599 -0.017931746 -0.0052063293 -0.003740993 0.029454507 -0.012352993 -0.008865981
-0.0011537506 -0.018071322 -0.028119711 -0.024593448 -0.01388045 -0.039183583 0.0071641603 -0.009917599
0.009816847 -0.022845773 -0.021689817 0.003173807 -0.012574868 -0.00814021 0.01331657 0.027278583
0.015813729 -0.020784708 0.0121215135 0.00415991 -0.004526589 0.0050490615 0.012179416 0.0043825875
-0.0036023213 0.0066751144 0.0028933072 0.029558582 -0.000120125274 0.021229226 -0.022655904 -0.0023597216
-0.028426265 -0.008464426 0.013578897 -0.035031684 -0.02047701 -0.066786796 -0.0059403996 -0.009872354
0.017609186 -0.04464214 0.0057552946 -0.032275777 -0.01714665 -0.041787546 0.023963274 0.0015266377
-0.066449866 0.044587042 0.0101653775 -0.0045437524 -0.0031813765 -0.014472786 -0.0053549656 0.014130766
0.00831841 -0.01881078 0.0067459396 -0.041149363 -0.023952505 -0.0025094165 0.009755448 0.00710962
-0.027007645 0.01351887 -0.013881695 0.011623536 0.013585731 0.018095175 -0.011753815 -0.01822908
-0.008074484 0.012635088 -0.019140832 -0.0012100985 -0.023992386 -0.022415722 0.03146723 0.00080621865
-0.027234595 0.0034960953 -0.010515637 -0.020933308 0.01267585 -0.0017150614 -0.049091645 -0.00065095106
0.009119544 0.008546383 0.0030834957 -0.01535682 -0.03482098 0.007986532 0.0010341309 0.028908173
-0.091298856 -0.008091687 0.036574986 -0.027057027 -0.08664901 -0.010514744 0.007765665 -0.07547467
00000000: 54bb 733c 88fe 25bb fa51 1e39 136c 37bd
00000010: e9db ed39 ef60 6ebb f597 1a3c 8a27 db3b
00000020: dcb3 9b3c 01d1 19bc 8439 73bc 264a b63b
00000030: 274b 94bc 0d0f 3b3b 9a79 d83b 1131 013d
00000040: a3f1 c63b e798 743c 2e1a 85bd c256 363c
00000050: 9ec9 853c 93de 4abd e8a6 3b3c 5fbb d5bb
00000060: b2ed f2bb a17a 123c a35f 883b 3449 5fbc
00000070: 5168 1e3c 3f53 3cbd d68a 0abb bd99 873c
00000080: 3dd7 b1bc f957 ea3b 100b ddbc 8172 b83c
00000090: 6579 cd3c 14c4 5cbd 8a52 3ebd 2128 abbc
000000a0: c32b fc3a a194 783c e309 e4bc ddf9 d2ba
000000b0: caf9 39bc 6bc9 d83c 7004 b73b cb65 9abc
000000c0: 4b4d 133c 51e8 7c3c 3b30 4ebc b3a2 8cbb
000000d0: c7b6 b73c 4609 ec3a 79bf 89bc 29ac b1bc
000000e0: 7f57 e5bb 269d cbbc 1249 78bb a863 863c
000000f0: 1df0 55bc f7b2 8eba f4a3 adbc e421 a83c
00000100: b46d 513b 9123 093c 4ade 94bd 52fe c0bc
00000110: 9e2c 71bd a5e9 72bc 9a7b b13c 7592 853c
00000120: fc2e 723b 8c99 54bc abe5 f93c e839 b6bc
00000130: b61a 69bb d60a 6fbc 7031 92bc a059 303c
00000140: 0075 4dbd 8ea3 89bc a72a be3a cc4e 01bb
00000150: f9ae 6ebc cf83 11bd 11a3 cb3c e1df ad3c
00000160: 2db8 b0bc ec07 6e3b 38d7 1c3d 297c ac3b
00000170: 671b 0ebc 254b e3bc 409c ba3b 6315 a9bb
00000180: 0601 1bbd 6168 1dbb 9152 c7bc 056a 38bc
00000190: 1101 5839 2473 8e3c 77cc 46bc edce 5ebb
000001a0: f8aa a93b 3e45 12bd b6c7 9d3c d2d6 e93c
000001b0: 51fa 0ebd 1e02 403b bf8f 81bc 64ff 0fbc
000001c0: 55cd 9a3c b4ed dabb f49f 6abc eabc 62bc
000001d0: 9f9a 41bc 279d 1b3c 37da afbc aed2 023c
000001e0: 0016 00bc f1a5 01bb 7b94 10bd ab8c 82bb
000001f0: 73ba 1c3d 39a8 83bc 7986 913b f858 61bc
00000200: 7434 00bc b37e 60bd 7988 283c 32a7 223c
00000210: 3578 773c 1bf0 903b 05f8 1b3d 2b15 d83c
00000220: ff82 37bc 9fd5 f6bc 9841 bfbc 878f c4ba
00000230: c672 0bbc c28f d03c 1428 d2bc 778d f0bc
00000240: 7b4f ba3b 8901 583b 99e5 92bc db99 aabb
00000250: 732b 75bb 944a f13c 3564 4abc 9f42 11bc
00000260: 7239 97ba 4f0a 94bc 4f5b e6bc 3378 c9bc
00000270: d46a 63bc f77e 20bd 55c1 ea3b 6d7d 22bc
00000280: d7d6 203c 0f27 bbbc d8ae b1bc a5ff 4f3b
00000290: d206 4ebc 845e 05bc be2d 5a3c 5677 df3c
000002a0: cb8b 813c b144 aabc 5099 463c db4f 883b
000002b0: c853 94bb 9972 a53b 2c8c 473c cf9b 8f3b
000002c0: ec14 6cbb ebba da3b a49d 3d3b d724 f23c
000002d0: c4eb fbb8 eae8 ad3c e098 b9bc 8fa5 1abb
000002e0: 33de e8bc 60ae 0abc 067a 5e3c 627d 0fbd
000002f0: 67bf a7bc 84c7 88bd afa7 c2bb a7bf 21bc
00000300: 2441 903c adda 36bd e996 bc3b 9b33 04bd
00000310: 2277 8cbc 6b29 2bbd a14e c43c 7619 c83a
00000320: de16 88bd e7a0 363d af8c 263c c2e3 94bb
00000330: a47e 50bb 441f 6dbc b578 afbb ba84 673c
00000340: f149 083c 1119 9abc 0b0d dd3b 3c8c 28bd
00000350: 0b38 c4bc 0675 24bb 51d5 1f3c d1f7 e83b
00000360: 233f ddbc 407e 5d3c 0d70 63bc a570 3e3c
00000370: b096 5e3c 553c 943c 1393 40bc 2755 95bc
00000380: d74a 04bc 6603 4f3c 3ccd 9cbc 2b9c 9eba
00000390: ae8b c4bc 2da1 b7bc c8e3 003d 6b58 533a
000003a0: 161b dfbc bf1e 653b c749 2cbc 547c abbc
000003b0: 5eae 4f3c e9cb e0ba 5214 49bd 96a4 2aba
000003c0: 246a 153c 2106 0c3c 7914 4a3b 2c9b 7bbc
000003d0: 72a0 0ebd f1d9 023c ad8b 873a d5d0 ec3c
000003e0: e5fa babd ff92 04bc a7cf 153d b3a6 ddbc
000003f0: 0975 b1bd 0846 2cbc 1f77 fe3b 7792 9abd

w2 f4 [200, 20]
0.043754343 0.028365089 0.010263279 -0.045256324 -0.056399066 -0.003463303 -0.046177365 0.016431727
-0.042610656 0.016329864 0.015292527 -0.067812756 -0.049608294 -0.012800264 0.025733393 -0.053650238
0.040395502 0.020116739 -0.027486736 -0.026913783 0.030396903 0.016024018 0.014858446 0.0068281605
0.039460074 0.040615145 -0.04393063 0.04627307 -0.026076581 0.0014071305 -0.031060405 0.041825064
0.025586985 0.01457153 -0.046972238 0.030295325 -0.023579411 -0.07738348 -0.03749106 0.030231897
0.002406809 -0.016515316 0.00855361 -0.031420786 0.0385223 0.073749386 -0.039205752 -0.049759485
-0.029684253 -0.049006835 -0.0026028561 0.028370738 0.019976439 0.055960946 -0.044245355 -0.014676633
-0.045220718 -0.017033752 0.03755824 -0.055988744 0.009898114 0.0062071746 -0.0068161264 -0.0023322378
-0.008117912 -0.01168146 0.0005433274 -0.009743465 -0.0039077117 -0.0011560876 -0.029021582 0.016490463
0.011306835 -0.008246006 -0.018050028 0.022634877 0.0040948307 0.002462622 -0.026007127 -0.016656576
-0.015640648 -0.02649785 0.08954757 -0.03403968 -0.038335532 0.028409107 -0.021068038 0.021722317
-0.006339513 0.014946118 -0.029729897 0.027243327 -0.041188005 -0.0068481336 -0.026302535 0.024690468
-0.008660714 -0.023355477 -0.007489658 -0.01570296 0.0020072944 0.0069985166 -0.00484985 -0.02307989
0.010873402 0.027066812 0.0016266918 -0.05201438 0.0101570925 -0.02927657 0.0014994758 0.015359828
-0.019558024 -0.011642349 -0.0058188615 0.034601614 0.012165878 0.015100156 -0.028739713 0.018031664
0.015335011 -0.030178813 -0.0037137354 0.014641067 0.015708031 0.04718555 0.047986064 0.00039981937
-0.003811256 -0.017715681 0.005887964 -0.023898305 -0.035255603 0.05019614 0.021541664 0.0074483785
0.019329954 -0.024566166 -0.002155096 -0.04783732 -0.015835999 0.013465676 0.00793874 0.024383321
-0.07876174 0.021520147 -0.012474618 0.03505689 -0.03464268 0.030570425 -0.07206101 0.028109688
0.01485157 0.046895795 0.01426016 0.010293686 0.06959863 -0.0152352145 -0.009121346 -0.043772493
-0.047473934 -0.0030876526 -0.05286677 -0.044659037 0.036389444 0.04695021 0.033799622 -0.014695146
-0.023776604 0.021084823 0.0013471715 -0.01526085 -0.016548688 -0.025311418 -0.0060485452 -0.037743457
0.05408843 -0.02744403 0.07927491 -0.03776472 0.002288343 0.01311947 0.0019917013 -0.017024819
-0.0076087224 0.0071604345 0.012580277 0.0061599924 0.03202101 -0.003686646 0.013840885 0.0045101843
0.019394001 0.008264462 -0.02187636 -0.0013200649 -0.0073389667 0.051028974 0.00298792 0.03822655
-0.037342403 -0.07087996 0.031687796 0.01260564 0.02035997 -0.013984478 0.0125225885 0.03759206
0.07285219 -0.078701295 -0.036950234 0.07342596 -0.049765415 0.0015986912 -0.002596672 0.08406312
-0.0149513995 0.041145954 -0.05165075 -0.075051695 0.027609421 -0.0034798093 0.018670892 -0.023605464
0.009786012 0.002164628 0.001349718 0.013550399 -0.0037268677 0.000804356 -0.0062771626 -0.0005115767
-0.00717397 0.007850295 0.01101428 -0.005565112 -0.002858176 0.008490336 0.023539484 -0.010303182
-0.0026983905 0.019191349 0.019578092 0.005936651 0.00961367 -0.013912876 0.001571329 -0.031433288
-0.003456579 -0.00060588424 -0.0029787605 0.020094048 0.014691972 0.008955048 -0.01229328 0.009870364
00000000: c137 333d e75d e83c 5027 283c b25e 39bd
00000010: b502 67bd 95f8 62bb 7a24 3dbd d49b 863c
00000020: 8388 2ebd 35c6 853c 828d 7a3c 6ae1 8abd
00000030: 1132 4bbd 33b8 51bc d6ce d23c 5ac0 5bbd
00000040: c175 253d dccb a43c dd2b e1bc 4b7a dcbc
00000050: ed02 f93c cd44 833c d770 733c c3be df3b
00000060: e3a0 213d 115c 263d 9bf0 33bd d588 3d3d
00000070: 8e9e d5bc 776f b83a 6472 febc c250 2b3d
00000080: cc9b d13c 6dbd 6e3c f665 40bd e72d f83c
00000090: 9c29 c1bc 3b7b 9ebd 3a90 19bd e2a8 f73c
000000a0: 8ebb 1d3b 214b 87bc 7124 0c3c 15b3 00bd
000000b0: 8fc9 1d3d eb09 973d 3696 20bd 9ad0 4bbd
000000c0: 642c f3bc 64bb 48bd ae94 2abb c069 e83c
000000d0: a1a5 a33c 4e37 653d 9e3a 35bd 4376 70bc
000000e0: 5c39 39bd 5e8a 8bbc abd6 193d 7454 65bd
000000f0: b32b 223c 8e65 cb3b d059 dfbb 75d8 18bb
00000100: fe00 05bc 9863 3fbc 166e 0e3a 0ea3 1fbc
00000110: 430c 80bb dd87 97ba abbe edbc 0217 873c
00000120: 4e40 393c 421a 07bc a7dd 93bc c76c b93c
00000130: ee2d 863b f163 213b e60c d5bc 5f73 88bc
00000140: d120 80bc 0512 d9bc b764 b73d 316d 0bbd
00000150: b805 1dbd 37ba e83c e196 acbc 00f3 b13c
00000160: b1bb cfbb 90e0 743c 1d8c f3bc 662d df3c
00000170: c1b4 28bd 4f66 e0bb 6a78 d7bc aa43 ca3c
00000180: abe5 0dbc fc53 bfbc ce6b f5bb 7ea3 80bc
00000190: d08c 033b d053 e53b 7eeb 9ebb 0a12 bdbc
000001a0: 5a26 323c 38bb dd3c b836 d53a 080d 55bd
000001b0: ef69 263c 6bd5 efbc 0f8a c43a caa7 7b3c
000001c0: 2638 a0bc 8dbf 3ebc 26ac bebb 6cba 0d3d
000001d0: 6453 473c a566 773c 8c6f ebbc 24b7 933c
000001e0: b33f 7b3c 8f39 f7bc 2462 73bb 16e1 6f3c
000001f0: 21ae 803c a345 413d 098d 443d d99e d139
00000200: 44c6 79bb 7a20 91bc d2ef c03b 61c6 c3bc
00000210: 2e68 10bd 789a 4d3d 2578 b03c 8711 f43b
00000220: da59 9e3c fc3e c9bc 833c 0dbb 11f1 43bd
00000230: 7fba 81bc 249f 5c3c 7d11 023c 88bf c73c
00000240: d64d a1bd 054b b03c 5762 4cbc d097 0f3d
00000250: 7ce5 0dbd d46e fa3c b994 93bd 4a46 e63c
00000260: 0054 733c ce15 403d 72a3 693c d9a6 283c
00000270: ba89 8e3d 1f9d 79bc b371 15bc c94a 33bd
00000280: 0774 42bd 375a 4abb d48a 58bd 65ec 36bd
00000290: 190d 153d dd4e 403d 7971 0a3d e9c3 70bc
000002a0: 27c7 c2bc 14ba ac3c 9393 b03a a508 7abc
000002b0: 1d91 87bc e459 cfbc e032 c6bb e298 1abd
000002c0: d48b 5d3d 4dd2 e0bc e25a a23d 2eaf 1abd
000002d0: 06f8 153b 0cf3 563c 3487 023b a277 8bbc
000002e0: 9752 f9bb 14a2 ea3b 821d 4e3c c3d9 c93b
000002f0: 7628 033d a89b 71bb e1c4 623c 2bca 933b
00000300: 2be0 9e3c ab67 073c 0d36 b3bc 0706 adba
00000310: b77b f0bb c203 513d fbd0 433b 7193 1c3d
00000320: 59f4 18bd 8329 91bd 10cb 013d e387 4e3c
00000330: f4c9 a63c 271f 65bc 8b2b 4d3c 22fa 193d
00000340: 8733 953d 252e a1bd 2159 17bd 5a60 963d
00000350: d2d6 4bbd 2d8b d13a ed2c 2abb 4929 ac3d
00000360: b7f6 74bc a988 283d bd8f 53bd b4b4 99bd
00000370: 272d e23c 830d 64bb b3f3 983c 3f60 c1bc
00000380: 8255 203c 6edc 0d3b 05e9 b03a 7e02 5e3c
00000390: 773e 74bb 6bdb 523a a8b0 cdbb 551b 06ba
000003a0: 9f13 ebbb 869e 003c 3d75 343c 8b5b b6bb
000003b0: 3c50 3bbb 0d1b 0b3c e0d5 c03c adce 28bc
000003c0: 7bd7 30bb 2d37 9d3c 3c62 a03c 3d88 c23b
000003d0: a882 1d3c d5f2 63bc 0df5 cd3a 31c0 00bd
000003e0: c687 62bb 34d4 1eba 4f37 43bb 469c a43c
000003f0: 99b6 703c 32b8 123c c169 49bc 4fb7 213c
