code_tidy/model_step3/sss3_f10.pt (torch, 737819 bytes, 3 tensors)

w1 f4 [700, 200]
00000000: 3c16 833b 3ed0 4e3c 5ab7 2e3b 4db9 17bc
00000010: 4bc4 593a 926f 51bc 4000 703a 8ae8 d5bb
00000020: 339a a0b9 2330 bb3b 4c6b b7bb 9f5f a6bb
00000030: c410 6cbb 1497 61bb f6a6 92bb d909 02bb
00000040: 4e9a a83c 822b 8bbb 3c81 c5bb 7158 793b
00000050: cff0 babb ee74 2a3b d58a c73b d33d 593c
00000060: 6f87 263c d0f8 7f3c 2c5a 903b 729e 973a
00000070: b79c 2334 c9eb 243b c7f4 c03b 5174 dc3a
00000080: 24ce 37bc ba6b c83a e9ae 123b 4ca8 743c
00000090: a478 1e3b 150c 7939 715d 85bb b69b d6bb
000000a0: de85 00bd 6129 463c a4ac e6bb d122 b1bb
000000b0: 3898 54bc 2abe 993c 19eb 1fbc d825 62ba
000000c0: 71e5 28bb b9b9 d5bb 24ee 253b 24b4 20bb
000000d0: 5053 19bc 87c4 283c 056f f5bb c096 c4bb
000000e0: 975d 51bc 7639 80ba 144e dabb 93c7 8c3b
000000f0: 17ab 0ebc fe87 413c c30b 18bc 5f74 133c
00000100: 30c2 0d3c ac5a ed3b f86e 083c 06a8 533a
00000110: 22b7 fdb7 8594 833b c8ef 20bc 091b 163c
00000120: a7e9 91ba 11c9 b33b ffcd c9bb aae6 403b
00000130: c998 1dba 6e15 b93a 5519 94bc cb4e bdbb
00000140: 6a5f 8eba 0e7d dbbb 5d69 94bb 79fe d93a
00000150: 7051 213b 3284 41bc 0a2f 893b 188a 30ba
00000160: 3716 993c 12d1 cebb 6fa8 1bbc 5354 ba3b
00000170: 0990 27bb 12c1 a4bc e7a2 123c 4998 2e3b
00000180: 52db c0bc e2f4 353c 33fa d93a 9745 073c
00000190: 9719 4d3c 4e75 a93b 2a78 113c 7195 a3bb
000001a0: 1aa1 13bc 0706 3b3b be85 df3a 8668 12bb
000001b0: 6504 d03b 9793 0f3c 84a7 e6ba 3f29 07bc
000001c0: 5dfc 6abc 9c6b a13b 9a47 853a 3d3d 023b
000001d0: 4587 363c 5b0b 723b 0061 adbb 57d3 403c
000001e0: f842 1abb 6df8 d2bb 0b2d 473b a653 4e3b
000001f0: aa8e 753c 038b a83b 3732 0e3a 1792 ee3b
00000200: 65f8 483c fc51 873b 1217 80bb af17 e2ba
00000210: ee69 2bbb 5993 0f3c 7284 a93b a5d3 0eb9
00000220: 9d40 833b ea74 56bb 49e6 9bbc e6b8 003b
00000230: 00d9 54bb 28d5 8c3c 37b1 05bb 9d70 5f3b
00000240: e78c 2ebc 2139 a23b 8f6b 1b3c 9887 e0bc
00000250: d887 f239 bade 6fba d514 94bb 26ac aebb
00000260: 241f c03a 980c a3bb d34e 39bc c112 723c
00000270: f3be 30bc a84b 16bb 43fa 64bc fdbb 3538
00000280: d9cc 99bc 397a 4d3b 33a4 37bb 955a ab3b
00000290: 0f94 bd3a 1ed7 28bc d4ef 03ba c38f 35bc
000002a0: 2767 e4bb f384 2a3c 1d75 763c 10f6 a6bb
000002b0: c443 2abc ce21 913a 2501 173b afcd 9b3c
000002c0: 35e7 453b 0361 5f3a 929c eebb 7748 1f3b
000002d0: 64f4 a6bb 0c69 2cbc b0e4 18bc ea82 b7bb
000002e0: 4d23 d8bb 6cc5 32bc c807 cbbb 8629 573b
000002f0: 6456 1a3c 702b 45bb c031 c7bb d884 603c
00000300: 9a1a 0b3c da8d 1dbc f817 963b 1abc 83bb
00000310: 56c1 2dbb 6032 f939 78a9 1f3b 34dd 513c
00000320: 862a 1bbc a1dc 753c f5e0 83bc 7a3a 4dbc
00000330: 869b 653b 02ca 163c 24ae 053c aebd ba3b
00000340: c5b4 84bb 40d4 a1bc e1fb 4fbb 313d f4b9
00000350: dba3 c4ba 7ae4 213c 0dfa ae3b d410 d9bc
00000360: 3476 2c3c 8ad9 153c dd74 4ebc 668b 6d3c
00000370: 1c43 c4bb f79d a3bb cafb 403c db68 4c3c
00000380: 9799 03bb db28 ea3b d2fe b7bb e0af 08bc
00000390: ab43 91bb 1a61 373b bd52 1e3c a20a ad3c
000003a0: 8daa 77bb 4fce 57bc 2933 63bc cf85 23bc
000003b0: 6c5a d3ba 8ad6 403c 0afa 13bc b546 fab9
000003c0: 2e6c 83bc c66e bcba 0873 8abb 1949 0b3c
000003d0: 4fe0 4abc 7f3e 1cbb b912 88bb 05e9 5e3c
000003e0: e474 cf3b fc10 eebb d51b 8c3b b70b d1bb
000003f0: fe89 94bb f6a0 ecbb 5cce 893b f8e2 babb
0.0040004533 0.012622891 0.002665958 -0.009260488 0.0008307143 -0.012782948 0.00091553107 -0.006527965
-0.00030632465 0.0057125255 -0.0055975076 -0.005077317 -0.0036020735 -0.0034422325 -0.0044754697 -0.0019842295
0.02058139 -0.00424713 -0.006027369 0.00380471 -0.005704976 0.0026009637 0.006089548 0.013259369
0.010164126 0.015623286 0.0044052806 0.0011567606 1.523757e-07 0.0025164953 0.0058885547 0.0016819333
-0.011218581 0.0015290894 0.0022382087 0.014932703 0.0024180794 0.00023750991 -0.004069977 -0.006549324
-0.031377666 0.012094826 -0.0070396233 -0.005405762 -0.012975745 0.018767435 -0.0097606415 -0.0008626855
-0.0025771523 -0.006522384 0.0025318945 -0.0024521435 -0.009358242 0.010300762 -0.007490041 -0.005999416
-0.012778661 -0.000978275 -0.0066621397 0.004296252 -0.008707783 0.011812208 -0.009280148 0.008999913
0.008652255 0.007243475 0.008327238 0.00080740487 -3.0245228e-05 0.0040155076 -0.009822793 0.009161719
-0.0011132256 0.0054866155 -0.00615859 0.0029434361 -0.00060118415 0.0014120766 -0.018078486 -0.005777215
-0.0010862176 -0.0066982573 -0.004529162 0.0016631625 0.002461519 -0.011811303 0.0041865157 -0.0006734445
0.01868735 -0.006311544 -0.009500607 0.0056863218 -0.002556803 -0.020111594 0.008949972 0.0026641062
-0.02354208 0.011105748 0.0016630351 0.008256338 0.012518308 0.0051714545 0.008878747 -0.00499218
-0.009010578 0.0028537528 0.0017053408 -0.0022340133 0.00634818 0.0087632155 -0.0017597531 -0.00824958
-0.014342395 0.004926158 0.0010168434 0.0019872927 0.011140649 0.0036933038 -0.0052911043 0.011769137
-0.0023538452 -0.006438306 0.0030391838 0.0031482964 0.014987627 0.0051435246 0.0005424353 0.007280599
0.012266253 0.0041296463 -0.003909 -0.001724949 -0.0026155668 0.008763158 0.0051732594 -0.00013621019
0.0040055052 -0.0032723495 -0.019030707 0.0019641458 -0.0032477975 0.017191485 -0.0020399818 0.0034094222
-0.010653711 0.004950658 0.009486093 -0.027408406 0.00046259048 -0.00091503153 -0.004519085 -0.0053305803
0.0014657718 -0.0049758665 -0.011310297 0.014774979 -0.010787713 -0.0022933278 -0.013975683 4.332884e-05
-0.018774437 0.0031353368 -0.0028021454 0.005229304 0.001446368 -0.010305194 -0.00050329906 -0.011081639
-0.0069703045 0.010407674 0.01504257 -0.005095251 -0.010392133 0.0011072697 0.0023041454 0.019018976
0.0030197625 0.0008521231 -0.007281848 0.0024304667 -0.0050950516 -0.010523092 -0.009331867 -0.005600323
-0.006596005 -0.010911327 -0.006195996 0.0032831146 0.009420011 -0.0030085705 -0.0060789287 0.013703547
0.008490229 -0.00961634 0.004580494 -0.004020226 -0.0026512942 0.00047530513 0.0024362486 0.012809087
-0.009470588 0.015006215 -0.016098479 -0.012526149 0.0035035326 0.009203436 0.008159194 0.005698881
-0.0040498697 -0.019754529 -0.0031735825 -0.00046584898 -0.0015002446 0.009881133 0.005339867 -0.026497282
0.010526229 0.009146104 -0.012601105 0.014498567 -0.0059894454 -0.004993196 0.011778781 0.012476171
-0.002008056 0.0071459836 -0.0056150937 -0.008342713 -0.0044331155 0.002798146 0.009663281 0.021123234
-0.0037790865 -0.013171746 -0.013867178 -0.009980633 -0.001612497 0.0117699 -0.009031782 -0.00047736397
-0.016042795 -0.0014376275 -0.0042251386 0.008501315 -0.012382581 -0.0023840962 -0.0041526225 0.013605361
0.006331073 -0.0072652083 0.004275779 -0.0063795703 -0.0045330515 -0.0072213365 0.004205508 -0.0057033263

v1 f4 [200, 200]
00000000: efe8 22bc 67c8 e53b 905b 403c f753 b6bb
00000010: 80fb de3b be1f 523c 503b 303c bcb5 f3bb
00000020: fbde 973b 0886 44bc f90d 893b a855 e63b
00000030: 4a37 653a b606 803b fd39 16bb 9b05 f03c
00000040: 40c5 233b b8e1 863c 1f12 dfbb 8780 ac3c
00000050: 359b 9d3c f1e0 f7bc 0b24 f53b 8fb4 b8bb
00000060: 608c 3ebc 967f fd3a 4385 05bc ec4f 4fbc
00000070: 7a98 303c 4b37 6abc d67e 70bc dc88 663c
00000080: cf95 8ebc 9ce4 13bb d485 fdbb 4b64 063c
00000090: 85e9 513c 9e4e 73bc f649 b2bc 27eb 8abc
000000a0: 602a 263b bd98 823b 2404 9abc 4143 ab3a
000000b0: f445 24bc 19c2 ce3c f153 e23b af5f 053b
000000c0: a6a6 173d 5212 ca3c 44ab 4cbc a469 85bb
000000d0: c1a9 8c3c 0536 823b 1445 01bc 537d 81bc
000000e0: ab8a 6abb 3f2e 45bc e23d cfbb 7612 983b
000000f0: c471 e4bb 0ced bc3a 1136 88bb f244 3c3c
00000100: e814 6f3c 823f aa3a eac5 f4bb 88aa 85bc
00000110: 733a b2bb 2c94 99bc 1655 313c 12f1 653c
00000120: 180a 0a3c 6f56 a53c a557 cd3c 721c 3bbc
00000130: faa4 3fbc 82e5 c53b 8697 b0bc 08af 9e3c
00000140: 15a8 86bc a89e 19bc 1a5b 1a3c 3d55 623c
00000150: 4911 feba ba09 49bc f209 713c 9132 dc3c
00000160: 4fb2 22bc 93b7 7cb9 f289 a43c 3173 0d3c
00000170: fac2 893b 5fb0 a3bc 7a0c 603c 5fb8 2e3a
00000180: e97a 2abc 7755 9fbb 54de 4dba d398 8d3b
00000190: 117d 4bba eae5 893b 5e8d cbbb 2a84 d33b
000001a0: 5a26 e9bb 760c e2bc b681 b63c 2619 f73c
000001b0: f3fa 95bc 1b9c ac3a e2f8 25bc 9d49 4dbb
000001c0: 0a31 213a 0954 3dbc 800e 63bb d73e 4bbc
000001d0: d23b 0f3c bc21 8a3c 69d1 dabc e28d 9238
000001e0: eafc 18ba 66fb 2fbc 3847 52bc d93b eabb
000001f0: 1f93 ea3c 37b3 44bb 1776 083c 9596 37bb
00000200: 3078 4b3b a16f 94bc 9abe 9e3c 2e74 6e3b
00000210: 4a34 d83b 1575 323c d6e8 a23c 9508 513c
00000220: 67a6 69bc 10bd 50bc b21f 583b 8a72 753b
00000230: d9a8 b13b 9c83 d33b ce69 91bb ca25 6ebc
00000240: 42c6 4f3c 7572 25ba 0953 b33c b08f cbbb
00000250: 0b1e 183b 5edd 843c 43cf 39bb 6bf7 d6bb
00000260: dd2c 993c cf56 00bc a8e4 86bc 02c4 69bc
00000270: 894a b73b 6ec8 06bd c64f 1f3c 5326 afbc
00000280: c991 553a 04ca 3ebc 202b 24bc 6d42 43bb
00000290: 0103 b6ba ed6f c1bb ae33 203c 8cb6 3f3c
000002a0: 814f 573c f93d c5ba b7eb 3e3c 2eb4 96bb
000002b0: 427e c83c 5182 133c 8d55 943c f87f e13a
000002c0: 9455 c1bb c58e f93b ed0a 06bc d0c3 ac3c
000002d0: 56dd 8e3b d206 573b 3ce4 aeba a2e6 003c
000002e0: 550a e4bc b9eb 60bc e72a a83b 9a46 9fbc
000002f0: 6db9 40bc 15f9 8b3c 2197 243c 9680 64bc
00000300: 4ad0 763c 8599 34bc 8ccd 4d3c ec6d 82bc
00000310: 007a 993c 8297 193c 8b85 e23a 97bb c03b
00000320: 9d13 d9bd 5748 8c3d 3107 e33c 3023 d2bb
00000330: 4e44 a4bc 5afb 773c 2418 3fbc 8f2c b639
00000340: 6de5 dd3b ed87 053a ee96 52bc dccc 4cbc
00000350: 1c91 de3c 7dc3 4fbb b0c2 9c3c 2bc8 d43c
00000360: d4e1 eebb 3fe2 b93b be97 27bc 57bb 4a3c
00000370: 4367 273d b7d4 a1ba 13e2 96bc d690 6abd
00000380: 72ee 9ebc 37ef 223d b58e 0cbc ba1c 2ebc
00000390: 8577 16bc f493 9b3c 0d73 0f3c 1aaa 5b3c
000003a0: c62e 8cbd d7c5 56bc 488b 923a de56 0dbc
000003b0: 23e9 173b e69b 14bc 2137 4bbd 85f7 5a3c
000003c0: ebb4 e93c 01f3 843c 8233 af3b 124e fbbb
000003d0: d26a 073b afad b43c 2ab5 8abb a132 af3c
000003e0: b6ed ab3a cbf8 573c e70a 3e3c 5e11 17bc
000003f0: c190 bfbc af2b d9bc bca1 3f36 c0c8 0039
-0.009943231 0.007012415 0.01174058 -0.0055642086 0.0068048835 0.012824951 0.010756329 -0.007437436
0.0046347356 -0.011994846 0.004182574 0.007029254 0.00087438955 0.00390705 -0.0022922747 0.029299548
0.0024989396 0.016465053 -0.00680758 0.02105738 0.019239048 -0.030258628 0.0074811033 -0.0056367586
-0.011630148 0.0019340392 -0.008149448 -0.012653332 0.010778541 -0.014295409 -0.014678678 0.014070716
-0.017405419 -0.0022566682 -0.007736901 0.008202623 0.012812023 -0.014850287 -0.021763783 -0.016957833
0.0025354847 0.003985493 -0.018800803 0.0013066308 -0.010026444 0.025239037 0.0069069793 0.0020351221
0.037024163 0.024666939 -0.012492005 -0.0040714312 0.017170789 0.003973725 -0.007890005 -0.01580683
-0.003578822 -0.012034952 -0.0063245157 0.0046408726 -0.0069715697 0.0014413907 -0.004156836 0.011491047
0.014592387 0.0012988898 -0.0074698823 -0.016316667 -0.0054390966 -0.018747412 0.010823509 0.014034526
0.008425258 0.020182816 0.025066206 -0.011420356 -0.011697048 0.0060393224 -0.021556627 0.01937057
-0.01643757 -0.0093762055 0.009421134 0.013814268 -0.0019383813 -0.012270385 0.014711844 0.02687958
-0.009930207 -0.0002410098 0.020085309 0.008633421 0.004204151 -0.019981561 0.01367485 0.00066650467
-0.010405281 -0.004862483 -0.0007853259 0.0043211966 -0.0007762472 0.004208316 -0.0062119206 0.006454964
-0.0071151676 -0.027593832 0.022278648 0.030163359 -0.018308138 0.0013169082 -0.010130139 -0.0031324395
0.000614897 -0.01155568 -0.0034646094 -0.012405119 0.00874229 0.016861789 -0.026711183 6.98825e-05
-0.0005836027 -0.01074109 -0.012834363 -0.0071482477 0.028634606 -0.0030014047 0.008328936 -0.0028013338
0.003104698 -0.018119635 0.019377995 0.0036385166 0.00659803 0.010892172 0.019886415 0.012758394
-0.014260865 -0.0127403885 0.0032977876 0.0037452304 0.0054217395 0.006454898 -0.0044376617 -0.014535377
0.012681546 -0.0006311306 0.02189018 -0.0062121972 0.0023211266 0.016218837 -0.0028352297 -0.0065602562
0.01869815 -0.007833197 -0.016466454 -0.014267923 0.005593602 -0.03290599 0.009723609 -0.02138058
0.0008147029 -0.011644844 -0.010020047 -0.0029794232 -0.0013886393 -0.005903235 0.009777946 0.011701237
0.013141514 -0.0015048377 0.0116528785 -0.004599116 0.024474267 0.009003238 0.0181072 0.0017204275
-0.0059000943 0.0076158964 -0.008181316 0.021089464 0.0043598814 0.0032810462 -0.0013343166 0.007867487
-0.027836958 -0.013728076 0.0051320675 -0.019442845 -0.011762959 0.017086545 0.010045798 -0.013946673
0.015064308 -0.01102293 0.012561213 -0.015921555 0.018734932 0.009374501 0.001728223 0.0058817375
-0.10599444 0.06849735 0.02771339 -0.006412886 -0.020052101 0.0151356105 -0.01166347 0.00034746944
0.0067717345 0.0005093802 -0.012853367 -0.012500014 0.027168803 -0.0031702213 0.019135803 0.025974354
-0.0072901044 0.0056727226 -0.010229049 0.012373767 0.040869962 -0.0012346719 -0.018418347 -0.057267033
-0.019400809 0.039778914 -0.008578946 -0.010626966 -0.009183769 0.018991448 0.008755458 0.013407255
-0.06844859 -0.013108692 0.0011180425 -0.008626668 0.0023179732 -0.009070372 -0.049613122 0.013364677
0.028528651 0.016229155 0.0053467164 -0.007669219 0.0020663035 0.022055475 -0.004233022 0.021386446
0.0013117108 0.013181875 0.011599279 -0.009220449 -0.023384454 -0.026510088 2.855536e-06 0.00012281816

w2 f4 [200, 20]
00000000: 60eb e33c 26e3 af3c 3119 c23b 7281 acbc
00000010: 7436 afbc 9ac6 8a3c 8c06 26bc 1532 083c
00000020: d020 7fbc fb57 113c 33ec 1d3b 2933 41bc
00000030: 01f3 7abc cf8b 0a3c 6b1d 9c3c 4e06 04bb
00000040: aef0 763c 0385 543c 52b5 b0bb 68d3 84bc
00000050: d424 393c 1cd9 563c 58af c4bc f3b3 d13c
00000060: d1e4 933d 4a4a 223d da1e 46bd bf59 863b
00000070: 2cf6 3ebd 8b90 58bc 1578 05bd 547c 023c
00000080: 4c8d fcbb 9f2c f4bc 9942 4dbc 3dc8 68bb
00000090: 4527 f53b 0927 babc ab77 3cbc 292f da3c
000000a0: 9a4e 9eba 7640 70bc 1f3a 20bd d04b 64bd
000000b0: ef11 703d f3cd 943d 8291 36bd 0b7d 56bc
000000c0: 48f3 45bc c690 d93a 7d8f cabc 102f 21bb
000000d0: 8d8b 3c3c e108 5c3d 47f9 e8bb 2276 34bd
000000e0: 59bd 68bc c73f c7bc 7e3f a23c 6ae1 4cbd
000000f0: 2c35 573d 9f03 aebc c4ea d3bc d212 98bb
00000100: 9f2a 33bc 7496 f5bc 87ab 71bb 618e f5ba
00000110: 46ec b2bc 6611 18bc 91f9 23bd bf9e 4f3d
00000120: 2ea5 143d 1932 75bc 2571 b6bc 693d 21bb
00000130: 23eb c63c c2c2 133c 6cac 34bd 0b7c 4bbc
00000140: e444 1d3c 0fe9 6a3c 67f9 f43c d68e ca3b
00000150: 34b0 6abd ac49 4dbb 501d 87bd 1efe 4a3d
00000160: 6db8 68bc bc9b 4d3d 69bc 70bb 7a7d 0d3c
00000170: 45f2 62bd 5dc8 dc3a 8697 dfbc 385b 863d
00000180: 4623 2fbc b23e 013c 546e eebc fdd9 a1bc
00000190: f5e3 a53a 9635 77ba 0b00 ac3b 1d0f adbc
000001a0: f9fc e63a 673f eebb 4bc3 d93c 2d2e 37bd
000001b0: 08f9 ac3c f292 e8bc 3fb6 b3bb d958 f73c
000001c0: df8a a2bc 3d5e 96bc c1a4 01bc 5242 2b3c
000001d0: 5a32 8d3c f5e5 ad3b 7084 5abd 0211 003c
000001e0: 0c99 0b3d 6cf9 f9bc e658 42bb c861 15bc
000001f0: d742 a73c b829 4b3d 4803 273c 4a20 24bd
00000200: c788 c23c 3251 c5bb db54 423d 81db 623c
00000210: 331c babb 16d7 9e3d af80 593d 00d4 333d
00000220: b420 05bc 5bbf 64bd ee39 b0bc 8241 82bd
00000230: 3132 03bb aeb5 033d a666 54bc b191 203b
00000240: 1f6d aebd 2319 9e3c bbeb 95bc eec7 453d
00000250: 8438 5bbd 2a8c 873c 08cf a6bd ebc2 073d
00000260: cfe7 5d3c 8a04 c93c cb87 5c3c c6ab 303d
00000270: 13c0 7c3d 5b67 1b3d 7873 9cbc 5107 0dbd
00000280: 7abb 6abd 10be e639 e777 7dbc 3f58 7dbd
00000290: db6b e6bb 3d3c c93c 7079 e83c 578f 22bd
000002a0: ccc1 03bc c196 fb3c 77ce 81bb fdab ccbb
000002b0: 5b08 703c 835d 25bc cd0b 13ba 97af e2bc
000002c0: bf4d 8c3d 0790 8bbc c4d9 5b3d 6c88 63bc
000002d0: 0de6 253d b668 953c ee6a eabc b727 36bd
000002e0: dae1 c7bb b428 983c 00a9 0abd 442b e33c
000002f0: 4484 313d b305 093c 3f5b 2c3d 5cea 1e3d
00000300: 66ca d13c 0eb5 cf3c c153 63bd 4ae0 edbc
00000310: 01ce f5bc e680 a63d d03c 7abc 7d60 7a3d
00000320: 7297 733c 168e 2d3a ad8c 3f3d 7f7c 0b3d
00000330: 7842 6c3c eca0 a1bc db44 0bbc 6b65 27bc
00000340: 2e82 993d 3bc8 41bc 2fe9 b0bc aedf 3dbd
00000350: 43b1 7fbd 2919 23bb a433 303c c28d 08bc
00000360: 2fc5 793c 8fc8 1f3d b0c4 f9bc d71c 84bc
00000370: ea9a 943c a4fc b5bb 5d23 873c dff4 dabc
00000380: c70c c33c 47f8 fdbb 7425 a63c 3c7a 2e3c
00000390: b2e7 a3bb 612b 23bc e1c5 43bc 5d52 24bc
000003a0: 9e1e 2cbc f8fc e139 926c fe3b 5560 ecbb
000003b0: 9f6a 7bbc d930 cc3b 7374 ef3c c1a7 c2bc
000003c0: 45bf c2bb 928e b03c a9c4 1a3d 41d4 b13b
000003d0: eb6b 813c 47ef 6cbc 9f05 60ba b690 05bd
000003e0: 7876 78bc ed27 e0bb d582 61bb 2554 893c
000003f0: 19ce e93b 10da 8d3b ecf0 a4bc 7ac4 65bb
0.027822196 0.021470618 0.005923413 -0.021057818 -0.02138827 0.016940404 -0.010133397 0.008312722
-0.015571788 0.008871074 0.0024097085 -0.011791983 -0.015316726 0.0084561845 0.019056996 -0.002014536
0.015072031 0.012971166 -0.005392709 -0.016214088 0.011300284 0.013113286 -0.024009392 0.025598502
0.07221378 0.03962163 -0.048369266 0.004100054 -0.046621487 -0.0132180555 -0.032585222 0.007964212
-0.0077072736 -0.029806433 -0.012528085 -0.0035519742 0.007481488 -0.022723692 -0.01150314 0.026633816
-0.0012077868 -0.014663806 -0.03911793 -0.055736363 0.058610853 0.07265844 -0.04457236 -0.013091336
-0.012081929 0.0016598932 -0.024726624 -0.0024594702 0.011507881 0.053719405 -0.0071097943 -0.044057973
-0.0142053 -0.024322404 0.019805666 -0.05001966 0.052540943 -0.021241961 -0.02586878 -0.0046409154
-0.010935455 -0.029978968 -0.003687592 -0.0018734449 -0.02184118 -0.009281492 -0.040032927 0.0506885
0.03629034 -0.0149655575 -0.022270748 -0.0024603254 0.024282044 0.009018602 -0.044109747 -0.012419711
0.009598944 0.014337792 0.02990408 0.006181578 -0.057296947 -0.003132443 -0.06597388 0.04955875
-0.014204127 0.050197348 -0.0036733395 0.008635873 -0.055406827 0.0016844381 -0.027293932 0.06560367
-0.010689562 0.007888483 -0.029105343 -0.019757265 0.0012656437 -0.0009430287 0.0052490286 -0.02112537
0.0017622999 -0.0072707417 0.02658238 -0.04472177 0.021114841 -0.028390381 -0.005484372 0.030193733
-0.01984161 -0.018355483 -0.007912816 0.010452824 0.017235924 0.005306954 -0.05334896 0.007816555
0.034081504 -0.030514441 -0.0029655038 -0.009117551 0.020417614 0.049600333 0.010193653 -0.040069856
0.023746861 -0.006021642 0.047444206 0.013846279 -0.005679631 0.07755868 0.053101238 0.04390335
-0.008125473 -0.055846553 -0.021511998 -0.06360151 -0.002001893 0.032155685 -0.012963926 0.0024500901
-0.08516907 0.019299095 -0.018300882 0.04828637 -0.053520694 0.016546328 -0.08144957 0.033144873
0.013544037 0.024538297 0.01346011 0.043132566 0.061706614 0.037940364 -0.019098029 -0.034430806
-0.057307698 0.00044010626 -0.0154704815 -0.061851736 -0.0070319003 0.024564857 0.028378218 -0.03968748
-0.00804181 0.030711534 -0.00396138 -0.0062460885 0.01465043 -0.010093096 -0.00056093634 -0.027671618
0.068507664 -0.017036451 0.053674474 -0.013887506 0.040502597 0.018238407 -0.028615441 -0.04447147
-0.0060999217 0.018574096 -0.033852577 0.027730592 0.04333903 0.008363175 0.042079207 0.03879772
0.025609206 0.025354888 -0.055499796 -0.029037613 -0.030005457 0.08130054 -0.015273288 0.061127175
0.01486765 0.0006620599 0.04676502 0.034054276 0.014420144 -0.019730054 -0.008500303 -0.010217051
0.07495533 -0.011827524 -0.021595566 -0.046355896 -0.06242491 -0.0024886823 0.0107545 -0.008334579
0.015244766 0.039009627 -0.030489296 -0.016127033 0.018140275 -0.0055537988 0.016496355 -0.026728092
0.023809804 -0.007750544 0.02028153 0.01064926 -0.0050019855 -0.009959073 -0.0119490335 -0.010029403
-0.010505347 0.0004310382 0.0077644074 -0.007213632 -0.015345245 0.006231409 0.029230332 -0.023761632
-0.0059432113 0.021552358 0.037785206 0.005426914 0.01579853 -0.014461345 -0.00085457595 -0.03260871
-0.015164964 -0.006840697 -0.0034410257 0.016763756 0.0071351645 0.0043289736 -0.020134412 -0.0035059736
