code_tidy/model_step3/sss3_f04.pt (torch, 737819 bytes, 3 tensors)

w1 f4 [700, 200]
000000 d0 06 4b bc 59 e1 08 3c 1e 5f dd 3b 64 e1 81 bc
       -0.012391761 0.008354508 0.0067557236 -0.015854545
000010 66 da 40 3a 33 5f 00 bc 97 7a a0 ba ad 94 88 bc
       0.00073567627 -0.007835197 -0.0012243566 -0.016672457
000020 d8 8c b0 3b 7f 5d f6 3b d8 e8 6b bb 6b 59 df bb
       0.0053878836 0.00751847 -0.003599694 -0.0068160794
000030 8c 46 0d bc b0 f6 7e bc e3 f3 a7 3b 88 e1 b8 bb
       -0.008622777 -0.015561745 0.005125509 -0.00564212
000040 88 78 84 3c 77 ca 34 bb b3 fe 53 bb ab 2b 2e 3c
       0.016170755 -0.0027586499 -0.0032347857 0.010630528
000050 7a d6 85 bc 40 17 9b 3c 7f 96 95 3b 18 3c 03 3c
       -0.016337622 0.018931985 0.0045650597 0.008009933
000060 8d 46 46 3b d0 d4 d0 3b 8f 28 b9 3b 2f c2 b3 3b
       0.0030254454 0.0063730255 0.005650587 0.005485795
000070 a7 be 77 bb 9a 93 07 bb e4 20 1a bc e1 9a 6d 3c
       -0.0037802847 -0.0020687343 -0.009407256 0.014502258
000080 82 17 26 bb 73 51 35 3b 0c e1 7f 3b 13 9a 90 3c
       -0.0025343602 0.0027666956 0.003904405 0.017651593
000090 d9 bf 59 3c 5c cd fd 3a eb f2 41 bc d3 44 99 bb
       0.013290369 0.001936357 -0.011837701 -0.004677394
0000a0 2e 12 98 bc a7 29 a6 3b 32 5d 81 bb dd 0d b6 bb
       -0.018563356 0.0050708833 -0.0039478773 -0.005555852
0000b0 5f ae 8e bc f5 70 4d 3c 2f 2a b5 bb db b4 65 bb
       -0.017417131 0.012539138 -0.0055287103 -0.0035050425
0000c0 34 9c 6e bb 91 09 ef bb 84 89 28 bb 45 59 08 3c
       -0.0036409022 -0.0072948416 -0.0025716731 0.008322065
0000d0 85 1a cd bb fb 96 24 3b 9c 1f ec ba 06 e4 1c bc
       -0.006259265 0.0025114405 -0.0018014791 -0.009575849
0000e0 ff d4 3a bc 5d 17 0e b8 cb e4 4d bc 4d 6b 5e 3b
       -0.011403321 -3.3877197e-05 -0.0125667555 0.0033938468
0000f0 16 18 29 3b 81 44 3e 3c d2 63 54 bc aa 2c a2 3b
       0.002580171 0.011613012 -0.012963252 0.004949172
000100 7e 9d 00 3c ed 5e 99 3b df 18 66 3c dd 13 9c 3b
       0.007850049 0.0046805055 0.014044016 0.00476311
000110 2c 5e 29 bb a3 16 68 bb 09 f2 0b bc 09 b9 69 3c
       -0.0025843484 -0.0035413883 -0.008541592 0.014265307
000120 13 63 34 3c b8 5d 6c 3b c5 d2 da bb 5d 33 b0 3a
       0.011009949 0.0036066603 -0.0066779577 0.0013443042
000130 53 74 92 bb 84 9b da bb 60 ed 9a bc 37 15 0d bc
       -0.0044694333 -0.006671371 -0.018912017 -0.008611015
000140 bd 0d d2 bb 9d 71 0d bc 15 b9 c2 bb 55 eb 35 3b
       -0.006410329 -0.008633045 -0.0059424737 0.0027758677
000150 f1 9c f0 3b 5e c9 82 3b 4d 69 a8 bb 15 c2 e5 ba
       0.0073429276 0.00399129 -0.005139506 -0.0017529154
000160 f8 ee 28 3c e1 d4 48 bc 45 e9 82 3a e8 b3 c2 3b
       0.010310881 -0.012257786 0.0009987733 0.0059418567
000170 b0 74 e5 bb dd 3c d3 bb b9 74 2f 3c 58 17 5c ba
       -0.0070024356 -0.0064464645 0.010708981 -0.00083958125
000180 97 71 78 bc 46 36 f7 3b af 4c 1e 3c b5 aa bb 38
       -0.015163801 0.0075443117 0.0096618375 8.9486515e-05
000190 3e 12 53 3c fa ee 38 3c e2 e9 da b9 d2 5a b4 b9
       0.012882767 0.011287445 -0.00041754456 -0.00034399942
0001a0 91 66 f9 ba a6 7b 68 3c aa 31 e7 3b 0a 7e e1 ba
       -0.001902776 0.014189636 0.007055481 -0.00172037
0001b0 dc f8 12 3a 08 fc 1e 3b fd 0a 45 bb 00 c1 54 bc
       0.0005606541 0.002425911 -0.0030066364 -0.012985468
0001c0 7c 9b 40 bc 5a c5 16 3b 08 a3 ba 3b 50 b3 12 3c
       -0.01175582 0.0023005814 0.0056957044 0.008953884
0001d0 e3 bc 5f 3c a0 e1 26 3b 23 8f 3f 3b 41 48 55 3c
       0.013655874 0.0025464073 0.0029229603 0.013017715
0001e0 37 a1 13 bb dc 89 1e 3b 3c ea 53 3a 84 0d 3e bb
       -0.0022526511 0.0024191057 0.0008083915 -0.0028999755
0001f0 6b 5b 89 3c 59 14 7a 3c 73 29 d3 3a dc 04 76 3a
       0.016767224 0.01526364 0.0016110375 0.00093848794
000200 6e 7e b9 3a df 50 c4 3b 0e c2 da bb 0d 97 d8 3a
       0.0014152059 0.005991086 -0.006675965 0.0016524509
000210 12 8a 94 ba ea ea 2f 3c fe 77 66 3a 71 5b cb 3b
       -0.0011332652 0.01073716 0.0008791684 0.006205969
000220 45 72 84 3c 6c f5 55 bc 9e 83 d6 bc d1 e0 f3 3b
       0.01616777 -0.013059001 -0.026185807 0.0074425717
000230 09 2b 8b bb 39 fe bc 3c e2 2e bf bc 2b e4 3d 3b
       -0.0042470735 0.023070442 -0.023337785 0.002897511
000240 89 a0 5a bc 77 c6 e1 39 d6 50 1d 3c 87 68 19 3c
       -0.013343939 0.00043063212 0.009601792 0.0093633
000250 4f e3 21 bb f5 c0 f4 bb 20 91 c5 bb 6f e3 9b 3a
       -0.0024702137 -0.0074692913 -0.006029263 0.0011893342
000260 bd 74 52 3c d8 7f c2 3b da 3f be bb 2c 4c 28 bb
       0.012845215 0.0059356503 -0.0058059515 -0.0025680168
000270 35 22 72 bc f0 69 a7 bb 23 89 96 bb 86 b8 48 bc
       -0.014778663 -0.0051090643 -0.0045939847 -0.012251025
000280 3f de bf bc 1f da 05 3b d7 63 cc 39 cc 24 0a 3c
       -0.023421405 0.00204242 0.000389843 0.008431625
000290 6d 02 eb 39 26 e0 1c bc 25 48 a8 3b 80 5d b5 bb
       0.000448245 -0.0095749255 0.0051355534 -0.0055348277
0002a0 b1 0c 09 bc 93 5e 4a 3c af 1e b9 ba 13 17 77 3b
       -0.008364842 0.01235165 -0.0014123524 0.0037702962
0002b0 40 95 8f bc 73 a7 39 3b c2 59 d8 3b 2b f3 d7 3b
       -0.017527223 0.0028328567 0.006602497 0.006590267
0002c0 34 14 2c 3c 2b fb cc bb 34 fa 10 bc 6c 94 d7 3b
       0.010502864 -0.0062555275 -0.008848716 0.0065789726
0002d0 f1 d9 95 bb 18 2c 4f bc 9d 9e 60 bc 7c 70 be bb
       -0.0045731 -0.01264479 -0.013709691 -0.005811749
0002e0 64 cf 52 bc 13 07 b0 bc a3 d9 cf bb dc 88 01 3c
       -0.012866829 -0.021487748 -0.006343083 0.007906165
0002f0 d1 20 c0 39 a0 23 2c 3b 99 65 dd bb 09 90 33 3b
       0.00036645544 0.0026266351 -0.006756496 0.0027399084
000300 96 1d 4e 3c 55 ed 77 bc 76 bb a9 3b 59 3f c6 bc
       0.012580296 -0.015132268 0.005179818 -0.024200128
000310 5d f0 3e bc 65 8f e9 3b 82 a0 17 3b 97 c6 7d 3c
       -0.011653987 0.0071276897 0.0023136442 0.015489242
000320 41 ad 76 bc b1 e2 61 3c 9b 62 dd bb e0 1a 06 bc
       -0.015055955 0.013786958 -0.0067561395 -0.008185118
000330 1d 57 0c 3c db 24 21 3c cf 92 44 3c 57 9a f9 ba
       0.008565691 0.009835447 0.0119978925 -0.0019043189
000340 17 5f 88 3b 61 71 81 bc 0e 73 13 bc b0 3f 13 bb
       0.004161726 -0.015801134 -0.008999599 -0.002246838
000350 ad 52 87 ba 68 f3 33 3c a2 4b aa 3b 9e 50 b1 bc
       -0.0010324322 0.010983326 0.0051970044 -0.021644887
000360 81 8e a9 3b 96 0e a6 3c e4 94 34 bc b6 39 e4 3c
       0.0051744585 0.020270627 -0.011021826 0.02785955
000370 fa fa 12 bc 77 1c b2 3b 22 86 6a 3c 07 00 29 3c
       -0.00897097 0.005435522 0.014314206 0.010314948
000380 c5 6a 9c 3b 2d 79 bd 3b b6 59 bb 3a cd 01 bf 3b
       0.00477347 0.0057822675 0.0014293704 0.005829072
000390 96 3c d5 bb 0a c7 df ba cf 98 45 3c 5d ac ca 3c
       -0.0065074665 -0.0017072868 0.012060358 0.024740392
0003a0 9e c0 cf 3b e2 33 e4 ba 17 ec 80 bc f5 9c f1 bc
       0.0063401004 -0.0017410482 -0.015737576 -0.029493788
0003b0 05 3e 86 bb 78 33 7f 3b 96 6d b7 bc 9a eb 3d 3b
       -0.004096749 0.003894059 -0.022391122 0.002897954
0003c0 74 8b 0c bc 0f 70 8d bb 97 be d6 3b 54 78 4e 3c
       -0.00857817 -0.004316337 0.006553482 0.012601931
0003d0 8d ca 97 bc 4b 1b 9a 3b 62 d7 73 bb ac 11 6c 3c
       -0.0185292 0.0047029606 -0.0037207236 0.01440851
0003e0 e4 8a 39 3c 6a 00 04 bc f7 38 55 3b 87 35 aa 3b
       0.011324618 -0.008056739 0.0032535174 0.0051943692
0003f0 20 b7 a1 3a 46 89 e5 b7 f3 6e 86 3c 90 0a b4 ba
       0.0012337901 -2.736285e-05 0.016410327 -0.0013736058

v1 f4 [200, 200]
000000 ef e8 22 bc 67 c8 e5 3b 90 5b 40 3c f7 53 b6 bb
       -0.009943231 0.007012415 0.01174058 -0.0055642086
000010 80 fb de 3b be 1f 52 3c 50 3b 30 3c bc b5 f3 bb
       0.0068048835 0.012824951 0.010756329 -0.007437436
000020 fb de 97 3b 08 86 44 bc f9 0d 89 3b a8 55 e6 3b
       0.0046347356 -0.011994846 0.004182574 0.007029254
000030 4a 37 65 3a b6 06 80 3b fd 39 16 bb 9b 05 f0 3c
       0.00087438955 0.00390705 -0.0022922747 0.029299548
000040 40 c5 23 3b b8 e1 86 3c 1f 12 df bb 87 80 ac 3c
       0.0024989396 0.016465053 -0.00680758 0.02105738
000050 35 9b 9d 3c f1 e0 f7 bc 0b 24 f5 3b 8f b4 b8 bb
       0.019239048 -0.030258628 0.0074811033 -0.0056367586
000060 60 8c 3e bc 96 7f fd 3a 43 85 05 bc ec 4f 4f bc
       -0.011630148 0.0019340392 -0.008149448 -0.012653332
000070 7a 98 30 3c 4b 37 6a bc d6 7e 70 bc dc 88 66 3c
       0.010778541 -0.014295409 -0.014678678 0.014070716
000080 cf 95 8e bc 9c e4 13 bb d4 85 fd bb 4b 64 06 3c
       -0.017405419 -0.0022566682 -0.007736901 0.008202623
000090 85 e9 51 3c 9e 4e 73 bc f6 49 b2 bc 27 eb 8a bc
       0.012812023 -0.014850287 -0.021763783 -0.016957833
0000a0 60 2a 26 3b bd 98 82 3b 24 04 9a bc 41 43 ab 3a
       0.0025354847 0.003985493 -0.018800803 0.0013066308
0000b0 f4 45 24 bc 19 c2 ce 3c f1 53 e2 3b af 5f 05 3b
       -0.010026444 0.025239037 0.0069069793 0.0020351221
0000c0 a6 a6 17 3d 52 12 ca 3c 44 ab 4c bc a4 69 85 bb
       0.037024163 0.024666939 -0.012492005 -0.0040714312
0000d0 c1 a9 8c 3c 05 36 82 3b 14 45 01 bc 53 7d 81 bc
       0.017170789 0.003973725 -0.007890005 -0.01580683
0000e0 ab 8a 6a bb 3f 2e 45 bc e2 3d cf bb 76 12 98 3b
       -0.003578822 -0.012034952 -0.0063245157 0.0046408726
0000f0 c4 71 e4 bb 0c ed bc 3a 11 36 88 bb f2 44 3c 3c
       -0.0069715697 0.0014413907 -0.004156836 0.011491047
000100 e8 14 6f 3c 82 3f aa 3a ea c5 f4 bb 88 aa 85 bc
       0.014592387 0.0012988898 -0.0074698823 -0.016316667
000110 73 3a b2 bb 2c 94 99 bc 16 55 31 3c 12 f1 65 3c
       -0.0054390966 -0.018747412 0.010823509 0.014034526
000120 18 0a 0a 3c 6f 56 a5 3c a5 57 cd 3c 72 1c 3b bc
       0.008425258 0.020182816 0.025066206 -0.011420356
000130 fa a4 3f bc 82 e5 c5 3b 86 97 b0 bc 08 af 9e 3c
       -0.011697048 0.0060393224 -0.021556627 0.01937057
000140 15 a8 86 bc a8 9e 19 bc 1a 5b 1a 3c 3d 55 62 3c
       -0.01643757 -0.0093762055 0.009421134 0.013814268
000150 49 11 fe ba ba 09 49 bc f2 09 71 3c 91 32 dc 3c
       -0.0019383813 -0.012270385 0.014711844 0.02687958
000160 4f b2 22 bc 93 b7 7c b9 f2 89 a4 3c 31 73 0d 3c
       -0.009930207 -0.0002410098 0.020085309 0.008633421
000170 fa c2 89 3b 5f b0 a3 bc 7a 0c 60 3c 5f b8 2e 3a
       0.004204151 -0.019981561 0.01367485 0.00066650467
000180 e9 7a 2a bc 77 55 9f bb 54 de 4d ba d3 98 8d 3b
       -0.010405281 -0.004862483 -0.0007853259 0.0043211966
000190 11 7d 4b ba ea e5 89 3b 5e 8d cb bb 2a 84 d3 3b
       -0.0007762472 0.004208316 -0.0062119206 0.006454964
0001a0 5a 26 e9 bb 76 0c e2 bc b6 81 b6 3c 26 19 f7 3c
       -0.0071151676 -0.027593832 0.022278648 0.030163359
0001b0 f3 fa 95 bc 1b 9c ac 3a e2 f8 25 bc 9d 49 4d bb
       -0.018308138 0.0013169082 -0.010130139 -0.0031324395
0001c0 0a 31 21 3a 09 54 3d bc 80 0e 63 bb d7 3e 4b bc
       0.000614897 -0.01155568 -0.0034646094 -0.012405119
0001d0 d2 3b 0f 3c bc 21 8a 3c 69 d1 da bc e2 8d 92 38
       0.00874229 0.016861789 -0.026711183 6.98825e-05
0001e0 ea fc 18 ba 66 fb 2f bc 38 47 52 bc d9 3b ea bb
       -0.0005836027 -0.01074109 -0.012834363 -0.0071482477
0001f0 1f 93 ea 3c 37 b3 44 bb 17 76 08 3c 95 96 37 bb
       0.028634606 -0.0030014047 0.008328936 -0.0028013338
000200 30 78 4b 3b a1 6f 94 bc 9a be 9e 3c 2e 74 6e 3b
       0.003104698 -0.018119635 0.019377995 0.0036385166
000210 4a 34 d8 3b 15 75 32 3c d6 e8 a2 3c 95 08 51 3c
       0.00659803 0.010892172 0.019886415 0.012758394
000220 67 a6 69 bc 10 bd 50 bc b2 1f 58 3b 8a 72 75 3b
       -0.014260865 -0.0127403885 0.0032977876 0.0037452304
000230 d9 a8 b1 3b 9c 83 d3 3b ce 69 91 bb ca 25 6e bc
       0.0054217395 0.006454898 -0.0044376617 -0.014535377
000240 42 c6 4f 3c 75 72 25 ba 09 53 b3 3c b0 8f cb bb
       0.012681546 -0.0006311306 0.02189018 -0.0062121972
000250 0b 1e 18 3b 5e dd 84 3c 43 cf 39 bb 6b f7 d6 bb
       0.0023211266 0.016218837 -0.0028352297 -0.0065602562
000260 dd 2c 99 3c cf 56 00 bc a8 e4 86 bc 02 c4 69 bc
       0.01869815 -0.007833197 -0.016466454 -0.014267923
000270 89 4a b7 3b 6e c8 06 bd c6 4f 1f 3c 53 26 af bc
       0.005593602 -0.03290599 0.009723609 -0.02138058
000280 c9 91 55 3a 04 ca 3e bc 20 2b 24 bc 6d 42 43 bb
       0.0008147029 -0.011644844 -0.010020047 -0.0029794232
000290 01 03 b6 ba ed 6f c1 bb ae 33 20 3c 8c b6 3f 3c
       -0.0013886393 -0.005903235 0.009777946 0.011701237
0002a0 81 4f 57 3c f9 3d c5 ba b7 eb 3e 3c 2e b4 96 bb
       0.013141514 -0.0015048377 0.0116528785 -0.004599116
0002b0 42 7e c8 3c 51 82 13 3c 8d 55 94 3c f8 7f e1 3a
       0.024474267 0.009003238 0.0181072 0.0017204275
0002c0 94 55 c1 bb c5 8e f9 3b ed 0a 06 bc d0 c3 ac 3c
       -0.0059000943 0.0076158964 -0.008181316 0.021089464
0002d0 56 dd 8e 3b d2 06 57 3b 3c e4 ae ba a2 e6 00 3c
       0.0043598814 0.0032810462 -0.0013343166 0.007867487
0002e0 55 0a e4 bc b9 eb 60 bc e7 2a a8 3b 9a 46 9f bc
       -0.027836958 -0.013728076 0.0051320675 -0.019442845
0002f0 6d b9 40 bc 15 f9 8b 3c 21 97 24 3c 96 80 64 bc
       -0.011762959 0.017086545 0.010045798 -0.013946673
000300 4a d0 76 3c 85 99 34 bc 8c cd 4d 3c ec 6d 82 bc
       0.015064308 -0.01102293 0.012561213 -0.015921555
000310 00 7a 99 3c 82 97 19 3c 8b 85 e2 3a 97 bb c0 3b
       0.018734932 0.009374501 0.001728223 0.0058817375
000320 24 8b 6f bd 12 c8 8d 3d 11 c5 c9 3c bf ac 58 bb
       -0.058482304 0.06922926 0.024630101 -0.003306195
000330 98 17 b2 3b db 52 8d 3c ac 37 2c bc 56 2c 45 3b
       0.0054349415 0.017251423 -0.01051132 0.003008624
000340 cd b6 c1 3c 93 22 e5 3b d7 81 5e bc 53 69 18 bc
       0.023646737 0.006992647 -0.013580761 -0.009302455
000350 4b d1 84 bd 07 fd 89 bc 9b e6 c9 3c 60 28 85 3c
       -0.06485232 -0.016844286 0.024646094 0.016254604
000360 a5 c2 ad bc 95 7d ae bb 83 03 3b bc 55 aa 5b 3c
       -0.021210978 -0.005325029 -0.0114144115 0.01340731
000370 b7 7d a5 3c 25 b4 75 3d 18 95 74 bc 16 86 dd bc
       0.020201547 0.059986252 -0.014928125 -0.027041476
000380 e4 c5 18 3a fc 69 0a 3b 3b e4 b9 bb d3 d7 20 bb
       0.0005827828 0.00211203 -0.005672959 -0.0024542704
000390 54 f9 9f bd 6b a2 72 3d 7a 33 38 3d 23 d7 03 3c
       -0.078112274 0.059236925 0.044970967 0.008046898
0003a0 44 6b d4 bc 76 f3 dc bc 0e 17 9c bc 3e 6e e0 bc
       -0.025930054 -0.02697156 -0.019053962 -0.027396318
0003b0 1c 7d 1d bd de be 19 bb 8d d0 b3 bc 06 d3 8f 3b
       -0.03844939 -0.0023459713 -0.02195003 0.0043891696
0003c0 0c 44 ba 3a 1d 88 59 bb fd 25 05 3d b9 76 cc 3b
       0.0014210953 -0.0033192702 0.03250693 0.006239739
0003d0 c4 2c 4c bc ff 1e 58 3c bc e4 31 3c 35 1e 80 3c
       -0.012461845 0.013190984 0.010857757 0.015639404
0003e0 27 7d 7f bd ee 92 6b bd 21 c8 52 3c 39 66 d6 bc
       -0.062375214 -0.05751317 0.012865097 -0.02617179
0003f0 22 1a 62 b8 25 8c 38 3c 43 67 93 3c 38 a0 f2 3a
       -5.3906937e-05 0.011263882 0.017993575 0.0018510884

w2 f4 [200, 20]
000000 60 eb e3 3c 26 e3 af 3c 31 19 c2 3b 72 81 ac bc
       0.027822196 0.021470618 0.005923413 -0.021057818
000010 74 36 af bc 9a c6 8a 3c 8c 06 26 bc 15 32 08 3c
       -0.02138827 0.016940404 -0.010133397 0.008312722
000020 d0 20 7f bc fb 57 11 3c 33 ec 1d 3b 29 33 41 bc
       -0.015571788 0.008871074 0.0024097085 -0.011791983
000030 01 f3 7a bc cf 8b 0a 3c 6b 1d 9c 3c 4e 06 04 bb
       -0.015316726 0.0084561845 0.019056996 -0.002014536
000040 ae f0 76 3c 03 85 54 3c 52 b5 b0 bb 68 d3 84 bc
       0.015072031 0.012971166 -0.005392709 -0.016214088
000050 b2 6a ca bb 79 5b d2 3b 5c ae 91 bc 33 6a 40 bc
       -0.00617727 0.006419596 -0.017783336 -0.01174407
000060 a0 59 f5 3c 73 34 7f 3d f9 5b c2 bc 2e a9 38 3d
       0.029949963 0.06230588 -0.023725497 0.045083217
000070 94 14 d4 bc 2e 5d 30 bd a3 5f 08 bd 8f a2 55 3d
       -0.025888719 -0.043057613 -0.03329433 0.05215698
000080 23 18 8a bb 7f 8e ba bd 14 bb 6a bd 68 40 90 bc
       -0.004214303 -0.0910921 -0.057307318 -0.017608836
000090 9d 50 45 bd b9 f9 13 bd af 46 b7 bc b7 cc c5 ba
       -0.048172582 -0.036126826 -0.022372572 -0.0015090917
0000a0 9c 7a 2a 3d b4 49 1e 3b 1a f8 07 bd 1c a1 63 bd
       0.041620836 0.0024152817 -0.033195592 -0.055573568
0000b0 9a 46 4a 3d d4 37 71 3d 61 ba 1c bd ed 3a d6 3c
       0.049383737 0.058891132 -0.038263682 0.026151145
0000c0 77 15 4b 3c dc a8 f6 b9 cf 1c f5 bb bb 7d df 3c
       0.012395254 -0.00047046586 -0.007480241 0.027281633
0000d0 d4 1c d8 3c 88 8b 46 3d 6b 40 5d bd c1 72 5e 3c
       0.026380934 0.04847291 -0.054016512 0.013577164
0000e0 f8 dd 46 bd ff 58 8e bd 8e 5e 1e 3c 52 9b e8 3b
       -0.04855153 -0.069505684 0.009666098 0.0070985937
0000f0 39 aa 1b 3c 5d 8b c8 3b 2e 00 e7 bb 00 86 0e bb
       0.009501033 0.006120129 -0.007049582 -0.002174735
000100 c6 51 15 bc fe 0d 2b bc 28 13 08 3a fc ee 33 bc
       -0.009113735 -0.010440348 0.0005190843 -0.010982271
000110 e2 7a a2 bb 5e 75 d0 b8 68 ef ed bc 8e 15 74 3c
       -0.0049584964 -9.940074e-05 -0.029044822 0.014897717
000120 79 71 2c 3c 80 fd 03 bc 5e e6 95 bc 85 6e b8 3c
       0.010525101 -0.008056045 -0.018298324 0.022513637
000130 ce 51 86 3b 9d 70 1b 3b 42 0e d6 bc 69 23 8e bc
       0.0040991073 0.0023718246 -0.026129846 -0.01735087
000140 e2 06 aa bc 30 9c a5 3c 21 67 8f 3d 7e bb dd 3c
       -0.020755235 0.020216078 0.07002092 0.027066942
000150 00 10 ad bd 3b 99 ed 3c 6e d8 3c bd e7 5b 56 3d
       -0.084503174 0.02900373 -0.04610484 0.05233374
000160 64 8f 98 3b 6e 3d 84 3d 64 5b dd bc b8 98 c6 3c
       0.0046557654 0.06457029 -0.027021118 0.024242744
000170 e2 0b 37 bc aa 91 cb 3b 7d c8 83 bc 13 a8 6f 3d
       -0.011172267 0.006212433 -0.016086811 0.058509897
000180 27 79 fd bc b1 33 1e bd d5 91 7f bc 9c 42 12 3b
       -0.030941559 -0.038623516 -0.015598734 0.0022317534
000190 2d e7 29 bc cd 75 10 3c 3b 6d 49 3c 51 87 ed bc
       -0.010370058 0.008817148 0.012294109 -0.028995188
0001a0 54 d3 d8 3c cd a8 19 3d de d9 f6 3b fb 92 46 bd
       0.026467957 0.037514497 0.007533296 -0.048480015
0001b0 1e fa a6 3c 25 f3 17 bd 5b 62 11 bc 2c 9b 8a 3c
       0.020382937 -0.037097115 -0.008873547 0.016919695
0001c0 58 79 2c bd 99 7b bf bc 16 44 8b bb 18 bb 6e 3d
       -0.04210791 -0.023374366 -0.00425006 0.058283895
0001d0 48 4c 90 3b cb 65 d8 3b 83 f8 02 bd ec d9 a2 3c
       0.0044036247 0.0066039315 -0.03197528 0.019879304
0001e0 8d 70 33 3d f9 eb 02 bd 81 bc 2b bc 80 ed 5b bd
       0.04380851 -0.031963322 -0.010481955 -0.053693295
0001f0 fc ae 43 3c 22 06 68 3d 47 56 67 39 75 d3 fa bb
       0.011943575 0.056646474 0.00022062018 -0.007654602
000200 ad 4c 14 3d 8c f9 20 bc 95 25 81 3d fd 4d 2a 3d
       0.036205936 -0.009825122 0.06305996 0.04157828
000210 ba b9 e2 3c ce 55 a2 3d 66 17 c0 3d 11 91 13 3d
       0.027676452 0.07926522 0.09379463 0.036027018
000220 6a ed f0 bc 3a f3 88 bd 76 4c a2 bc a4 57 73 bc
       -0.029410083 -0.06687017 -0.01981185 -0.014852438
000230 ae b5 a4 3b fd 87 d3 3b 9a 7f 07 3c 36 37 28 3c
       0.0050265407 0.00645542 0.008270169 0.01026707
000240 a8 b7 6e bc eb 7a ea 3b 92 d1 38 39 65 e7 44 3c
       -0.014570154 0.0071557662 0.00017625678 0.012018059
000250 73 1f 41 bb 8d 4e 41 3c e5 b1 eb bb c6 e8 11 3c
       -0.0029468208 0.011798513 -0.0071928375 0.008905595
000260 7b fc ab bb e9 d3 36 3c 28 b3 22 3b 9b 71 db 3b
       -0.005248604 0.011158922 0.0024826024 0.0066968924
000270 53 49 a9 3c c0 03 de 3b 5a ca aa 3b 3d c7 9b bc
       0.020664847 0.0067753494 0.0052121105 -0.019015903
000280 79 9d 18 bd 1b 5e 1b bc bb 29 42 bc 35 67 1b bd
       -0.037259553 -0.009482886 -0.01185077 -0.037940223
000290 5c 93 db 3c cf cc 34 3d 98 9e 0a 3d 61 92 11 3c
       0.026803665 0.044140633 0.033842653 0.008884997
0002a0 5c ee a8 bc 7b b8 59 3d 9c fd f4 3b 22 df bf bc
       -0.020621471 0.05315445 0.0074765217 -0.023421828
0002b0 d2 a7 aa bb 48 0d 9d bc 77 a1 5a 3c cb b7 41 bd
       -0.005207994 -0.019171372 0.01334416 -0.04729442
0002c0 17 db ad 3c 3e 69 eb bc f8 c4 70 3d b3 48 30 bd
       0.021222634 -0.028736707 0.058781594 -0.04303808
0002d0 93 96 a6 3c 4a c0 08 3d e7 1c 12 bd a7 0e 8f bd
       0.020335471 0.033386506 -0.035672095 -0.069852166
0002e0 97 d6 a9 bc b3 ce c0 3c c8 6a a3 3b ca 95 2a 3b
       -0.020732207 0.023536062 0.0049870946 0.0026029223
0002f0 27 91 1a 3d 3d 19 83 bb da b8 7c 3d 1b 4a 18 3d
       0.037736084 -0.0040008114 0.061699726 0.037180047
000300 57 72 67 3d 3b 84 f4 3c af 3b 36 bc 26 99 c1 3c
       0.056505527 0.029848209 -0.011122628 0.023632597
000310 b4 a6 03 bd 0c 0f 7c 3d b1 b5 58 bc c3 cf 94 3d
       -0.032141402 0.061537787 -0.013226912 0.0726619
000320 f4 8b 58 bb d5 de a0 ba e4 ce fd 3c 20 7f fa b9
       -0.0033042403 -0.001227344 0.030982442 -0.0004777843
000330 fe ad 69 3c 0c f4 bf bc c0 d4 0a 3c 55 0f 86 ba
       0.014262674 -0.0234318 0.008473575 -0.0010227958
000340 0c bf 85 3c 13 c4 57 3b 66 e2 ed bc 05 b1 77 3c
       0.01632645 0.0032923266 -0.02903862 0.015117888
000350 45 9b c5 bc 64 88 9a b8 52 3b e7 bc b9 46 46 3c
       -0.02412189 -7.368697e-05 -0.028226528 0.0121018225
000360 6e f9 88 ba bb 9c 6d 3c cd a6 e2 bc 37 e8 79 bc
       -0.0010450312 0.0145026995 -0.027667427 -0.015253118
000370 0e 82 4a 3c 38 f8 f4 bc 4b d2 c6 3c 00 8b 0b bd
       0.012360109 -0.029903516 0.024270197 -0.034068108
000380 df a6 f3 3c 22 36 db 3c 8f 4f 0e 3c 3b 52 82 bc
       0.029742656 0.026759211 0.00868596 -0.015908351
000390 88 0b 2a bc a7 6c 77 bd 5e 9e eb bc 65 f5 93 bb
       -0.010378726 -0.060406353 -0.028762039 -0.0045153373
0003a0 93 c1 ff bc 27 cd b1 bc ef 08 bd 39 85 a6 f5 bc
       -0.031220233 -0.02170427 0.00036055545 -0.02998663
0003b0 cf d0 d7 bc f1 5b 32 ba 9d 46 31 3c f5 28 ff bc
       -0.026344685 -0.00068038615 0.010820058 -0.03114746
0003c0 77 be 31 bb 56 13 9c 3c a8 7c a0 3c 9f eb bf 3b
       -0.0027121583 0.019052189 0.01959069 0.0058569456
0003d0 79 e0 1d 3c 27 9a 54 bc 11 a7 c2 3a 5c 7d 05 bd
       0.009636038 -0.012976206 0.0014850815 -0.032590255
0003e0 ec 03 94 bb 55 07 f5 38 d4 2a 3e bb e8 cc a4 3c
       -0.004517069 0.00011683876 -0.0029017227 0.020117238
0003f0 4b 88 74 3c ed bf 11 3c 17 80 59 bc 09 0b 20 3c
       0.014925073 0.008895856 -0.013275168 0.009768256
