code_tidy/model_step3/sss3_f06.pt (torch, 737819 bytes, 3 tensors)

w1 f4 [700, 200]
0	0xbbd9a672	-0.0066421563
1	0x3cb45c66	0.022016715
2	0x3b5c775f	0.0033640487
3	0xbc9cbad7	-0.01913206
4	0xbb09a498	-0.0021002647
5	0xbc21b0b0	-0.009868786
6	0xbb5f5eda	-0.0034083636
7	0xbb7486a5	-0.00373117
8	0x3bfa7c26	0.007644194
9	0x3c090ad8	0.008364402
10	0xbb23d699	-0.0024999736
11	0xbcb84bd0	-0.022497088
12	0xbc0ab16a	-0.00846515
13	0xbb9386a0	-0.0045021325
14	0x3c1becc6	0.0095169
15	0x3b2a23a8	0.0025961194
16	0x3ca3113f	0.019905685
17	0x3bd9587f	0.006632864
18	0xbb3e810a	-0.0029068612
19	0x3c281a5e	0.010260193
20	0xbcb8d2b8	-0.022561416
21	0x3c9dffa8	0.019286945
22	0x3c2937bb	0.010328229
23	0x3c06f2e4	0.008236621
24	0x3b85e7c2	0.0040864656
25	0x3c4efdf4	0.012633789
26	0x3bdbc662	0.0067069987
27	0x3bb1a758	0.0054215603
28	0xbbd987d8	-0.0066385083
29	0xbb6420bc	-0.003480955
30	0x3a85e525	0.0010215385
31	0x3be45f3e	0.0069693616
32	0xbc32f0c8	-0.010921665
33	0xbc129233	-0.008945989
34	0x3b3ec95c	0.0029111719
35	0x3c9378e0	0.018001974
36	0x3cb51602	0.02210522
37	0xb9c35bd8	-0.00037261727
38	0xbc39e7c6	-0.011346763
39	0xbbb57e40	-0.005538732
40	0xbc6d32d8	-0.014477454
41	0x3bc07b62	0.0058740834
42	0xb890316d	-6.875661e-05
43	0xbbab4ca0	-0.0052276403
44	0xbc819223	-0.015816754
45	0x3c638a9f	0.01388803
46	0xbc4cc665	-0.012498473
47	0x3c06e944	0.008234326
48	0xbbc32faa	-0.0059566097
49	0xbbd31891	-0.0064421375
50	0xba97220d	-0.0011530534
51	0x3b995eb5	0.0046804794
52	0xbbf769ec	-0.0075504687
53	0x3c613ddb	0.013747658
54	0x3b0352df	0.0020038409
55	0xbc61c865	-0.013780688
56	0xbc6487a3	-0.013948354
57	0xbb5d03b6	-0.0033724136
58	0xbbce1d70	-0.0062901303
59	0x3b1e14ad	0.002412121
60	0x3b8e226b	0.004337599
61	0x3bd320ab	0.0064431033
62	0xbc42c370	-0.011887416
63	0x3c0269cc	0.007959794
64	0x3bd93e8f	0.006629772
65	0x3b82c1a2	0.003990368
66	0x3ca2ea5e	0.019887146
67	0x3b3d3b67	0.0028874518
68	0x38dd5d90	0.000105555286
69	0xbb1c36cb	-0.002383637
70	0xbbf43a41	-0.0074532335
71	0x3b914d51	0.0044342657
72	0x3c0cc691	0.008592264
73	0x3c5bcc1d	0.013415364
74	0xbb117aa1	-0.0022198337
75	0x3b9f1da5	0.004855829
76	0xbb8b8255	-0.00425748
77	0xbbc89658	-0.006121438
78	0xbc9d8a72	-0.019231055
79	0xbbb48fd1	-0.0055103083
80	0xbb02c1c5	-0.0019951921
81	0xbb625957	-0.0034538114
82	0xbb68b3c5	-0.0035507542
83	0x3bc1b3f7	0.005911346
84	0x3b99f7f9	0.00469875
85	0x3a14091c	0.00056471094
86	0x3b8dfc2a	0.004333039
87	0x3b9328d1	0.0044909497
88	0x3c67e8a5	0.014154588
89	0x3a0d567e	0.00053916115
90	0x3bf6fc7a	0.007537422
91	0x3b1378f7	0.002250252
92	0x3ad9e5ca	0.0016624269
93	0xbc68693a	-0.014185244
94	0x3b997b5c	0.004683895
95	0x3b215f29	0.002462337
96	0xbc84cf7c	-0.016212218
97	0x3c744a3a	0.014910275
98	0x3bbbb7b9	0.0057286886
99	0x3b2fa2a8	0.0026799832
100	0x3bd46183	0.006481351
101	0x3bfc8adf	0.0077069844
102	0x3be81c42	0.0070834467
103	0xbb87f644	-0.00414923
104	0xbae01b7e	-0.0017098037
105	0x3c01bc1c	0.007918384
106	0x3ad32171	0.0016107989
107	0x3a198961	0.0005856958
108	0x3a70e206	0.00091889536
109	0x3c5015f3	0.012700546
110	0xbb556271	-0.0032559896
111	0xbbb082d5	-0.00538669
112	0xbc32c64f	-0.010911538
113	0x3b8bd499	0.004267287
114	0xbaba600f	-0.0014219302
115	0x3b88daa5	0.004176455
116	0x3c515aa2	0.012777956
117	0xbbc8174e	-0.0061062938
118	0x3a6ca5cc	0.0009027391
119	0x3c6e863a	0.014558369
120	0xba48af64	-0.000765553
121	0x3c1c3b60	0.0095356405
122	0x3a5b7da8	0.0008372911
123	0xbbbe5315	-0.005808244
124	0x3c281dba	0.010260994
125	0x3c81fe7e	0.015868422
126	0x3b0907c7	0.0020909177
127	0xbd0c8943	-0.03431059
128	0x3c6d9b27	0.014502323
129	0x3b939ad1	0.0045045395
130	0xbb4cb945	-0.003123836
131	0x3c32d8d9	0.010915958
132	0xba8d2a5c	-0.001077007
133	0x3c2d963e	0.010594903
134	0x3bda2513	0.0066572516
135	0x3ba98d61	0.0051743244
136	0x3a7fb861	0.00097549526
137	0xbba65ed5	-0.005077223
138	0xbc6eeff1	-0.014583574
139	0x3c1d59cc	0.009603929
140	0xbb843e14	-0.0040357206
141	0x3cd228df	0.025654254
142	0xbc24af23	-0.0100515215
143	0x3bd99774	0.006640369
144	0xbc2c3da6	-0.010512745
145	0xbb56d968	-0.0032783393
146	0x3c0f259c	0.008736994
147	0x3badbe58	0.0053022318
148	0xbacd93fb	-0.001568436
149	0xbb653f23	-0.003498026
150	0xbc0bea9e	-0.008539824
151	0xbacc206b	-0.0015573626
152	0x3aaaaa16	0.001302066
153	0xbbc1600f	-0.0059013437
154	0xbb809d59	-0.0039250073
155	0x3c3141a9	0.010818877
156	0xbc9b8e1f	-0.018988667
157	0xbb5af937	-0.0033412704
158	0xbbf3497f	-0.007424533
159	0xbc04220c	-0.008064758
160	0xbcc55308	-0.024087444
161	0x3ba5255d	0.0050398544
162	0x3b5be588	0.003355356
163	0x3c0d6a56	0.0086313095
164	0x3b140f5b	0.002259216
165	0xbc62d938	-0.013845734
166	0xbbbe2e8e	-0.0058038896
167	0xbc241ff9	-0.0100173885
168	0xbc0507af	-0.008119508
169	0x3c604347	0.013687915
170	0x3c001bf4	0.007819165
171	0x3b10ea40	0.002211228
172	0xbc9aa16f	-0.018875806
173	0x3b2d89e1	0.0026479887
174	0x3b897602	0.004194976
175	0x3c258b35	0.01010399
176	0x3c43548a	0.011922011
177	0xba8f538b	-0.0010934932
178	0xbc30694f	-0.010767295
179	0x3b799048	0.0038080383
180	0xb9cfe4fd	-0.00039652726
181	0xbc93b017	-0.018028302
182	0xbd1719a2	-0.03688968
183	0x3a5294d8	0.00080330437
184	0xbadc50b7	-0.0016808723
185	0xbc50a484	-0.012734536
186	0xbc3b0986	-0.011415845
187	0x3c040267	0.008057213
188	0x3c93cede	0.018042978
189	0x3be06021	0.006847397
190	0xbb6fdf8e	-0.0036601755
191	0x3b8b789f	0.0042563225
192	0x3c41c335	0.011826326
193	0xbca9f155	-0.020744959
194	0x3b86b3fb	0.004110811
195	0xbb95326d	-0.0045531304
196	0xbc205a97	-0.009787223
197	0x3aee0c62	0.0018161649
198	0x3b590bb3	0.0033118546
199	0x3c4a4185	0.012344723
200	0xbbdd1307	-0.006746653
201	0x3bb098a4	0.00538929
202	0xbb970900	-0.004609227
203	0xbc0c1a3c	-0.008551177
204	0xbacfa63b	-0.0015842387
205	0x3c826c1a	0.015920687
206	0x3c6c16c6	0.0144097265
207	0xbb1af33d	-0.0023643516
208	0x3a0af466	0.00053007004
209	0xbc1888ee	-0.00930999
210	0xbc34b0e8	-0.011028506
211	0xbc6499de	-0.0139527
212	0x3a4488d0	0.00074971933
213	0x3bdb30e9	0.00668918
214	0xb9fdd4c2	-0.00048414437
215	0xbc9edd90	-0.019392759
216	0x3ab6dbb5	0.0013950976
217	0x3cdac253	0.02670399
218	0xbc6ff2ef	-0.014645322
219	0x3cde8834	0.027164556
220	0xbc2e2db9	-0.010631018
221	0x3b75811b	0.0037460986
222	0x3b505280	0.0031787455
223	0x3bd4e7bd	0.006497352
224	0x3c53728a	0.012905726
225	0x3ba240b5	0.0049515613
226	0x3a1f8526	0.00060852093
227	0xbc052c9d	-0.008128312
228	0xbb9d5890	-0.0048018172
229	0xb8ce510d	-9.837942e-05
230	0x3bbe5fd1	0.005809762
231	0x3cafdcd7	0.02146761
232	0x3b6a6ee7	0.003577167
233	0xbc17ef4f	-0.009273364
234	0xbc046df8	-0.008082859
235	0xbc07a47d	-0.008278963
236	0xbbb5f6c3	-0.005553098
237	0x3c53f1c5	0.01293606
238	0xbc9e0dc7	-0.019293679
239	0x3c949c96	0.018141072
240	0xbbe83ed8	-0.0070875697
241	0x3aa1d167	0.0012345732
242	0x3ada68b4	0.0016663284
243	0x3c555117	0.013019822
244	0xbc2a7ac7	-0.010405249
245	0x3c02d492	0.007985251
246	0xbc2bc9ff	-0.010485171
247	0x3c3aaf60	0.011394352
248	0x3c835e9f	0.01603633
249	0xbc0249ef	-0.007952197
250	0x3b540647	0.0032352374
251	0xba4fa764	-0.00079213665
252	0xba847772	-0.0010106398
253	0xbc4ac9cb	-0.012377213
254	0x3c851b5b	0.016248396
255	0xbaa03f46	-0.0012225888

v1 f4 [200, 200]
0	0xbc27d89f	-0.010244518
1	0x3bdd1519	0.0067469
2	0x3c3b35df	0.011426418
3	0xbbbedf0f	-0.0058249305
4	0x3bd9dd5c	0.0066487025
5	0x3c4eb867	0.012617207
6	0x3c2b1463	0.010441872
7	0xbbf95b59	-0.0076097664
8	0x3ba1430e	0.0049213236
9	0xbc492bf1	-0.012278543
10	0x3b7d8e2f	0.0038689484
11	0x3bdf26c2	0.00681004
12	0x3a1bfe1e	0.0005950647
13	0x3b6e6549	0.0036376289
14	0xbb14ef9d	-0.0022725828
15	0x3cf28e46	0.029608857
16	0x3b1a1f47	0.0023517178
17	0x3c8827d4	0.016620554
18	0xbbe91e2f	-0.007114194
19	0x3cac8182	0.021057848
20	0x3c9b077f	0.018924473
21	0xbcfa3f1e	-0.030547675
22	0x3bff3709	0.007788543
23	0xbbaee76e	-0.005337647
24	0xbc3c3e1a	-0.011489416
25	0x3ae06027	0.0017118499
26	0xbc09ae22	-0.008403333
27	0xbc4a2835	-0.012338688
28	0x3c2b7d5f	0.0104669025
29	0xbc66152f	-0.0140431365
30	0xbc71d3b4	-0.014759947
31	0x3c6167c2	0.013757648
32	0xbc8c03e2	-0.017091695
33	0xbb26440e	-0.0025370154
34	0xbc03e6e4	-0.008050654
35	0x3c013cb0	0.007888004
36	0x3c565a5b	0.013083066
37	0xbc6e49d6	-0.014543971
38	0xbcb13fd2	-0.021636877
39	0xbc88586b	-0.016643723
40	0x3b31d6fe	0.0027136202
41	0x3b709fd2	0.0036716354
42	0xbc9c9660	-0.019114673
43	0x3aa9412b	0.0012913098
44	0xbc296bcb	-0.010340641
45	0x3ccd796c	0.025082313
46	0x3bd84c64	0.0066009033
47	0x3b0143bc	0.001972421
48	0x3d16c211	0.03680617
49	0x3cc7f1fe	0.024407383
50	0xbc515bdc	-0.012778249
51	0xbb8fb83a	-0.004385975
52	0x3c8d5a25	0.017254898
53	0x3b71696a	0.0036836513
54	0xbbf83b53	-0.0075754314
55	0xbc7dd768	-0.015493251
56	0xbb64815a	-0.0034867139
57	0xbc42b5a2	-0.011884125
58	0xbbc4f14e	-0.006010211
59	0x3b8e1cfb	0.004336951
60	0xbbdafa07	-0.0066826376
61	0x3ad846cf	0.0016500595
62	0xbb7c16cf	-0.0038465743
63	0x3c3f3cee	0.011672242
64	0x3c6b7a63	0.014372441
65	0x3a810442	0.0009843188
66	0xbbea81f2	-0.007156604
67	0xbc883d74	-0.016630866
68	0xbbaaaea6	-0.005208808
69	0xbc97d706	-0.018535148
70	0x3c2c2f95	0.010509391
71	0x3c68fd08	0.014220484
72	0x3c04e471	0.008111105
73	0x3ca3d454	0.019998707
74	0x3ccfeaff	0.02538061
75	0xbc404373	-0.011734831
76	0xbc3cf305	-0.01153255
77	0x3bc2b95f	0.005942508
78	0xbcb32b1f	-0.021871148
79	0x3c9c1be3	0.019056266
80	0xbc841703	-0.016124254
81	0xbc1ec2b3	-0.009689975
82	0x3c1dfeca	0.009643266
83	0x3c5d993a	0.013525302
84	0xbb11a80e	-0.0022225413
85	0xbc43e8f6	-0.011957398
86	0x3c72f6d9	0.014829361
87	0x3cd9a027	0.026565624
88	0xbc25303c	-0.010082301
89	0x3829168a	4.031373e-05
90	0x3ca71db7	0.020399911
91	0x3c084b9d	0.008318809
92	0x3b7ee769	0.0038895255
93	0xbca11ce5	-0.019667098
94	0x3c62e11a	0.013847614
95	0x3a7f4391	0.0009737546
96	0xbc2ee29b	-0.010674144
97	0xbb9a200f	-0.0047035287
98	0xba8f8786	-0.0010950423
99	0x3b8426dc	0.0040329527
100	0xba8d605e	-0.0010786166
101	0x3b80c35c	0.0039295387
102	0xbbc18eeb	-0.0059069297
103	0x3bcfee59	0.006345552
104	0xbbf233d8	-0.007391434
105	0xbcdf81d3	-0.027283585
106	0x3cb881c8	0.022522822
107	0x3cf4861c	0.029849105
108	0xbc9850b6	-0.018593173
109	0x3ad595fc	0.0016295309
110	0xbc298214	-0.010345954
111	0xbb61e707	-0.0034469978
112	0x39bc95d0	0.00035969773
113	0xbc427ada	-0.01187011
114	0xbb75da29	-0.0037514067
115	0xbc4dbce0	-0.012557238
116	0x3c0a1645	0.008428161
117	0x3c8c534c	0.017129563
118	0xbcd999cf	-0.0265626
119	0x39c8de1a	0.0003831245
120	0xb98d224e	-0.00026919175
121	0xbc2c5c37	-0.010520033
122	0xbc5764e7	-0.013146616
123	0xbbe1bdff	-0.0068891044
124	0x3cec395a	0.028835941
125	0xbb3ea5de	-0.0029090564
126	0x3c0857ed	0.008321744
127	0xbb2b67bd	-0.0026154362
128	0x3b5b9939	0.0033508076
129	0xbc91f6e6	-0.017817926
130	0x3ca151d9	0.019692348
131	0x3b7dc9e0	0.0038725063
132	0x3bcde68f	0.0062835882
133	0x3c2f9c43	0.010718408
134	0x3ca141a9	0.01968463
135	0x3c4be8aa	0.012445608
136	0xbc666976	-0.01406323
137	0xbc528c2e	-0.012850804
138	0x3b6c4e1f	0.0036057306
139	0x3b67076b	0.0035252224
140	0x3bbbf74b	0.0057362667
141	0x3bdd427c	0.0067523103
142	0xbb9244cb	-0.004463767
143	0xbc690714	-0.014222879
144	0x3c5322db	0.012886728
145	0xba77eb96	-0.0009457407
146	0x3cb54698	0.022128388
147	0xbbd4a924	-0.0064898897
148	0x3b044110	0.0020180382
149	0x3c835e3b	0.016036144
150	0xbb4e529f	-0.0031482351
151	0xbbcdf136	-0.006284858
152	0x3c9abe1c	0.01888948
153	0xbc01169b	-0.007878925
154	0xbc84d4d1	-0.01621476
155	0xbc6d74a6	-0.014493143
156	0x3bc13b5a	0.005896968
157	0xbd057eb8	-0.03259155
158	0x3c1f47e8	0.009721734
159	0xbcb19537	-0.021677596
160	0x3a93187f	0.001122251
161	0xbc4235cd	-0.011853647
162	0xbc1f13e5	-0.009709333
163	0xbb2ebec6	-0.0026664003
164	0xbada946c	-0.0016676313
165	0xbbcabb8d	-0.0061869086
166	0x3c1b4a09	0.009478101
167	0x3c3a8f9f	0.011386781
168	0x3c59900b	0.013278971
169	0xba9c091e	-0.0011904573
170	0x3c3c7f1f	0.011504917
171	0xbba10261	-0.0049136137
172	0x3cca6f74	0.024711348
173	0x3c0e6402	0.008690836
174	0x3c96d4c7	0.018412007
175	0x3ac810ef	0.0015263836
176	0xbbb706f9	-0.005585548
177	0x3bef5eb0	0.007304989
178	0xbc0b2b34	-0.008494187
179	0x3caa4945	0.02078689
180	0x3b8cc92d	0.004296443
181	0x3b42afbf	0.0029706804
182	0xba9c6e73	-0.0011934772
183	0x3c00bde0	0.00785777
184	0xbce18597	-0.02752952
185	0xbc5bc4f7	-0.013413659
186	0x3ba3257a	0.004978833
187	0xbc9cd92c	-0.019146524
188	0xbc45dfff	-0.012077331
189	0x3c8e8b72	0.017400477
190	0x3c1f9d92	0.0097421575
191	0xbc69a80d	-0.014261258
192	0x3c7bd4dc	0.015370574
193	0xbc2f71d9	-0.010708296
194	0x3c4a3502	0.01234174
195	0xbc82422a	-0.01590069
196	0x3c9715e4	0.018443055
197	0x3c168d29	0.009188929
198	0x3ad461d0	0.0016203467
199	0x3bcb009c	0.006195141
200	0xbdb29b22	-0.087209955
201	0x3d2eb8d0	0.04265672
202	0x3cd17a68	0.025571063
203	0xbc205533	-0.009785938
204	0xbc15743d	-0.009121952
205	0x3b4a4d6a	0.0030868896
206	0xbcb9d321	-0.022683682
207	0x3cc06e5d	0.023490125
208	0x3c345128	0.011005677
209	0xbd9efaf9	-0.07762713
210	0xbbc9e5a4	-0.0061614085
211	0xbd6a2c22	-0.057170995
212	0xba79f733	-0.0009535432
213	0xbc0c9aff	-0.008581876
214	0x3c8aa4c6	0.016924273
215	0xbc85c96f	-0.016331403
216	0xbc7452e6	-0.014912343
217	0x3c9599ef	0.018261878
218	0xbc903f9d	-0.017608458
219	0x3c6200ac	0.0137941055
220	0x3cba0e80	0.022711992
221	0x3c255bb1	0.010092662
222	0x3a9f6164	0.0012159762
223	0xbc50b032	-0.012737321
224	0xbbbf51b2	-0.0058385963
225	0x3c8ed52f	0.017435638
226	0xbc3fdf17	-0.011710904
227	0x3a99d191	0.0011735429
228	0xbc902909	-0.017597692
229	0xbbe6271e	-0.007023706
230	0x3cf8543e	0.030313607
231	0x3b36c907	0.0027890818
232	0xbd11c24f	-0.035585698
233	0xbb8b960d	-0.004259831
234	0xba4a3600	-0.0007713735
235	0xbd3211d0	-0.04347402
236	0x3c9bd81a	0.019023944
237	0x3ba574cb	0.005049323
238	0xbd39542a	-0.04524628
239	0x3920a6b2	0.00015320888
240	0x3c8f5bd9	0.017499851
241	0x3c0de29f	0.008659988
242	0x3af5dc3b	0.001875765
243	0x3cdf89d6	0.027287405
244	0xbcca8bcb	-0.024724862
245	0x3b7224dd	0.0036948242
246	0x3c13bca4	0.009017143
247	0x3cbb3258	0.022851154
248	0xbd96d4dd	-0.07364819
249	0xbda28374	-0.07935229
250	0x3c7576b7	0.014981917
251	0xbceb01a5	-0.028687308
252	0xbc93c22d	-0.018036926
253	0xbbf512c8	-0.0074790455
254	0x3b7c79b9	0.00385247
255	0xbd83eb2e	-0.06441341

w2 f4 [200, 20]
0	0x3ce1577f	0.027507542
1	0x3cad50df	0.021156726
2	0x3bb7c9ab	0.0056087575
3	0xbcaf1553	-0.021372473
4	0xbcb1c98f	-0.021702556
5	0x3c8832e2	0.016625825
6	0xbc26068c	-0.010133397
7	0x3c083215	0.008312722
8	0xbc7f20d0	-0.015571788
9	0x3c1157fb	0.008871074
10	0x3b1dec33	0.0024097085
11	0xbc465aef	-0.012106641
12	0xbc7af301	-0.015316726
13	0x3c056c0a	0.008143434
14	0x3c9eb11b	0.01937156
15	0xbb18a490	-0.0023291446
16	0x3c71c8ee	0.014757378
17	0x3c4f5e6c	0.012656789
18	0xbbbb04d8	-0.0057073645
19	0xbc8765e2	-0.016528074
20	0x3d28375b	0.041068416
21	0x3cd7dd40	0.026350617
22	0x3c18dede	0.009330479
23	0x3c6d7ba9	0.014494815
24	0x3d81dc55	0.06340853
25	0x3d35222a	0.044222035
26	0xbd59984d	-0.05312376
27	0x3d0417e3	0.032249343
28	0xbd2476e4	-0.040152445
29	0xbb0a5afe	-0.0021111364
30	0xbc60795d	-0.01370081
31	0x3d2c51f8	0.04207036
32	0x3d10e1ff	0.035371777
33	0x3b517fb9	0.0031966998
34	0xbd2a7fc0	-0.04162574
35	0x3cf08e75	0.029364804
36	0x3b59960d	0.003320101
37	0xbdaca258	-0.08429402
38	0xbc8026a4	-0.015643425
39	0x3ce6b668	0.02816315
40	0x3d7eb84f	0.06218749
41	0xbc211c0e	-0.009833349
42	0xbbac92ab	-0.0052665076
43	0xbce643fb	-0.028108587
44	0x3d95f2a3	0.0732167
45	0x3d7b26a5	0.06131615
46	0xbd0580bb	-0.03259347
47	0x3ada0f0b	0.0016636563
48	0xbcb8099d	-0.022465521
49	0xbb44d8a8	-0.0030036364
50	0xbc7dc06d	-0.015487772
51	0x3c50cd89	0.012744316
52	0x3cd47e39	0.025939094
53	0x3d74c54a	0.059758462
54	0xbd17d275	-0.03706594
55	0xbd2a4189	-0.041566405
56	0xbd44d8e5	-0.04805841
57	0xbcca6903	-0.024708277
58	0x3c6e15a0	0.014531523
59	0xbcb8c6cc	-0.022555731
60	0x3c2428c8	0.010019489
61	0x3bace13c	0.0052758735
62	0xbc035205	-0.00801516
63	0xbb02be8c	-0.001995
64	0xbc1b4023	-0.009475741
65	0xbc3b2b9f	-0.011423974
66	0x39f86836	0.0004737989
67	0xbc3dd075	-0.011585345
68	0xbba680d9	-0.005081278
69	0xba4a9ecb	-0.00077293505
70	0xbced3b2e	-0.028958883
71	0x3c7ef8a1	0.015562207
72	0x3c20c907	0.009813554
73	0xbc039441	-0.008030952
74	0xbc9ee7ed	-0.0193977
75	0x3cb9d3c0	0.022683978
76	0x3b8d2055	0.004306833
77	0x3b3d67ee	0.0028901058
78	0xbcd14f08	-0.02555038
79	0xbc8fc769	-0.01755114
80	0xbc73052c	-0.014832776
81	0xbcb7cee0	-0.022437513
82	0x3d3f558e	0.04671245
83	0xba0ad7b8	-0.0005296427
84	0xbd297103	-0.041367542
85	0x3d1587e6	0.036506556
86	0xbd3b7b19	-0.045771692
87	0x3d296c27	0.041362908
88	0xbbea13f4	-0.007143492
89	0x3ca2243e	0.019792672
90	0xbc985fd7	-0.018600387
91	0x3c8eee3d	0.017447585
92	0xbd857bcb	-0.06517752
93	0xbc1f5611	-0.00972511
94	0x3ba7ee5a	0.0051248493
95	0x3d14c00e	0.03631597
96	0xbc824b20	-0.015904963
97	0xbce3a625	-0.027789185
98	0xbc33a69b	-0.010965015
99	0xbb8a3e6c	-0.004218867
100	0xbccda418	-0.02510266
101	0x3d17aed4	0.037031963
102	0x3c29df47	0.010368175
103	0xbcc047b9	-0.0234717
104	0x3c3f40ce	0.0116731655
105	0x3ca97be0	0.020688951
106	0xbbccb2cf	-0.0062469016
107	0xbd6ec51f	-0.058293458
108	0x3d3dc4b1	0.046330158
109	0xbd5c5444	-0.0537913
110	0xba5d40ef	-0.0008440157
111	0x3bd9a550	0.0066420212
112	0xbced48cf	-0.028965382
113	0x3c0ffe9e	0.008788733
114	0x3bd4b49a	0.006491256
115	0x3d60c855	0.05487855
116	0x3ca7f4ba	0.020502437
117	0x3c8bf200	0.017083168
118	0xbd3cd660	-0.04610288
119	0x3d00950f	0.031392153
120	0x3d0d5362	0.03450335
121	0xbcf28f65	-0.029609391
122	0xbb457384	-0.0030128667
123	0xbd334347	-0.043765333
124	0x3a7b38e6	0.00095833687
125	0x3d4a96b9	0.049460147
126	0xbbbf5888	-0.005839411
127	0xbb5177c5	-0.0031962257
128	0x3d3083c8	0.043094426
129	0xbc8e6ad9	-0.017384933
130	0x3da34ba0	0.07973409
131	0x3d2596e3	0.0404271
132	0x3ca15539	0.019693958
133	0x3d857efe	0.065183625
134	0x3db935c3	0.09043457
135	0x3d243d3c	0.04009746
136	0xbd098df8	-0.033582658
137	0xbda69599	-0.08134002
138	0xbcf2bae9	-0.029630141
139	0xbc914bfb	-0.017736426
140	0x3af241b3	0.0018482715
141	0x3c54ad6c	0.0129808
142	0x3c6679eb	0.014067153
143	0x3d7f08f8	0.062264413
144	0xbd6eeee7	-0.058333304
145	0x3bc94317	0.006142031
146	0xbbc7541f	-0.006083026
147	0x3d0511ce	0.032487683
148	0xbd0e949f	-0.034809705
149	0x3cc88a42	0.024479989
150	0xbd11c319	-0.03558645
151	0x3cd0379a	0.025417138
152	0x3a81d286	0.000990466
153	0x3c90e602	0.017687801
154	0xbb30002b	-0.002685557
155	0xbad4a0a2	-0.0016222189
156	0x3d974009	0.073852606
157	0x3ccc5619	0.024943398
158	0xbc864ffe	-0.016395565
159	0xbcd43bfd	-0.02590751
160	0xbd836639	-0.06415982
161	0x3ca47971	0.020077439
162	0xbd245c2e	-0.040126972
163	0xbdc272a5	-0.09494523
164	0xbce6464b	-0.02810969
165	0x3cd265f4	0.02568338
166	0x3caf1ac8	0.021375075
167	0x3ccf06a4	0.025271721
168	0xbd07f473	-0.03319211
169	0x3d53a06d	0.051666666
170	0x3d4adfe1	0.049529914
171	0xbb8c612d	-0.004284045
172	0x3c940f53	0.018073713
173	0xbc370a88	-0.011171944
174	0xbd1f23cb	-0.038852494
175	0xbde5f7c1	-0.11228896
176	0x3d8212b0	0.063512206
177	0xbd30555f	-0.043050166
178	0x3d9698c5	0.07353357
179	0xba10452d	-0.0005503472
180	0x3bae01a7	0.0053102556
181	0x3c15d474	0.009144891
182	0x3b71ce66	0.0036896705
183	0xbc719523	-0.01474503
184	0xbb30b735	-0.0026964669
185	0x3c2bb5d8	0.010480367
186	0x3c17b173	0.009258616
187	0x3bd967a5	0.00663467
188	0x3d0b8cc6	0.0340698
189	0xba4725d1	-0.00075968826
190	0x3c846398	0.016160771
191	0x3c1084f6	0.008820763
192	0x3c293139	0.010326677
193	0x3c4a752e	0.012357039
194	0xbca901ee	-0.020630803
195	0x3a86afe0	0.0010275804
196	0xbb1d3b56	-0.0023991666
197	0x3d1a0117	0.037598696
198	0x3bb848f6	0.005623932
199	0x3d206d7f	0.039166924
200	0xbd24fd78	-0.04028079
201	0xbd1f7666	-0.038931273
202	0x3d43c6d7	0.04779705
203	0x3c9f5917	0.019451661
204	0x3c675463	0.01411924
205	0xbd51b0dc	-0.051194057
206	0x3bf7a126	0.007557052
207	0x3c9b9374	0.01899121
208	0x3da9a896	0.08284108
209	0xbd9dbd72	-0.077021495
210	0xbcf7ef28	-0.030265406
211	0x3d9d98c1	0.07695151
212	0xbd851180	-0.064974785
213	0xbbf7cd14	-0.007562289
214	0x3bf79936	0.007556106
215	0x3dbf0584	0.09327224
216	0xbc60f4b7	-0.01373022
217	0x3d1d3715	0.03838261
218	0xbd26bd67	-0.040707972
219	0xbd5f53b6	-0.054523192
220	0x3ce22d27	0.027609421
221	0xbb640d83	-0.0034798093
222	0x3c98f3b3	0.018670892
223	0xbcc1603f	-0.023605464
224	0x3c205582	0.009786012
225	0x3b0ddc6e	0.002164628
226	0x3ab0e905	0.001349718
227	0x3c5e027e	0.013550399
228	0xbb743e77	-0.0037268677
229	0x3a52db6b	0.000804356
230	0xbbcdb0a8	-0.0062771626
231	0xba061b55	-0.0005115767
232	0xbbeb139f	-0.00717397
233	0x3c009e86	0.007850295
234	0x3c34753d	0.01101428
235	0xbbb65b8b	-0.005565112
236	0xbb3b503c	-0.002858176
237	0x3c0b1b0d	0.008490336
238	0x3cc0d5e0	0.023539484
239	0xbc28cead	-0.010303182
240	0xbb7427b3	-0.0037255108
241	0x3ca0f1f4	0.019646622
242	0x3ca059b7	0.01957403
243	0x3bc1f794	0.005919406
244	0x3c1f78d5	0.009733398
245	0xbc5b0e52	-0.013370113
246	0x3acd247d	0.0015651133
247	0xbd019550	-0.031636536
248	0xbba19b41	-0.004931838
249	0xb9ee0b3c	-0.00045403268
250	0xbb794aa9	-0.0038038886
251	0x3ca52641	0.020159842
252	0x3c4ba397	0.01242914
253	0x3c133a4d	0.008986068
254	0xbc5f100d	-0.013614667
255	0x3c208a7e	0.009798644
