code_tidy/model_step3/sss3_f09.pt (torch, 737819 bytes, 3 tensors)

w1 f4 [700, 200]
0	0x3bc88dc8	0.0061204173
1	0x3c4da8b7	0.012552432
2	0xbb0c6561	-0.0021422731
3	0xbc738e44	-0.014865462
4	0x3b307e34	0.0026930692
5	0xbc8e945c	-0.017404728
6	0xbc16774d	-0.009183717
7	0xbbbb61ed	-0.005718461
8	0x3c4c9e19	0.012488865
9	0x3c3b301f	0.011425047
10	0xbbcb608b	-0.006206577
11	0xbc1f08b1	-0.009706662
12	0xbbce67ea	-0.0062990086
13	0xbc0e6138	-0.008690171
14	0x3bda7ba6	0.006667572
15	0x3bbdf272	0.005796724
16	0x3cdce968	0.026966766
17	0xbabba07b	-0.0014314795
18	0xbbce79f2	-0.006301158
19	0x3c88971c	0.016673617
20	0x3b51b6b0	0.003199976
21	0xba088b63	-0.00052087585
22	0x3b63c487	0.003475459
23	0x3a714eb3	0.00092051475
24	0x3b1074e5	0.002204233
25	0x3c9959c0	0.018719554
26	0x3b80bffc	0.0039291363
27	0x3b7b90dc	0.0038385903
28	0xbc34d31e	-0.011036662
29	0x3b7f5319	0.0038959442
30	0x3b3ad9c4	0.0028511146
31	0x3b69189a	0.0035567642
32	0xbb7c5ab8	-0.003850622
33	0x3acec5b2	0.001577547
34	0xbbfd9e32	-0.0077398056
35	0x3cb3e888	0.021961465
36	0x3aa801ad	0.0012817882
37	0x3bbe4bac	0.0058073606
38	0xbb17dc9f	-0.0023172272
39	0xbbf63098	-0.007513117
40	0xbcfa11a2	-0.030525986
41	0x3bb67476	0.0055680824
42	0xbc2b979c	-0.010473158
43	0xbc18794c	-0.009306263
44	0xbbb4208d	-0.0054970444
45	0x3c77a27a	0.015114421
46	0xbc4af2df	-0.012387007
47	0x3be7b010	0.007070549
48	0xbb092693	-0.0020927533
49	0xbbee8503	-0.00727904
50	0xbb1775b6	-0.0023110933
51	0xbbbd6ebd	-0.0057810233
52	0xbb65c5d7	-0.0035060549
53	0x3be3f8dc	0.0069571566
54	0xbb119335	-0.0022212986
55	0x3ba7b45e	0.005117937
56	0xbc8bc8b5	-0.017063478
57	0xbbb3da3e	-0.005488663
58	0xbc2f00c6	-0.010681337
59	0x3ab365c0	0.001368694
60	0xbc3d0d67	-0.01153884
61	0x3c5aeba5	0.013361846
62	0xbc17ae8e	-0.009257926
63	0x3c88137f	0.016610859
64	0x3bf328ea	0.007420649
65	0x3c2e658f	0.010644331
66	0x3c96e53d	0.018419856
67	0x3b6a5e87	0.003576191
68	0xbb95d57f	-0.00457257
69	0xbb545788	-0.0032400806
70	0xbc0bdead	-0.008536977
71	0x3b6ff1c4	0.003661261
72	0x3c2409ea	0.010012129
73	0x365ebca2	3.3190377e-06
74	0xbb159dd8	-0.0022829678
75	0x3a968c4d	0.0011485905
76	0x3bb4d968	0.005519081
77	0xbbac90c3	-0.0052662804
78	0xbca28240	-0.019837499
79	0xbb0896d1	-0.0020841847
80	0xba5ec69e	-0.0008498224
81	0xbc869469	-0.01642819
82	0x3b54c32c	0.0032464964
83	0x3c848f48	0.016181603
84	0xbb98a6dd	-0.0046585635
85	0xbbcf059a	-0.0063178064
86	0x3be48b38	0.006974604
87	0x39c9eb8d	0.00038513207
88	0xbaba4abf	-0.001421295
89	0xbc57590d	-0.01314379
90	0xbbf89d79	-0.0075871316
91	0x39c1d3a4	0.00036969513
92	0xbc083f89	-0.008315929
93	0xbc864527	-0.016390396
94	0x3b814050	0.003944434
95	0x3b0d6d76	0.0021580136
96	0xbbe012f4	-0.006838197
97	0x3c2d1429	0.010563889
98	0xbbe22632	-0.006901526
99	0x3c087c47	0.008330411
100	0x3bf4ae31	0.0074670543
101	0x3c8cc38e	0.017183091
102	0x3bc45733	0.0059918403
103	0xbc01f6b0	-0.00793235
104	0x3b9dcf60	0.004815981
105	0x3bb6878c	0.0055703577
106	0xbad6b63c	-0.0016381214
107	0x3c0f2ae2	0.008738251
108	0x3bdc9c01	0.0067324643
109	0x3c0f3d5b	0.008742656
110	0x3b0a9c90	0.0021150447
111	0xbba21c10	-0.004947193
112	0xbc34f9eb	-0.011045913
113	0x3c43bafc	0.011946436
114	0xbbdcdbfd	-0.006740092
115	0xbb8b2908	-0.0042468347
116	0x3a8500ad	0.0010147296
117	0xbb6d52e6	-0.0036212741
118	0xbc2f78f1	-0.010709987
119	0x3ca8625d	0.020554716
120	0xbaae92d2	-0.0013318902
121	0x3b0faad5	0.0021921892
122	0xbacb95c8	-0.0015532309
123	0xbc2c0110	-0.0104983
124	0x3c47afd4	0.012187917
125	0xbb8ffa79	-0.0043938723
126	0xbb5654ef	-0.0032704433
127	0x3a23bc8f	0.0006246054
128	0x3c1a2017	0.009407065
129	0x3bbefc4c	0.005828416
130	0xbc46f285	-0.012142782
131	0x3b089e47	0.0020846294
132	0xbb06c968	-0.0020566825
133	0x3b8b559f	0.00425215
134	0x3b9fba34	0.004874492
135	0x3b180d14	0.0023201155
136	0x3c1d67f4	0.009607304
137	0xbc28e000	-0.010307312
138	0xbc8377c4	-0.01604832
139	0x3bc75b51	0.006083884
140	0xbc80fab2	-0.01574454
141	0x3c969015	0.01837925
142	0xbc0a1da1	-0.008429916
143	0x3b48543c	0.0030567786
144	0x3b2f46a1	0.002674498
145	0x3bcd5736	0.0062665
146	0x3bdbcce9	0.006707777
147	0x3bec1ef5	0.007205839
148	0x3bf315fb	0.0074183918
149	0xbbdfa169	-0.0068246615
150	0xbbaa9107	-0.005205277
151	0x3a86c794	0.0010282868
152	0x3bbeaada	0.005818707
153	0xbb6a3f69	-0.0035743362
154	0xbc8dc92b	-0.017307838
155	0x3c480d05	0.012210135
156	0xbc757a72	-0.0149828065
157	0xbb84fc6a	-0.0040584104
158	0xbc40302d	-0.011730236
159	0xbaae7c27	-0.0013312147
160	0xbcfba999	-0.030720519
161	0xbb901253	-0.0043967157
162	0xbba11cbe	-0.0049167564
163	0x3b98e5d6	0.0046660705
164	0x3a9f5425	0.0012155814
165	0xbb6e489b	-0.0036359194
166	0x3996b476	0.00028744683
167	0xbc936a31	-0.017994972
168	0xbc05ca80	-0.008165956
169	0x3b6c42c2	0.0036050533
170	0x3b8a4343	0.004219444
171	0xbabbbe41	-0.0014323668
172	0xbc55cdaf	-0.013049527
173	0x3bca0d29	0.0061661196
174	0x3b8548f6	0.0040675355
175	0x3c6ea675	0.014566054
176	0xba98103b	-0.0011601517
177	0xba8f3c75	-0.0010928052
178	0x3c18ea06	0.009333139
179	0x3b0568e7	0.0020356716
180	0xbaae363b	-0.0013291308
181	0xbc1bee23	-0.009517225
182	0xbc256cb4	-0.010096718
183	0xbbc4ecdf	-0.0060096825
184	0xbbb33029	-0.0054683876
185	0xbc452148	-0.012031861
186	0xbc86af40	-0.016440988
187	0x39ddc46d	0.00042298753
188	0x3baefa9f	0.005339935
189	0xbbaf2ce9	-0.00534593
190	0x3b7a03d9	0.0038149266
191	0x3b35230c	0.0027639298
192	0x3c644142	0.013931574
193	0xbcbadc64	-0.022810169
194	0x3bb1670d	0.005413896
195	0xbba90e26	-0.0051591573
196	0xbc4bd621	-0.012441189
197	0x3c113756	0.008863291
198	0x3b568db9	0.0032738282
199	0x3c4b76f4	0.012418497
200	0xbc2b6669	-0.010461428
201	0x3bad2d8d	0.005284971
202	0xbc6b1b2c	-0.01434974
203	0xbc439094	-0.011936326
204	0xb9fcddee	-0.00048230536
205	0x3bc00abe	0.0058606556
206	0x3b98bc40	0.004661113
207	0xbb5fb9df	-0.0034137887
208	0x3c15e4a6	0.009148752
209	0xbc4cb885	-0.012495165
210	0xbc046c89	-0.008082517
211	0xbc01c9b9	-0.00792163
212	0xb8594f07	-5.181043e-05
213	0xb9f144c0	-0.00046018325
214	0x3c18bdc8	0.009322591
215	0xbca08279	-0.019593464
216	0x3c51f1fe	0.012814043
217	0x3ba9482f	0.0051660757
218	0xbc62aa70	-0.013834581
219	0x3cc8e363	0.024522489
220	0xbbe4cc88	-0.00698239
221	0xbc877fa7	-0.016540362
222	0x3c2c648f	0.010522022
223	0x3b5a9336	0.0033351905
224	0x3b841c1d	0.0040316717
225	0x3bbc22d4	0.0057414565
226	0xb89eb071	-7.566892e-05
227	0xbc37aa6e	-0.011210067
228	0xbc794aa9	-0.015215554
229	0xb9e2db95	-0.0004326968
230	0xbb4fb876	-0.003169564
231	0x3c85a1d1	0.016312512
232	0x3bbc9592	0.005755135
233	0xbc7f5376	-0.0155838635
234	0xbc75c375	-0.015000214
235	0xbc553c07	-0.0130148
236	0xbbeef47b	-0.007292328
237	0x38c08473	9.179944e-05
238	0xbb51279d	-0.003191448
239	0x3b597995	0.003318404
240	0xbc09d7ab	-0.008413236
241	0xb9711c6c	-0.00022994139
242	0x39c353e8	0.00037255813
243	0x3b66aad2	0.0035197032
244	0xbc0ac8cc	-0.008470725
245	0x3b46402a	0.0030250647
246	0xbbcc83ae	-0.0062412834
247	0x3c1b30e9	0.00947211
248	0x3bdaebcb	0.0066809407
249	0xbb9665c0	-0.0045897663
250	0xbc62a808	-0.013834007
251	0xbac9568c	-0.0015360876
252	0x3b120251	0.0022279213
253	0x3a8699ea	0.0010269259
254	0x3c072c03	0.008250239
255	0x3be9eb7c	0.0071386676

v1 f4 [200, 200]
0	0xbc1cd8c3	-0.009573164
1	0x3bf53043	0.00748256
2	0x3c41e70e	0.011834873
3	0xbbaa8190	-0.0052034333
4	0x3bd49256	0.006487171
5	0x3c59da02	0.013296606
6	0x3c2e60c0	0.010643184
7	0xbbf97d51	-0.007613816
8	0x3b89a79a	0.004200888
9	0xbc44647d	-0.011986849
10	0x3b84dc49	0.0040545803
11	0x3bf217fb	0.0073881126
12	0x3991c5a8	0.0002780382
13	0x3b6dacc3	0.0036266304
14	0xbb1da022	-0.0024051745
15	0x3ced4fbf	0.02896869
16	0x3b4415a5	0.0029920128
17	0x3c8b5460	0.017008007
18	0xbbdd8a7a	-0.0067608925
19	0x3ca8001f	0.02050787
20	0x3ca23112	0.01979879
21	0xbcfb850d	-0.030703092
22	0x3bfa6bfa	0.0076422663
23	0xbbcd680c	-0.006268507
24	0xbc3f3980	-0.011671424
25	0x3b1805a5	0.0023196724
26	0xbbfb4224	-0.0076677967
27	0xbc5368f0	-0.012903437
28	0x3c374ea3	0.011188182
29	0xbc61ad06	-0.013774162
30	0xbc765482	-0.015034797
31	0x3c68ee6e	0.014217002
32	0xbc92319e	-0.017845925
33	0xbb0ef850	-0.0021815486
34	0xbc095468	-0.00838194
35	0x3c0c75d0	0.008573011
36	0x3c4a4ca6	0.012347376
37	0xbc7f1a7c	-0.015570279
38	0xbcb59049	-0.022163527
39	0xbc8e6c8f	-0.01738575
40	0x3b096f5e	0.002097092
41	0x3b92e2b3	0.004482591
42	0xbc9db268	-0.01925011
43	0x3a6aea1b	0.0008961276
44	0xbc1d5b68	-0.0096043125
45	0x3ccf3fe0	0.025299013
46	0x3be7ed20	0.007077828
47	0x3b0d6886	0.0021577193
48	0x3d176943	0.03696562
49	0x3ccdb99a	0.025112916
50	0xbc58c9ea	-0.013231734
51	0xbb6cb7ac	-0.003612022
52	0x3c8b2dc8	0.016989604
53	0x3b95c7d4	0.0045709405
54	0xbc09ec08	-0.008418091
55	0xbc7bd286	-0.015370017
56	0xbb7c3f4a	-0.0038489872
57	0xbc4b4f51	-0.012409047
58	0xbbd62bae	-0.0065359687
59	0x3bab282a	0.005223294
60	0xbbf2eab5	-0.007413233
61	0x3a8e4189	0.0010853271
62	0xbb96dc40	-0.0046038926
63	0x3c416809	0.011804589
64	0x3c777254	0.015102942
65	0x3aa116bb	0.0012290099
66	0xbc01e2b5	-0.007927586
67	0xbc83c838	-0.016086683
68	0xbbc0fe2c	-0.0058896746
69	0xbc9608b5	-0.018314699
70	0x3c3806a9	0.011232057
71	0x3c60767b	0.013700123
72	0x3c116544	0.008874241
73	0x3ca8ecaf	0.020620672
74	0x3cc9564f	0.024577288
75	0xbc2ffabd	-0.010740933
76	0xbc42ce36	-0.011889985
77	0x3bccf0ac	0.0062542763
78	0xbcaccbb0	-0.02109322
79	0x3ca251ae	0.019814339
80	0xbc832616	-0.016009372
81	0xbc13943d	-0.009007511
82	0x3c250608	0.010072239
83	0x3c5f133c	0.013615426
84	0xba791e4c	-0.0009503111
85	0xbc50db08	-0.012747534
86	0x3c700002	0.014648439
87	0x3cdc63f8	0.026903138
88	0xbc1c91f3	-0.009556281
89	0xba54e059	-0.00081205886
90	0x3c9fa4f4	0.019487835
91	0x3c0eb645	0.008710449
92	0x3b876ba9	0.004132707
93	0xbca771bf	-0.02043998
94	0x3c5a2d98	0.013316534
95	0x398aca0f	0.00026471957
96	0xbc2a7c25	-0.010405575
97	0xbb9b2ef4	-0.004735822
98	0xba34ac6d	-0.00068921485
99	0x3b82d2d9	0.00399242
100	0xba74c6ac	-0.0009337466
101	0x3b98d0b0	0.0046635494
102	0xbbd84acc	-0.0066007134
103	0x3beaf69c	0.0071705114
104	0xbbd8c2ec	-0.0066150334
105	0xbce3a13b	-0.027786842
106	0x3cb2e84d	0.021839285
107	0x3cf75617	0.030192418
108	0xbc999622	-0.018748347
109	0x3a6aa35c	0.0008950734
110	0xbc285add	-0.01027557
111	0xbb328dc6	-0.0027245148
112	0x3aa23797	0.0012376186
113	0xbc3ff1f1	-0.011715398
114	0xbb5bbd9e	-0.0033529769
115	0xbc47b99f	-0.012190252
116	0x3c15ec60	0.0091505945
117	0x3c86b22e	0.016442385
118	0xbcd97f86	-0.026550066
119	0xb9cfdfb4	-0.00039648789
120	0xba86401e	-0.0010242497
121	0xbc3756d0	-0.011190131
122	0xbc55f67c	-0.013059255
123	0xbbfda77b	-0.0077409125
124	0x3ceb5d0a	0.028730888
125	0xbb1321da	-0.0022450597
126	0x3c009fc9	0.007850596
127	0xbb4df1a5	-0.003142455
128	0x3b2bb7be	0.0026202048
129	0xbc99cf3a	-0.018775571
130	0x3c9c3521	0.019068303
131	0x3b4b7eb2	0.0031050858
132	0x3bd245c4	0.006417008
133	0x3c37340c	0.011181843
134	0x3ca60ebb	0.020270696
135	0x3c55de37	0.013053468
136	0xbc7137d4	-0.014722783
137	0xbc551025	-0.013004337
138	0x3b675d0d	0.0035303265
139	0x3b8762ad	0.004131636
140	0x3ba48fe0	0.005022034
141	0x3bcb05e1	0.006195769
142	0xbba64089	-0.005073611
143	0xbc7bdaa1	-0.015371949
144	0x3c48ad2b	0.012248318
145	0xb9340c1b	-0.00017170647
146	0x3cb11457	0.021616144
147	0xbbbcef97	-0.005765866
148	0x3aebc66e	0.0017988214
149	0x3c8893b3	0.016671991
150	0xbb157831	-0.0022807235
151	0xbbe4431a	-0.006966007
152	0x3c957012	0.018241916
153	0xbbfcdf97	-0.0077170837
154	0xbc8a2a08	-0.016865745
155	0xbc6f12ec	-0.014591914
156	0x3ba54eb0	0.0050447807
157	0xbd079495	-0.033100683
158	0x3c28279a	0.010263348
159	0xbcafca01	-0.021458628
160	0x3a3eb757	0.00072752446
161	0xbc3f64e5	-0.01168177
162	0xbc2c5bef	-0.010519966
163	0xbb5baf88	-0.0033521373
164	0xba7885af	-0.00094803696
165	0xbbb2f011	-0.005460747
166	0x3c2687a2	0.010164173
167	0x3c46decd	0.012138081
168	0x3c5afab2	0.0133654345
169	0xbaef3f7e	-0.0018253175
170	0x3c3321ac	0.010933321
171	0xbb917e91	-0.0044401367
172	0x3cc77359	0.024346994
173	0x3c1ad769	0.009450772
174	0x3c95bbb6	0.018277984
175	0x3aa4e8f7	0.0012581636
176	0xbbcfea5b	-0.006345076
177	0x3be44c39	0.0069670943
178	0xbc11bef9	-0.008895629
179	0x3cb2fe02	0.021849636
180	0x3b9b6b37	0.0047430056
181	0x3b7042f1	0.0036660994
182	0xba999319	-0.0011716812
183	0x3bed79c3	0.007247181
184	0xbce8d861	-0.02842349
185	0xbc675430	-0.014119193
186	0x3bb49d1b	0.0055118925
187	0xbca26479	-0.0198233
188	0xbc396464	-0.011315439
189	0x3c884bb9	0.01663767
190	0x3c1d3c1d	0.009596852
191	0xbc5e42d9	-0.013565742
192	0x3c8033b4	0.015649654
193	0xbc3334eb	-0.01093791
194	0x3c42796f	0.011869772
195	0xbc870cd8	-0.016485617
196	0x3c9d1016	0.01917271
197	0x3c19b4ba	0.0093814675
198	0x3ad4d985	0.0016239142
199	0x3bb562f0	0.005535476
200	0xbddb7316	-0.1071531
201	0x3d908003	0.07055666
202	0x3cbc57e6	0.022991132
203	0xbc193818	-0.009351753
204	0xbcc7ed3e	-0.024405118
205	0x3ce25ee1	0.027633132
206	0xbcc53047	-0.024070872
207	0x3c039c04	0.0080328025
208	0xbb2e433c	-0.0026590368
209	0x3b39aae1	0.0028330612
210	0xbcfc83ee	-0.030824628
211	0xbb235a71	-0.0024925733
212	0x3c8aa5a2	0.016924683
213	0x3be579b4	0.0070030335
214	0xbb92e736	-0.004483129
215	0x3abc761e	0.0014378463
216	0xbb801e08	-0.00390983
217	0xba93f7d6	-0.0011289071
218	0xbc694aa4	-0.014238987
219	0x39b1e1ae	0.00033928215
220	0x3d0cfff6	0.03442379
221	0xbb4a155a	-0.003083548
222	0xbc3bf1e5	-0.011471246
223	0xbce12af2	-0.027486298
224	0xbbe7455a	-0.007057828
225	0x3d12399d	0.035699476
226	0xbc640948	-0.013918228
227	0xbadd8dcc	-0.0016903221
228	0xbc08196d	-0.008306843
229	0x3c9fdc2c	0.019514166
230	0x3cea7a0c	0.02862265
231	0x3b90e156	0.0044213934
232	0xbcacc5e5	-0.021090457
233	0xbb81a0d2	-0.003955939
234	0x3bc1542b	0.005899926
235	0xbb83a59b	-0.0040175444
236	0x3ad44824	0.0016195816
237	0xba926842	-0.0011169987
238	0xbc70045c	-0.014649477
239	0x3b4f4e1a	0.0031632246
240	0x3d11be9a	0.035582162
241	0x3c868587	0.016421093
242	0x3ccf6ae7	0.02531953
243	0xbb868b15	-0.0041059353
244	0x3b14f4ad	0.0022728846
245	0x3cafcbf0	0.02145955
246	0xbca6f0ae	-0.020378437
247	0x3bcb637d	0.0062069283
248	0xbc03b833	-0.008039522
249	0x3a947fa8	0.0011329548
250	0x3cad4a5f	0.021153627
251	0xbcd42bda	-0.025899816
252	0xbc8c1b08	-0.017102733
253	0xbceab7a1	-0.028652014
254	0x3b2dc95d	0.0026517727
255	0xbb7b19fe	-0.0038315053

w2 f4 [200, 20]
0	0x3ce6a145	0.028153071
1	0x3cab4a72	0.020909522
2	0x3bb12137	0.005405571
3	0xbcb0f553	-0.021601355
4	0xbcb38f6c	-0.021918975
5	0x3c8523b0	0.016252369
6	0xbc2ff794	-0.01074018
7	0x3c044662	0.008073421
8	0xbc818638	-0.01581107
9	0x3c025a54	0.007956106
10	0x3b094d35	0.002095056
11	0xbc4eb81d	-0.012617138
12	0xbc7edeb3	-0.015556025
13	0x3c01c176	0.00791966
14	0x3c9c7eee	0.019103494
15	0xbb27c6e8	-0.0025600735
16	0x3c6a7414	0.014309902
17	0x3c4ad64c	0.012380194
18	0xbbcbe271	-0.0062220623
19	0xbc8500f9	-0.016235815
20	0x3cc028ff	0.023457048
21	0x3c585970	0.013204917
22	0xbce26b82	-0.027639154
23	0x3bcc9b3b	0.006244091
24	0x3d95cbc2	0.07314254
25	0x3d0f7af4	0.035029367
26	0xbd7f01a7	-0.062257435
27	0x3cbc066b	0.02295228
28	0xbd7d74c5	-0.06187894
29	0xbc4d9099	-0.012546682
30	0xbcc6e08f	-0.024277
31	0x3cc9dfd1	0.024642857
32	0x3ce61989	0.028088348
33	0xbcf7da16	-0.030255359
34	0xbcb05c93	-0.021528518
35	0xbb78e973	-0.0037980943
36	0x3c8d3a66	0.01723976
37	0xbcb745e7	-0.0223722
38	0xbc8f69ab	-0.017506441
39	0x3ce72d25	0.028219769
40	0x3bb3b87d	0.005484639
41	0xbd025015	-0.031814653
42	0xbcf66e44	-0.030081876
43	0xbcfeac2e	-0.031087961
44	0x3d224762	0.039618857
45	0x3d83bdf1	0.06432713
46	0xbd1a28c0	-0.03763652
47	0xbc161347	-0.0091598695
48	0xbd062262	-0.032747634
49	0xbca7d766	-0.020488452
50	0xbd00b708	-0.031424552
51	0xbc865798	-0.01639919
52	0x3c742617	0.014901659
53	0x3d81fb81	0.06346799
54	0xbb7a777a	-0.0038218186
55	0xbd14a814	-0.036293104
56	0xbd62471c	-0.055243596
57	0xbd2376b4	-0.039908126
58	0x3c89e852	0.016834412
59	0xbd1013fa	-0.0351753
60	0x3c322962	0.010874124
61	0x3c38d90b	0.011282216
62	0xbc13ec83	-0.009028557
63	0xba961764	-0.0011451063
64	0xbc1fe46f	-0.009759053
65	0xbc5f0f29	-0.013614454
66	0x39ad5e43	0.00033067362
67	0xbc2edbd5	-0.010672529
68	0xbbb7db6e	-0.005610875
69	0xbb508eec	-0.003182347
70	0xbcf046f6	-0.029330712
71	0x3c7bf39d	0.015377906
72	0x3c1a2017	0.009407065
73	0xbc272555	-0.010201772
74	0xbca19b5c	-0.019727401
75	0x3cad85e5	0.02118201
76	0x3b07ada9	0.0020702875
77	0x3ac35982	0.0014903995
78	0xbcd4ba65	-0.025967786
79	0xbc8c27d1	-0.01710883
80	0x3c1536b1	0.009107278
81	0x3bc7cc24	0.0060973335
82	0x3d1abd7a	0.037778355
83	0x3c9e5a3e	0.01933014
84	0xbd867e59	-0.06567068
85	0xbbfc490e	-0.0076991385
86	0xbd40da24	-0.047083035
87	0x3d8db695	0.069195904
88	0xbc6dcce9	-0.014514186
89	0x3c5e696f	0.013574942
90	0xbc51a578	-0.0127957985
91	0xbca1412e	-0.0196844
92	0xbd9740fe	-0.07385443
93	0xbcdcfc53	-0.026975786
94	0x3a221d55	0.00061841804
95	0x3dad80c6	0.08471827
96	0xbd619c5a	-0.05508075
97	0x3bf2f910	0.0074149445
98	0xbd728e47	-0.059217717
99	0xbba483e2	-0.0050206045
100	0x3c0f238a	0.0087365005
101	0x3b947a85	0.004531207
102	0x3bf1624c	0.007366454
103	0xbca98a9b	-0.020695975
104	0x3bbfae58	0.005849641
105	0x3badddbd	0.0053059743
106	0x3b77cff7	0.0037813166
107	0xbd0313c6	-0.03200128
108	0x3c10043e	0.008790074
109	0xbd1253bf	-0.035724398
110	0xbb69591b	-0.003560609
111	0x3c3ffe90	0.011718407
112	0xbbeba040	-0.007190734
113	0x3b240a81	0.0025030675
114	0xbbe4fe5f	-0.006988331
115	0x3d03849e	0.032108895
116	0x3b0b1ae3	0.0021225743
117	0x3cf43abb	0.029813161
118	0xbce8a5e5	-0.028399417
119	0xbc067289	-0.008206018
120	0x3d100d4d	0.035168935
121	0xbccf17a2	-0.025279824
122	0x3b191c30	0.0023362748
123	0x3baf68a1	0.005353049
124	0x3c206181	0.009788872
125	0x3d7e1002	0.062026985
126	0xbb37a1f7	-0.0028020123
127	0xbcfca30f	-0.030839471
128	0x3d1fa1be	0.03897261
129	0xbcf85b42	-0.030316953
130	0x3d4cc594	0.049993113
131	0x38fa4760	0.000119342236
132	0xbc6e87f1	-0.014558778
133	0x3d9443a9	0.07239468
134	0x3d896f90	0.06710732
135	0x3d04a86a	0.032387175
136	0x3a826dbe	0.0009950919
137	0xbd8883f7	-0.06665795
138	0xbc2ca79a	-0.010538006
139	0xbda21f42	-0.07916118
140	0xbcfe22e1	-0.031022491
141	0xbca49a7c	-0.020093195
142	0xbc63642e	-0.013878865
143	0xbc8d68c8	-0.017261878
144	0xbd878d58	-0.06618756
145	0x3c470da4	0.012149248
146	0xbcee4f13	-0.02909044
147	0x3d271816	0.040794455
148	0xbce3e18d	-0.027817512
149	0x3bbdf9da	0.005797607
150	0xbd6aa522	-0.05728639
151	0x3d42a132	0.04751701
152	0x3cf1712e	0.029472914
153	0x3d30f13a	0.0431988
154	0xba895a16	-0.0010479118
155	0xbbe9c619	-0.007134211
156	0x3d88eecf	0.06686174
157	0x3d063323	0.03276361
158	0xbd1a9ac2	-0.037745245
159	0xbd8afe4b	-0.06786784
160	0xbd989c16	-0.07451646
161	0xbc7067cf	-0.014673187
162	0xbc2c938a	-0.010533223
163	0xbd8c54ef	-0.06852137
164	0x3b8b581e	0.0042524477
165	0x3d020e0c	0.031751677
166	0x3d22b595	0.03972395
167	0xbd40e225	-0.04709067
168	0xbbe990ae	-0.007127843
169	0xbbc2c674	-0.0059440676
170	0xbaa2b423	-0.0012413304
171	0x3c6132b8	0.013745002
172	0x3c47636c	0.0121697
173	0x3b894542	0.0041891644
174	0xbd162465	-0.036655802
175	0xbccb61a8	-0.02482684
176	0x3d6edf6a	0.058318533
177	0xbce7add1	-0.028281124
178	0x3d7c851f	0.06165039
179	0xbc087652	-0.008328991
180	0x3ba7d1e7	0.005121458
181	0x3c22a884	0.009927873
182	0x3b84d629	0.00405385
183	0xbc753625	-0.014966522
184	0xbb443c74	-0.002994326
185	0x3c1ba126	0.00949887
186	0x3c189890	0.0093137175
187	0x3bd713ae	0.0065636253
188	0x3d0ef36c	0.034900114
189	0xba92fd5d	-0.0011214424
190	0x3c8535cf	0.01626101
191	0x3c1862d2	0.009300904
192	0x3c43553e	0.011922179
193	0x3c5412e7	0.01294396
194	0xbca68ff6	-0.020332318
195	0x3aed2fb8	0.0018095886
196	0xbaf92055	-0.0019006828
197	0x3d17efcc	0.037093922
198	0x3b53c260	0.0032311901
199	0x3d207a34	0.039179042
200	0xbb9b767a	-0.004744348
201	0xbbee4cac	-0.0072723236
202	0x3d1a4c87	0.03767064
203	0x3c6a375a	0.014295423
204	0x3c958d9f	0.018256007
205	0xbcd1ba77	-0.025601609
206	0xbc8f664c	-0.017504834
207	0xbcba6f5e	-0.022758182
208	0x3da56472	0.08075799
209	0xbc0c57d3	-0.008565861
210	0xbc45bfde	-0.0120696705
211	0xbc44b18d	-0.012005222
212	0xbd88dcf6	-0.0668277
213	0xbbea65a0	-0.007153228
214	0x3c829e35	0.01594458
215	0x3c4c1a4b	0.012457441
216	0x3bc56c71	0.00602489
217	0x3cdb9beb	0.026807746
218	0xbd0ff80a	-0.035148658
219	0xbba01ca8	-0.0048862286
220	0xb97d1039	-0.00024134004
221	0xbcb5148b	-0.022104522
222	0x3bd92d2f	0.0066277008
223	0xbd03870f	-0.032111224
224	0x3c4b2d0b	0.012400876
225	0x3ceb2822	0.02870566
226	0xbbef988c	-0.007311886
227	0xbb789208	-0.0037928838
228	0xbc34942b	-0.011021654
229	0xbc275e9d	-0.010215429
230	0xbc92acbd	-0.017904634
231	0xbca14369	-0.019685464
232	0xbc05a09c	-0.008155968
233	0x3c49e237	0.012322
234	0xbb678e32	-0.0035332558
235	0xbc9c8d5a	-0.01911037
236	0xbb541820	-0.0032363012
237	0xbc89e6ba	-0.016833652
238	0x3d4c7a55	0.049921352
239	0xbd419260	-0.047258735
240	0xbb0d4a59	-0.0021559207
241	0x3ca8ce8f	0.020606307
242	0x3c981e42	0.018569116
243	0x3bd37dca	0.006454204
244	0x3c132b00	0.00898242
245	0xbc77522d	-0.015095276
246	0x3b23aa62	0.0024973382
247	0xbcf66aa0	-0.03008014
248	0xbbad8b30	-0.0052961335
249	0xbb4e69ac	-0.003149609
250	0xbb791dd5	-0.0038012166
251	0x3c9d1872	0.019176695
252	0x3c62d28e	0.013844145
253	0x3c188c9f	0.00931087
254	0xbc91d70e	-0.017802741
255	0x3bf831da	0.007574302
