weight_save_1/good_f10.pt (torch, 7326 bytes, 2 tensors)

w f4 [10, 100]
-0.09784144 -0.33035442 -0.48394918 -0.3850697 0.027563347 0.44506752 0.031772196 -0.47613582
0.5979193 0.23712769 0.74182606 0.13613018 0.5813542 0.09855192 -0.088821374 0.50375557
0.2817424 -0.046507798 0.044754058 0.08325147 0.17961885 -0.03344149 -0.10830214 -0.23651433
0.023290703 0.37223294 0.33846253 -0.23509759 0.20764966 0.19466722 0.50314796 -0.19919021
-0.19657552 -0.08239212 0.58680063 -0.45200607 0.079110526 0.4910525 -0.2363855 0.37782496
0.13758253 0.14825268 -0.35033157 0.09559852 0.5434483 0.3183681 0.06396987 0.1099615
0.6692323 0.1353433 0.34433952 0.08752681 0.6747313 0.05995617 0.4002694 -0.21195957
0.5531219 0.09567254 -0.32787797 0.6691707 0.3030185 0.6214541 -0.2851074 0.20584176
0.39508536 -0.27005345 -0.13282526 0.14920737 0.5413758 0.5135198 -0.23584735 0.20025718
0.24952379 0.6589565 -0.08564257 -0.059378717 -0.0082957335 0.17160408 -0.3136128 -0.049598902
0.25717083 -0.050874714 0.4935765 0.19737239 -0.19828223 0.068660475 0.48906824 -0.350876
0.121452875 0.33579266 0.30734912 -0.06439594 -0.02171997 0.03414096 0.2824634 0.24841484
-0.18067914 -0.37866437 0.6861569 0.23191524 -0.39403877 0.6148333 -0.17310299 -0.084052525
-0.26643538 -0.25595045 -0.15455842 -0.12535061 0.09728211 0.55098134 -0.16366707 0.6546947
-0.07355765 -0.11667491 -0.07755693 -0.25296196 0.49215612 -0.098460086 0.3379826 0.6887467
-0.20379928 -0.22955243 -0.3319855 0.18881512 -0.3073826 -0.36636445 -0.19250855 0.10705359
0.27538094 0.2609093 0.53516513 0.65901166 0.59555525 -0.30591017 0.17243145 0.0775151
0.55028254 -0.3740734 -0.3421396 0.07894547 -0.33305714 -0.19503132 -0.09169758 0.3724445
0.43562853 0.07393866 0.033933043 -0.3044274 -0.22012645 -0.024390768 0.5973403 0.5274077
0.47933063 -0.17346728 0.18012533 0.12394775 -0.027247375 0.5729144 0.6068355 -0.4236442
-0.060603254 0.13672239 0.58534205 0.12003205 0.5333846 -0.42444497 0.51036596 -0.18330678
0.66180885 0.30807394 0.41431192 -0.021453049 -0.37458113 -0.5026346 -0.363754 0.47385943
0.44237402 -0.15019977 0.027810065 -0.025369678 0.32112327 -0.005449993 0.60731405 0.26614326
0.45417407 0.36975235 0.12559597 -0.28013384 0.4338421 0.10796649 0.4317982 -0.38620117
-0.4703959 0.090164535 -0.10090466 -0.09259981 0.5964614 0.07084324 -0.081870854 -0.061004106
0.6143655 -0.11639358 -0.18190141 0.107000984 0.5844002 0.51942426 -0.41741535 0.5893642
0.16573815 0.6860888 0.5672289 0.33969533 0.033825975 0.67705685 -0.0784086 0.17512737
-0.48486882 0.166401 -0.507703 -0.3969929 -0.26390955 0.30793488 0.57769173 0.29188976
0.1450492 0.53790486 -0.35762823 -0.076319315 -0.30841154 -0.24554542 0.6862872 0.25973505
-0.13389795 -0.44080034 0.24392357 0.47312877 0.005070446 0.026402725 0.2738301 0.34789693
-0.52968 -0.21771067 -0.055127885 0.07929262 0.55288434 0.58139586 -0.076048315 0.5403022
-0.4971597 -0.3854587 0.63508207 0.25373182 -0.48273137 -0.23564091 0.033211403 -0.249812
00000000: 1861 c8bd 3724 a9be 30c8 f7be db27 c5be
00000010: 87cc e13c e4df e33e 9023 023d 13c8 f3be
00000020: 3d11 193f 9ad1 723e 50e8 3d3f b665 0b3e
00000030: a1d3 143f 97d5 c93d fbe7 b5bd 20f6 003f
00000040: 8a40 903e f67e 3ebd 0850 373d bf7f aa3d
00000050: 01ee 373e f2f9 08bd 83cd ddbd d030 72be
00000060: 25cc be3c 5195 be3e f64a ad3e 6cbd 70be
00000070: 1da2 543e d856 473e 4ece 003f 85f8 4bbe
00000080: 184b 49be 33bd a8bd 9138 163f 576d e7be
00000090: b304 a23d 3c6b fb3e 0a0f 72be 4672 c13e
000000a0: 6fe2 0c3e 8dcf 173e a95e b3be 28c9 c33d
000000b0: 6e1f 0b3f 2501 a33e a302 833d 7f33 e13d
000000c0: cf52 2b3f 6f97 0a3e 454d b03e 4241 b33d
000000d0: 31bb 2c3f 9a94 753d 1cf0 cc3e ee0b 59be
000000e0: 6699 0d3f f7ef c33d 9fdf a7be c54e 2b3f
000000f0: 3e25 9b3e 9e17 1f3f 99f9 91be 2fc8 523e
00000100: a148 ca3e 7244 8abe 5803 08be d1c9 183e
00000110: 9b97 0a3f 0976 033f f881 71be 3810 4d3e
00000120: 2a83 7f3e 60b1 283f 5f65 afbd 1937 73bd
00000130: d4ea 07bc fbb8 2f3e db91 a0be 3828 4bbd
00000140: e5ab 833e 0162 50bd 0fb6 fc3e fd1b 4a3e
00000150: 7f0a 4bbe dd9d 8c3d 2767 fa3e 05a6 b3be
00000160: 49bc f83d 04ed ab3e dd5c 9d3e 05e2 83bd
00000170: 14ee b1bc 64d7 0b3d 0b9f 903e 7660 7e3e
00000180: f403 39be 4ce0 c1be fba7 2f3f 307b 6d3e
00000190: 73bf c9be b765 1d3f e941 31be bb23 acbd
000001a0: 386a 88be f00b 83be 9044 1ebe e95b 00be
000001b0: d83b c73d 1d0d 0d3f 5798 27be 129a 273f
000001c0: 65a5 96bd 41f3 eebd 2bd6 9ebd 3b84 81be
000001d0: e3fb fb3e 71a5 c9bd 0e0c ad3e b451 303f
000001e0: c2b0 50be cb0f 6bbe 01fa a9be c058 413e
000001f0: 4161 9dbe 1f94 bbbe f620 45be ea3e db3d
00000200: bbfe 8c3e e795 853e 9500 093f fdb4 283f
00000210: 4f76 183f 42a0 9cbe df91 303e 3dc0 9e3d
00000220: 51df 0c3f 8c86 bfbe ec2c afbe 2aae a13d
00000230: 7786 aabe 4ab6 47be f1cb bbbd 0cb1 be3e
00000240: b40a df3e 276d 973d 60fd 0a3d e8dd 9bbe
00000250: d468 61be 26cf c7bc 4beb 183f 3104 073f
00000260: d36a f53e 68a1 31be c672 383e 51d8 fd3d
00000270: e335 dfbc 85aa 123f 9259 1b3f e5e7 d8be
00000280: 1e3b 78bd f400 0c3e fad8 153f 5dd3 f53d
00000290: e58b 083f da50 d9be 58a7 023f c6b4 3bbe
000002a0: 4e6c 293f debb 9d3e b120 d43e 4ebe afbc
000002b0: 19c9 bfbe a9ac 00bf f73d babe b49d f23e
000002c0: d97e e23e f8cd 19be efd1 e33c 12d4 cfbc
000002d0: 456a a43e db95 b2bb ef78 1b3f ee43 883e
000002e0: 8189 e83e 2e50 bd3e 3b9c 003e b46d 8fbe
000002f0: 8d20 de3e 891d dd3d a714 dd3e 29bc c5be
00000300: bbd7 f0be 2fa8 b83d 1aa7 cebd f8a4 bdbd
00000310: b2b1 183f 4316 913d e8ab a7bd 71df 79bd
00000320: 0f47 1d3f c25f eebd 5d44 3abe 5523 db3d
00000330: 409b 153f fdf8 043f 77b7 d5be 92e0 163f
00000340: 43b7 293e 84a3 2f3f ea35 113f 8cec ad3e
00000350: 1b8d 0a3d 9953 2d3f b094 a0bd 9754 333e
00000360: ba40 f8be 0665 2a3e d3f8 01bf a742 cbbe
00000370: 271f 87be a4a9 9d3e 9be3 133f 9372 953e
00000380: c787 143e 22b4 093f 0c1b b7be 4d4d 9cbd
00000390: 1ee8 9dbe 4270 7bbe 85b0 2f3f fefb 843e
000003a0: 8b1c 09be 95b0 e1be 1ac7 793e ef3d f23e
000003b0: fc25 a63b 874a d83c 7533 8c3e 8c1f b23e
000003c0: 1c99 07bf 8cef 5ebe c7cd 61bd 2b64 a23d
000003d0: d489 0d3f 5cd6 143f 38bf 9bbd 3f51 0a3f
000003e0: b78b febe d85a c5be bd94 223f 23e9 813e
000003f0: 9128 f7be da4b 71be ae08 083d b8ce 7fbe

w f4 [100, 2]
0.0018763797 -0.0029568241 0.062460806 -0.058658592 0.0077778273 -0.017045885 -0.00491077 0.0071527082
-0.0018490544 -0.0044226116 -0.013943263 0.007068409 0.0026197664 0.0068730204 0.019258441 -0.025758019
-0.004839847 -0.01409143 0.016426401 -0.009255471 0.012460856 -0.0124252755 -0.006370144 0.005638784
-0.004640156 0.0032518192 0.0046734503 -3.1863965e-05 0.0012714185 0.0022918829 -0.015314444 0.012448112
-0.0052984087 0.007861994 -0.017595954 0.032691818 -0.0018690203 0.0013834898 0.0051159863 0.005132465
-0.0016580662 0.017278783 -0.013909223 0.0054029543 -0.009034606 0.005695974 -0.00010951876 -0.001010358
-0.012085052 0.015750369 -0.00152476 0.003465403 -0.0051349187 0.0018815232 -0.012130155 0.0004256059
-0.0020109727 -0.0063830167 -0.0013244067 0.0040325704 0.012600198 -0.0052400203 0.050324738 -0.042211484
-0.00037510274 0.0010251085 0.005541636 -0.0003538087 0.013100585 -0.018520532 -0.00027311622 -0.002320822
0.0185314 -0.014107448 -0.0055400417 0.0048968135 -0.006167657 -0.004223243 0.003805957 -0.005739152
0.020179192 -0.039515294 0.035428856 -0.04623689 -0.010693711 0.0079748565 -0.012651097 0.004395688
-0.008613784 0.007128484 -0.0029857745 0.010088923 -0.003702254 0.0052972003 0.029971162 -0.020400565
-0.013593511 -0.005178159 0.052353453 -0.056152992 -0.003142612 -0.0017554899 -0.011062778 0.021375313
0.0010853263 -0.0017728346 -0.006212416 0.011945735 -0.013963504 -0.001833436 -0.0076370575 -0.004764033
-0.004577479 0.00192402 -0.0045723324 0.004886779 -0.0015242522 0.00025514362 -0.0022092694 0.0031540538
-0.0005442027 0.004506603 0.035230357 -0.035705097 0.00066671375 -0.0028244636 -0.021727083 0.01673576
0.011117881 -0.010283824 0.0021552148 -0.005874748 -0.008912037 0.0042392206 -0.0044048773 -0.009541996
-0.0038056616 0.010841171 0.011860151 -0.005949402 0.02733183 -0.03789503 -0.018239377 -0.0005064315
-0.0014926513 -0.0087619675 0.00082510134 -0.0041876603 -0.005034421 0.017379517 -0.0043444647 0.011311187
0.008964478 -0.008801268 -0.0029138515 -0.0037890803 -0.010213432 0.0009848942 -0.008029138 0.0068027712
-0.006647234 0.012507911 -0.009240645 -0.0044662682 -0.005990807 0.002750028 0.019629018 -0.009215132
0.0037756294 -0.003074692 0.009997997 -0.001014036 -0.0012607838 -0.0013838989 0.009072933 -0.010195012
-0.01062663 0.0047240653 0.059490804 -0.059575688 -0.0014429278 -0.0035004593 -0.006137654 0.01077353
0.013156361 -0.0014397629 -0.010447745 0.006134534 0.005440212 -0.0072739595 -0.018849537 0.010396062
0.003280239 -0.0191874 0.052601553 -0.06494287 0.007527333 -0.008123974 0.008229659 0.004747485
00000000: dbf0 f53a 47c7 41bb e7d6 7f3d fe43 70bd
00000010: 25dd fe3b d0a3 8bbc 86ea a0bb 4461 ea3b
00000020: f85b f2ba 8eeb 90bb 4972 64bc 1d9e e73b
00000030: 63b0 2b3b 1337 e13b e1c3 9d3c 7b02 d3bc
00000040: 9497 9ebb bedf 66bc a990 863c 42a4 17bc
00000050: 9e28 4c3c 6293 4bbc a4bc d0bb 8cc5 b83b
00000060: 730c 98bb 791c 553b be23 993b aca5 05b8
00000070: baa5 a63a 6a33 163b 6fe9 7abc 2af3 4b3c
00000080: 469e adbb 98cf 003c 6425 90bc dbe7 053d
00000090: eaf9 f4ba 3756 b53a 01a4 a73b 3d2e a83b
000000a0: 7853 d9ba 3c8c 8d3c 82e3 63bc 440b b13b
000000b0: e205 14bc 4ba5 ba3b 70ad e5b8 fd6d 84ba
000000c0: 6200 46bc eb06 813c 75da c7ba d11b 633b
000000d0: d242 a8bb 719d f63a 8fbd 46bc db23 df39
000000e0: 86ca 03bb a028 d1bb b797 adba a723 843b
000000f0: 1071 4e3c 7ab4 abbb 5021 4e3d f3e5 2cbd
00000100: 70a9 c4b9 ef5c 863a 9d96 b53b 667f b9b9
00000110: d6a3 563c 5fb8 97bc 0a31 8fb9 ef18 18bb
00000120: 2acf 973c ed22 67bc 3d89 b5bb 7375 a03b
00000130: 0f1a cabb 2163 8abb 5d6d 793b 7f0f bcbb
00000140: d54e a53c cada 21bd d91d 113d e562 3dbd
00000150: ad34 2fbc f9a8 023c 8c46 4fbc b409 903b
00000160: d420 0dbc 0f96 e93b fcac 43bb 034c 253c
00000170: 84a1 72bb 2394 ad3b 1586 f53c 161f a7bc
00000180: 51b7 5ebc 8cad a9bb 9370 563d ae00 66bd
00000190: 48f4 4dbb 7718 e6ba a740 35bc 481b af3c
000001a0: 8241 8e3a 755e e8ba 8691 cbbb 0bb8 433c
000001b0: 2ec7 64bc e74f f0ba 4840 fabb 9b1b 9cbb
000001c0: adfe 95bb 662f fc3a 81d3 95bb 4621 a03b
000001d0: 6bc9 c7ba ccc4 8539 64c9 10bb 3eb4 4e3b
000001e0: d3a8 0eba 20ac 933b b54d 103d 823f 12bd
000001f0: 67c6 2e3a a31a 39bb fffc b1bc 6f19 893c
00000200: c627 363c 7c7d 28bc 813e 0d3b f580 c0bb
00000210: cb03 12bc 29e9 8a3b ca56 90bb 0856 1cbc
00000220: 6868 79bb 2b9f 313c 1451 423c 34f3 c2bb
00000230: 00e7 df3c d237 1bbd bf6a 95bc 0bc2 04ba
00000240: 11a5 c3ba 5b8e 0fbc 9d4b 583a a438 89bb
00000250: c9f7 a4bb 7d5f 8e3c 035c 8ebb 8f52 393c
00000260: bfdf 123c 3233 10bc 51f6 3ebb 3852 78bb
00000270: 3d56 27bc 9117 813a a58c 03bc c8e9 de3b
00000280: 0ad1 d9bb fbed 4c3c 1366 17bc c659 92bb
00000290: 884e c4bb d039 343b 09cd a03c 11fb 16bc
000002a0: 8d70 773b c680 49bb a4ce 233c 67e9 84ba
000002b0: e240 a5ba f163 b5ba a4a6 143c fb08 27bc
000002c0: 511b 2ebc 55cc 9a3b a1ac 733d a305 74bd
000002d0: 9f20 bdba f667 65bb 601e c9bb 7683 303c
000002e0: c78d 573c 6db6 bcba 052d 2bbc 3304 c93b
000002f0: ce43 b23b 655a eebb 586a 9abc 3f54 2a3c
00000300: 47f9 563b e52e 9dbc ba74 573d c400 85bd
00000310: d9a7 f63b 6b1a 05bc b1d5 063c ca90 9b3b
