weight_save_1/good_f09.pt (torch, 7326 bytes, 2 tensors)

w f4 [10, 100]
0	0xbe70325e	-0.23456714
1	0x3e4ab979	0.19797315
2	0xbea87343	-0.32900438
3	0xbda99a51	-0.08281387
4	0x3e00ab74	0.12565404
5	0xbeadf21e	-0.33973783
6	0x3e7a5dbc	0.2444982
7	0xbed72590	-0.42020845
8	0xbe153c87	-0.1457387
9	0x3f0856df	0.53257555
10	0x3f307cdc	0.6894052
11	0x3d3e1a5b	0.046411853
12	0xbeb2df48	-0.34935975
13	0xbec8c0e5	-0.39209667
14	0xbd7b0b6b	-0.061290186
15	0xbe53680c	-0.2064516
16	0x3f123e6b	0.5712649
17	0xbead1893	-0.3380781
18	0x3eed65b7	0.46366665
19	0x3e50833a	0.20362559
20	0xbd873bad	-0.06603179
21	0x3f1b2eb8	0.6061816
22	0x3ece933a	0.403467
23	0x3da95407	0.0826798
24	0xbe9e0433	-0.3086258
25	0xbe031eb0	-0.12804675
26	0x3e8da66d	0.27666035
27	0x3f1d3c26	0.61419904
28	0xbde0576f	-0.10954177
29	0xbe2c9468	-0.16853487
30	0xbefbbb5f	-0.4916639
31	0x3eeeb057	0.46618912
32	0x3f3561eb	0.70852536
33	0x3f132aa0	0.57486916
34	0xbe6e0e23	-0.2324758
35	0x3f0af4f1	0.5428
36	0xbda5d61e	-0.0809748
37	0x3ecd3e1d	0.4008645
38	0x3ee3220b	0.4436191
39	0xbec3a03c	-0.38208187
40	0x3e6ea4bb	0.23305027
41	0x3ea502b9	0.3222864
42	0xbe86d790	-0.26336336
43	0x3f2c1c49	0.6723066
44	0x3f185e10	0.5951853
45	0x3f11b59a	0.56917727
46	0x3d8b7a08	0.06810385
47	0xbe70bb07	-0.23508845
48	0xbe6a15bb	-0.22859852
49	0x3e8d4928	0.27594876
50	0xbce4c77f	-0.027927158
51	0x3f0afb69	0.5428987
52	0x3f0b1653	0.5433094
53	0x3e15ed5a	0.14641324
54	0xbee2e331	-0.44313958
55	0x3ea2be40	0.31785774
56	0x3f1bb256	0.60818994
57	0xbd9386d8	-0.07203454
58	0xbe526868	-0.2054764
59	0xbd68c7e7	-0.056831267
60	0x3e193615	0.14962037
61	0xbeb8dbe3	-0.3610526
62	0x3ee21387	0.44155523
63	0x3e9e67f1	0.30938676
64	0xbe0238da	-0.12717
65	0xbdd0870a	-0.10182007
66	0xbe4aaa73	-0.19791584
67	0x3f19af95	0.6003354
68	0x3ef4a44d	0.47781602
69	0x3e7b0b1e	0.2451596
70	0x3d8b9f74	0.06817523
71	0x3e8059b4	0.25068438
72	0x3f2cd085	0.67505676
73	0x3e9a3b15	0.301232
74	0xbe4da41a	-0.20082131
75	0x3e9a8dff	0.3018646
76	0xbe12399c	-0.14279789
77	0x3d8983cb	0.06714591
78	0xbe97c74d	-0.29644242
79	0x3d89699e	0.06709598
80	0x3e1ceb2c	0.15324086
81	0xbe731e76	-0.23742089
82	0x3ee6c1e9	0.45069817
83	0x3f2bfafd	0.6717985
84	0xbef2a8bf	-0.47394368
85	0x3e87968e	0.26482052
86	0xbeb82aaa	-0.3597005
87	0xbce677b2	-0.028133247
88	0x3ea37423	0.31924543
89	0x3debdf98	0.115172565
90	0x3e871bf0	0.26388502
91	0xbdd3d00f	-0.103424184
92	0x3f2a9f0f	0.66648954
93	0xbe4b14f1	-0.19832207
94	0x3e5185b5	0.20461161
95	0x3e32e3cf	0.17469715
96	0x3f007bd8	0.5018897
97	0x3e18012c	0.14844197
98	0x3ed8ea8e	0.4236645
99	0x3e8a65a9	0.27030686
100	0x3ee8e414	0.4548651
101	0x3ddf3fc8	0.10900837
102	0x3e93d59a	0.28873903
103	0x3f2a6cf5	0.66572505
104	0xbddcd0a7	-0.10781985
105	0xbe0a0770	-0.134794
106	0x3f02a8cb	0.5103881
107	0x3eaa1579	0.33219507
108	0xbee7bb53	-0.45260105
109	0x3ea4c462	0.32181078
110	0xbeeebd1e	-0.4662866
111	0xbe648b56	-0.22318777
112	0x3ea277c1	0.3173199
113	0x3ef1b489	0.4720805
114	0xbd4d90a8	-0.050186783
115	0x3f1543a5	0.5830634
116	0x3f3033f6	0.68829286
117	0x3f1332ef	0.57499593
118	0xbefc82a4	-0.4931842
119	0xbdfe0a6e	-0.12404333
120	0x3e127b1e	0.14304778
121	0x3f1c0287	0.60941356
122	0xbcd1eb00	-0.025624752
123	0x3e6452c9	0.22297205
124	0x3ecb6ca2	0.39731318
125	0xbe87c727	-0.2651913
126	0xbe83a8b0	-0.25714636
127	0x3f31cdc6	0.6945461
128	0x3d9c2fac	0.0762628
129	0x3f050d90	0.5197382
130	0xbef9eb05	-0.48812118
131	0xbe0e9377	-0.13923441
132	0x3f0f8ce3	0.5607435
133	0x3dc493ab	0.09598478
134	0x3e97b1b9	0.2962778
135	0xbed3d711	-0.4137502
136	0x3f30c980	0.69057465
137	0xbe4f9324	-0.20270973
138	0x3d75322a	0.059862293
139	0xbe94683a	-0.2898577
140	0xbe27846a	-0.16359106
141	0xbed296fc	-0.41130817
142	0xbee28a98	-0.44246364
143	0xbcce69a0	-0.02519685
144	0xbe1a61bc	-0.15076345
145	0x3f021095	0.5080655
146	0x3d8bee50	0.06832564
147	0x3f0fc960	0.5616665
148	0xbbf7e304	-0.007564904
149	0x3e46596d	0.1937005
150	0x3f27cde9	0.6554857
151	0xbec44cd2	-0.3833986
152	0xbe61794b	-0.22018926
153	0x3f166dc7	0.58761257
154	0xbd9a75ba	-0.07541986
155	0xbdb60436	-0.08887522
156	0x3dff5954	0.1246821
157	0xbe7af4e1	-0.24507476
158	0x3e0b6968	0.13614428
159	0xbe27d1b3	-0.16388588
160	0x3e7e46a8	0.2483164
161	0xbcf812d2	-0.030282412
162	0xbddf2344	-0.10895398
163	0xbe33d780	-0.17562675
164	0x3e78bb8a	0.2429029
165	0x3ecc8e8a	0.399525
166	0xbee87e3b	-0.45408806
167	0xbe98b103	-0.2982255
168	0xbeeda5e5	-0.4641563
169	0x3eb3eb47	0.3514044
170	0x3f057b4b	0.52141255
171	0xbefd11bc	-0.49427593
172	0x3e828c9a	0.25497895
173	0x3e6f6775	0.2337931
174	0xbe62becd	-0.22143097
175	0x3e42759c	0.18990177
176	0x3f096019	0.5366226
177	0x3f2dabca	0.67840254
178	0x3eb611db	0.35560498
179	0xbd044f9b	-0.03230248
180	0xbe4b5c0a	-0.19859329
181	0xbdd8332c	-0.10556635
182	0x3d9b42d5	0.075811066
183	0x3d99f820	0.07518029
184	0x3ef1c117	0.47217628
185	0xbeeaa44c	-0.45828474
186	0x3dfef4cf	0.12449037
187	0xbdccbf25	-0.099973954
188	0x3daa7734	0.083235174
189	0x3f39eaa2	0.72623646
190	0x3dd880fe	0.10571478
191	0xbc433e58	-0.011916719
192	0xbdf91b70	-0.121634364
193	0xbf02593d	-0.50917417
194	0xbee30685	-0.44340912
195	0x3eb64f12	0.356072
196	0xbe90269f	-0.28154466
197	0x3edd5ac4	0.4323331
198	0xbdc7cd44	-0.09755948
199	0x3eadf4db	0.33975872
200	0x3f0367ac	0.51330066
201	0x3e405ccf	0.18785404
202	0x3e939b33	0.28829345
203	0x3f146c11	0.57977396
204	0xbdcd7422	-0.10031916
205	0x3f086a37	0.5328707
206	0xbeda5286	-0.42641085
207	0x3f27dddc	0.65572906
208	0xbde50a88	-0.11183649
209	0x3dae05c9	0.08497197
210	0x3ef27e12	0.4736181
211	0x3e17ba8f	0.1481726
212	0x3f1aa67e	0.60410297
213	0xbe08f8e5	-0.13376196
214	0xbe7ef532	-0.24898222
215	0x3f1bb6ed	0.60826
216	0xbe899ac3	-0.26875886
217	0x3f0bd692	0.54624283
218	0x3f2d0acf	0.6759462
219	0x3f003b28	0.50090265
220	0xbdee8c4b	-0.116478525
221	0x3d6b004a	0.057373323
222	0xbee31337	-0.44350597
223	0xbe642078	-0.22278011
224	0xbcb35c15	-0.021894494
225	0xbeb28201	-0.3486481
226	0x3edf0371	0.43557313
227	0x3ed6c13d	0.41944304
228	0xbdc88bf0	-0.09792316
229	0xbbea971f	-0.0071591283
230	0x3f2bc86d	0.671027
231	0x3d5b652c	0.053563282
232	0x3f1e3dc0	0.61812973
233	0x3f3e2f4b	0.74290913
234	0xbde55522	-0.111978784
235	0xbef28616	-0.47367924
236	0x3f2959d1	0.66152674
237	0xbe5ee0f1	-0.21765496
238	0x3f2a37bf	0.6649131
239	0xbe8e0ef0	-0.2774577
240	0x3e4cbc94	0.19993812
241	0x3e867b45	0.26265922
242	0xbd374896	-0.044746958
243	0x3f15d7a0	0.5853214
244	0xbedbcdff	-0.429306
245	0xbe317ebc	-0.17333502
246	0xbce2691b	-0.027638009
247	0x3f0ee51f	0.5581836
248	0x3ebd5ae6	0.36983413
249	0x3ee68904	0.4502641
250	0x3eafd810	0.3434453
251	0x3f1b42d7	0.60648865
252	0xbdde0d6b	-0.10842403
253	0xbdab11e9	-0.083530255
254	0xbc8fdffa	-0.017562855
255	0x3ea35b81	0.3190575

w f4 [100, 2]
0	0x3b8e0eb4	0.004335249
1	0x3b3588b3	0.0027699887
2	0xbc03df1b	-0.008048798
3	0x3bf26612	0.0073974216
4	0xbbdfc290	-0.0068286136
5	0x3c7e8047	0.015533513
6	0xbb573d85	-0.0032843065
7	0xbad05809	-0.0015895377
8	0xb9cb239f	-0.00038745717
9	0x3c12249c	0.008919861
10	0xbb6df39e	-0.0036308537
11	0x3ba3fed1	0.0050047417
12	0xbc059ccc	-0.008155059
13	0x3c04b3b3	0.008099484
14	0x3b9cce6d	0.00478535
15	0x398d897d	0.00026996052
16	0xbc1a6a33	-0.009424734
17	0x3b7c6282	0.0038510864
18	0x3bf4556a	0.007456471
19	0xbab0566b	-0.0013453489
20	0x3be7edc6	0.0070779053
21	0xbc5e73c0	-0.013577402
22	0xbc07bd80	-0.008284926
23	0x3c8e4484	0.017366655
24	0xba9a165c	-0.0011755931
25	0x3b8103bb	0.0039372123
26	0x3d96fe5d	0.07372735
27	0xbd83c383	-0.06433775
28	0x3cdf2428	0.02723892
29	0xbcce7850	-0.025203854
30	0xbc4ac651	-0.012376384
31	0x3c3e95e3	0.0116324155
32	0x3ba6ad5b	0.0050865836
33	0xbb28bee8	-0.0025748555
34	0x3d49166c	0.04909365
35	0xbd50a3c9	-0.050937448
36	0xb74a11a4	-1.20442455e-05
37	0xbc3f6e01	-0.011683942
38	0xbb6279ee	-0.003455754
39	0xbbb06536	-0.005383159
40	0xbc41095e	-0.0117820185
41	0x3c7e84e2	0.015534611
42	0x3c3ed3c1	0.011647166
43	0x3b340a70	0.0027472042
44	0xbc26a3b6	-0.010170868
45	0x3c019242	0.007908406
46	0xbc13c4d7	-0.009019098
47	0x3bca552e	0.006174705
48	0xbb2a7a16	-0.002601271
49	0x3c50c432	0.012742089
50	0x3aa4a7d4	0.0012562224
51	0x3bdd4019	0.006752026
52	0xbb337497	-0.0027382725
53	0x3c84edea	0.016226728
54	0xba8fea53	-0.0010979868
55	0xbbf273f9	-0.007399079
56	0xbc82973f	-0.01594126
57	0xbaae570c	-0.0013301088
58	0xbae7bd72	-0.001768036
59	0xbb8cfe35	-0.004302765
60	0x3bf6742d	0.0075211735
61	0xbbbafc0b	-0.0057063154
62	0x3a778402	0.0009441973
63	0x3bb8c491	0.005638667
64	0x3c245db2	0.010032104
65	0xbb7d629f	-0.003866352
66	0x3c590eac	0.013248127
67	0xbc869dec	-0.016432725
68	0x3c38f65e	0.011289207
69	0xbc5668fc	-0.013086554
70	0x3d89e3b3	0.06732883
71	0xbd93fa93	-0.072255276
72	0x3b0c7a35	0.0021435146
73	0xb9833cd7	-0.00025031596
74	0xbc0dead1	-0.008661942
75	0x3bafa7fd	0.005360602
76	0xbb7be179	-0.0038433953
77	0xbb1521a3	-0.0022755645
78	0xbc292750	-0.010324314
79	0xba5aeb35	-0.00083510886
80	0xbc598b08	-0.013277777
81	0x3c35354c	0.01106007
82	0xbb87883c	-0.0041361134
83	0x3c03becc	0.008041095
84	0x3c0afa66	0.008482551
85	0xbb381e55	-0.0028094251
86	0x3a42e4f7	0.0007434631
87	0xbbf3d02d	-0.007440588
88	0x3c32a449	0.010903426
89	0xbc8e1c8f	-0.017347602
90	0xbb95a4a9	-0.004566748
91	0x3bfb4800	0.007668495
92	0xbb7c0bcd	-0.0038459182
93	0x3c236259	0.009972178
94	0x3b1a62dd	0.0023557462
95	0x3abf17f4	0.0014579282
96	0xbc59a08c	-0.013282906
97	0x3c59550a	0.013264904
98	0x3b884385	0.0041584396
99	0x3bc902a4	0.006134348
100	0xbc4b4c03	-0.012408259
101	0x3bb1c309	0.0054248613
102	0xbbb725ea	-0.0055892365
103	0xbb8af645	-0.0042407834
104	0xbbe4b937	-0.006980087
105	0xbc325e94	-0.010886807
106	0xbc159ed0	-0.009132102
107	0x3c9fb4a8	0.019495323
108	0x3bd5b155	0.0065213838
109	0xbbdaf17b	-0.0066816187
110	0x3c262e11	0.010142819
111	0x38c512b9	9.3971794e-05
112	0xbc2cda64	-0.010550115
113	0x3c398de1	0.0113253305
114	0x3c28d080	0.0103036165
115	0x3bb45142	0.0055028507
116	0x3b8819b5	0.004153455
117	0x3c5518af	0.013006373
118	0x3b0fd41b	0.0021946493
119	0xbb92541a	-0.004465592
120	0xbba9bd2b	-0.0051800213
121	0x39519a80	0.00019989349
122	0x3b8d8038	0.0043182634
123	0xbb8d57e2	-0.004313455
124	0x3d3b5a35	0.045740325
125	0xbd3ca29d	-0.046053518
126	0x3a8fc2ff	0.0010968148
127	0xbb1250c1	-0.0022325965
128	0xbc6bac53	-0.014384347
129	0x3c2fd8b7	0.010732821
130	0xbc3274a0	-0.010892063
131	0x3c73dbb4	0.014883924
132	0xbb2b9019	-0.0026178418
133	0x3bae8fb2	0.0053271884
134	0x3bd20ed9	0.0064104614
135	0xbc888691	-0.016665729
136	0x3c1f8387	0.009735948
137	0xbb9b22ea	-0.0047343867
138	0xbbf92c04	-0.007604124
139	0x3b89fd9e	0.0042111417
140	0xbbad25f5	-0.005284066
141	0x3c032329	0.008003988
142	0x3cc81cba	0.02442776
143	0xbcf39fae	-0.029739227
144	0x3bc44a30	0.005990289
145	0x3b852fa9	0.0040645194
146	0x3bd96459	0.006634277
147	0x3b58cf71	0.003308263
148	0xbc3b62ac	-0.011437099
149	0x3bdbe54c	0.006710684
150	0xbc09da57	-0.008413873
151	0x3b52bfad	0.0032157705
152	0xbc0616f2	-0.0081841815
153	0x3b000be3	0.0019538335
154	0x3beb1c53	0.0071750074
155	0xb9544fe9	-0.00020247664
156	0x39e5394c	0.00043720973
157	0xbb2797b8	-0.002557261
158	0x3b85f6ad	0.004088244
159	0x3ad87cf8	0.0016516736
160	0x3d761082	0.060074337
161	0xbd81a801	-0.06330872
162	0x3d6d5820	0.05794537
163	0xbd8b8325	-0.06812123
164	0x39bcdb86	0.00036021712
165	0x3b969fb3	0.0045966743
166	0x3bb36064	0.005474137
167	0xbbb8a5b3	-0.0056349873
168	0x3bb10005	0.0054016137
169	0x3babcfb2	0.005243265
170	0xb9a8fbc1	-0.00032231028
171	0x3b50a584	0.0031836936
172	0x3c05cc33	0.008166361
173	0xbb66fcad	-0.0035245821
174	0x3a211bfc	0.00061458326
175	0x3b33666b	0.0027374278
176	0xbc43094d	-0.011904073
177	0xbbcf274b	-0.0063218228
178	0x3bc47c2f	0.005996249
179	0xbc491059	-0.012271964
180	0xbc093477	-0.008374325
181	0x3af24958	0.0018484993
182	0xbb68276d	-0.003542389
183	0xbae30e20	-0.0017322935
184	0xbaac453e	-0.0013143194
185	0xbb19898f	-0.0023427939
186	0xbbc353dd	-0.005960925
187	0x3b26d7e8	0.002545828
188	0xbc3711ca	-0.011173675
189	0x3b793577	0.0038026252
190	0xbca7ee95	-0.020499507
191	0x3c3fd231	0.011707828
192	0x3a8636ec	0.0010239757
193	0x3b3f100b	0.002915385
194	0xbb6eac94	-0.0036418783
195	0x3b0c8bf0	0.0021445714
196	0x3ab440d0	0.0013752226
197	0x3c4b5116	0.012409469
198	0x3bd75268	0.006571103
199	0xbb45f73f	-0.0030207185
