weight_save_1/zy_f10.pt (torch, 7634 bytes, 2 tensors)

w f4 [10, 100]
000000 b1 60 8f be 7f 8d 44 3d 86 54 65 3e 54 6c fa 3e
       -0.28003457 0.047986504 0.22395524 0.48910773
000010 08 27 9d be bb 64 61 3e 4f 87 a7 3e 29 ee 0b be
       -0.3069384 0.22011082 0.3272042 -0.1366507
000020 62 e3 27 3e a2 dd 5c be b3 63 57 3d de 99 85 be
       0.16395333 -0.21568921 0.052585315 -0.26093954
000030 04 7b a7 bd c2 a5 10 be b9 b6 1c 3f 53 e1 50 3e
       -0.0817776 -0.14125732 0.6121631 0.20398454
000040 73 50 f9 be ec b7 06 3e b2 c3 ff 3e db 4d 2b be
       -0.4869419 0.13156098 0.4995399 -0.16728918
000050 12 9a 8a be cb 73 60 bd 44 aa ea be 32 cc ea bd
       -0.2707067 -0.05479793 -0.45833027 -0.114647284
000060 13 89 1a 3e 99 a6 94 be 9f 7d f6 be 4f 61 98 be
       0.15091352 -0.29033354 -0.48142716 -0.2976174
000070 da 1b ac be 0c 8d fb 3d b5 38 a6 3e a0 e4 bb 3e
       -0.33615 0.12282762 0.3246514 0.36697865
000080 13 fd 44 3f 5f 7e c1 3e 92 1d 41 be c0 0f 45 bd
       0.7694866 0.37791726 -0.18858936 -0.048110723
000090 47 7f 53 be 96 d0 d0 3e f9 bf 97 3e cb 5c c7 3e
       -0.20654021 0.40784138 0.2963865 0.38937983
0000a0 61 1e 90 be a2 b3 06 3f d0 ba dd be 6d b5 a5 3e
       -0.28148177 0.5261785 -0.4330659 0.3236498
0000b0 4a fb f2 be fb 88 29 3f 3a a1 a0 be b5 e6 a8 be
       -0.47457343 0.6622464 -0.31373006 -0.32988515
0000c0 eb 3c bd 3e ff 0d 39 3f 8e e1 d4 3c f6 75 88 3e
       0.3696054 0.7228698 0.02598646 0.26652497
0000d0 bd 47 24 3f 8e 74 c4 be 97 5a b4 3e 5a d9 81 3e
       0.64171964 -0.38370174 0.35225365 0.2536114
0000e0 20 10 94 be 21 71 eb 3e db 93 30 3f 93 cb 16 3f
       -0.28918552 0.45984748 0.6897561 0.5890438
0000f0 6a 5b 73 be 79 0c 37 3f d8 49 1e 3f 80 56 93 3e
       -0.2376534 0.71503407 0.61831427 0.28776932
000100 80 c9 c8 3b 0e c8 07 3f be 1b a1 be f4 58 9b be
       0.0061275363 0.53039634 -0.31466478 -0.30341303
000110 9a 4c a9 3e 40 5a e1 3e e4 c1 82 bb e8 20 03 3f
       0.33066255 0.44014168 -0.0039903987 0.51222086
000120 a0 fa be 3e 18 2a a1 3e ae 71 03 3f f2 b6 08 3f
       0.37300587 0.31477427 0.51345336 0.5340415
000130 d5 5d 00 3f 34 b7 1d 3f 9c 56 0f 3e b8 9f 13 3f
       0.50143176 0.6160767 0.13997883 0.57665586
000140 7d 5d fb 3e 86 93 63 be cd 8d b2 3e 77 ca a7 3d
       0.49094763 -0.22224244 0.3487381 0.08192914
000150 c1 34 46 bd b1 ab 42 3f 34 c8 67 3e a0 11 0d 3f
       -0.048390154 0.7604323 0.22634965 0.5510502
000160 fd eb 2c 3e c0 0d 7e 3e 1a c7 ec 3e 22 78 aa bc
       0.16886897 0.24809933 0.46245652 -0.020809237
000170 f4 c0 fa 3e ae e1 71 be e3 e4 c9 3c a3 1f 4f 3e
       0.48975337 -0.23621246 0.024645275 0.20226912
000180 67 05 f4 3e 37 4a c0 3e 8f 29 35 3f 5a ba 83 be
       0.47660372 0.3755662 0.7076654 -0.25728112
000190 6e 3d f5 3a b7 0e 4e 3d 46 38 1a 3f 06 70 25 3f
       0.0018710324 0.050307002 0.60242116 0.6462406
0001a0 8a 15 53 3e 2d 21 bb be 10 d1 b4 be af 24 53 3e
       0.20613685 -0.3654875 -0.35315752 0.20619462
0001b0 30 29 fb be 6a 74 ea bd 6b 80 c7 be f7 78 d0 3e
       -0.4905486 -0.114479855 -0.38965163 0.4071729
0001c0 64 52 48 3c 68 74 be be 12 c7 05 3f 6a e7 e3 be
       0.012226675 -0.37198186 0.5225688 -0.44512492
0001d0 cf 0e 11 3c 65 69 3a 3f 91 da fe 3e 27 44 ff be
       0.008853628 0.7281707 0.49776128 -0.49856684
0001e0 b3 d0 0b 3e b5 d1 66 bc 9b 89 a6 3e de 96 1e 3f
       0.13653831 -0.014088084 0.3252686 0.61948955
0001f0 1c 38 04 3f d7 89 6e 3d 05 c9 c9 3e 6f b9 03 bf
       0.51648116 0.058236923 0.39411178 -0.51454824
000200 4a 46 05 3f 6f 0f cc 3e 1e d1 a5 be 8f 3f c2 bd
       0.5206038 0.39855525 -0.32386106 -0.09484779
000210 3c c2 f4 bd 55 e5 7b be a4 b2 ac 3e d0 c3 f6 bd
       -0.1195111 -0.24599202 0.33730042 -0.12049067
000220 53 63 a1 3e a4 50 b3 bd aa f5 0f 3f 85 a9 8d bd
       0.3152109 -0.08755615 0.5623423 -0.06917099
000230 72 f0 d7 3d ad ca d1 bd bb c4 20 3e b0 47 12 be
       0.10543908 -0.102437355 0.15700047 -0.14285159
000240 39 f7 d4 be 39 8f fe be a7 d9 0b 3f 14 ec 38 3e
       -0.41594866 -0.49718645 0.54628986 0.18058807
000250 6a cb 91 be 0c 75 e0 3e ae ab ff 3d c4 54 13 be
       -0.28475505 0.438393 0.12483917 -0.14387804
000260 9e e1 a6 3d 18 be 03 3e bc ae 0a 3f d7 a8 14 bf
       0.08148502 0.12865484 0.54172873 -0.5807013
000270 c1 a9 d5 be e8 29 a2 be a0 e5 f0 be 4c 22 c6 3d
       -0.41731074 -0.31672597 -0.4705019 0.0967451
000280 9b 45 05 3f a0 b4 89 3e 17 3d c1 3e 5e f2 04 3e
       0.52059335 0.26895618 0.3774192 0.1298308
000290 a3 05 65 3d 0a fa d8 be 63 38 2c 3f 17 95 17 3f
       0.05591358 -0.42378265 0.6727354 0.5921187
0002a0 8a 4d 86 3d c4 61 2b 3e 3e 63 39 3e 17 48 08 3f
       0.06557758 0.16736513 0.18104264 0.53235
0002b0 6e 40 72 3d cf 84 2e bd 8d e2 83 be c7 7b 4f 3e
       0.059143476 -0.042607125 -0.25758782 0.20262061
0002c0 90 15 ac 3e 27 69 18 bf 36 d2 8a 3e 97 72 9f 3e
       0.336102 -0.5953545 0.27113503 0.31142113
0002d0 49 02 fa 3e c3 fd a2 3e 57 08 88 bd d2 1a ea 3d
       0.48829868 0.3183423 -0.06642216 0.11430897
0002e0 77 a8 56 be 14 92 f8 3e 31 c7 b5 be 96 38 c8 be
       -0.20962702 0.4854895 -0.35503533 -0.39105672
0002f0 ee 64 c2 be 0a d0 51 be f9 fe fe 3d b8 ef ff 3e
       -0.37967628 -0.20489517 0.12450976 0.49987578
000300 9f f1 50 3c 92 89 f5 3e 7e 22 91 3c f0 03 33 3f
       0.012752919 0.4795652 0.017716642 0.69927883
000310 4f 83 e6 3e 13 a1 fa 3e 48 53 c9 3e 14 29 a4 be
       0.45022056 0.48951015 0.3932135 -0.3206259
000320 5d 83 17 3f 78 99 11 bf 79 46 ac be 04 57 9b be
       0.5918482 -0.568748 -0.33647516 -0.30339825
000330 79 12 f7 bc 24 47 a9 3e 28 12 30 3e 6b b0 bb be
       -0.030160176 0.33062088 0.17194426 -0.36658034
000340 e5 b6 1e 3f 9a 3a 3a 3f ae 30 bb 3e e7 49 04 bf
       0.61997825 0.7274567 0.36560577 -0.51675266
000350 95 60 d4 3e 81 61 83 3e 11 e7 82 3c 84 1e d3 be
       0.41479936 0.25660327 0.015979322 -0.4123422
000360 e8 8f 3a 3f 07 2c 6c bd 62 f3 b9 be 3a 5f 22 3f
       0.72875834 -0.057659175 -0.363185 0.63426554
000370 04 38 94 3e 5a e7 60 3e a4 7b e5 3e 71 a7 8b 3e
       0.28948987 0.21963254 0.44820893 0.27276185
000380 96 ab 13 bd 28 cc 4c 3d ca 43 23 3f 07 77 ca 3c
       -0.03605231 0.049999386 0.6377531 0.02471496
000390 14 98 bf be e0 d6 a0 be 6c 36 a8 be f6 67 e2 3d
       -0.37420714 -0.31413937 -0.3285402 0.11054985
0003a0 11 64 1c 3f 34 32 d8 3e 4c 03 8a 3e 00 cf 36 3e
       0.6109019 0.42225802 0.2695564 0.17852402
0003b0 16 f5 28 be 9c bf 17 3f 2b 2f a4 3e d1 05 49 be
       -0.16499743 0.5927675 0.32067236 -0.19631125
0003c0 d2 de 87 be ce 2f e9 be 9b 7f 92 bd 8a ca ef 3e
       -0.26537186 -0.45544285 -0.07153245 0.46834213
0003d0 fc fa e2 3d 34 ab 4a be 30 88 98 3e 08 d6 95 be
       0.11083028 -0.19791871 0.29791403 -0.29264855
0003e0 a9 2d 82 3e bf ba f5 3e 6c b1 a5 3e 48 1b ca bd
       0.2542546 0.47994038 0.32361925 -0.09868485
0003f0 ce 07 89 bd 21 90 89 3e 30 51 e8 3e 13 aa c0 bd
       -0.06690942 0.26867774 0.4537444 -0.09407439

w f4 [100, 2]
000000 7d c3 cf ba a4 6b fb 3b 8c 51 db 3d 74 74 c8 bd
       -0.0015851107 0.007672744 0.10708913 -0.09787837
000010 28 24 2b ba 07 48 36 bb d0 78 b8 3b 29 77 e0 ba
       -0.000652852 -0.0027813928 0.0056296363 -0.0017125356
000020 24 75 b7 bc e3 e9 fe 3c 8c 4e a2 bc 04 a4 a7 3b
       -0.022394724 0.031117385 -0.019812845 0.0051159877
000030 ed f2 16 bc a7 9a 43 3c cf 76 83 3c bd 81 a6 bc
       -0.009213191 0.011938727 0.016047863 -0.020325536
000040 2a 9d 89 3b 77 78 b3 ba 27 46 01 3b e0 93 da bb
       0.0041996436 -0.0013692518 0.0019725652 -0.00667046
000050 aa 4e 6e bb 2e 6a 35 bc 62 0a 04 3b 6e 5d 7c b9
       -0.0036362805 -0.0110726785 0.002014779 -0.00024067398
000060 22 4f a1 bc 16 e5 d0 3c a4 b4 1d bd 5f e4 4d 3d
       -0.019691054 0.025499862 -0.03850235 0.05026662
000070 aa fa 6c ba 0c 83 64 bc 14 6c 23 bc 02 b3 89 3b
       -0.00090400374 -0.01394726 -0.009974498 0.0042022476
000080 a3 74 89 3c 94 fe ee bb 5c fb c0 3b 20 51 a6 39
       0.01677925 -0.0072935317 0.0058893394 0.0003172243
000090 a0 37 6c 3b 8f 8a 9e bc e3 77 0f 3e 1a f6 0c be
       0.0036043897 -0.01935318 0.14010577 -0.13765755
0000a0 d5 4e 54 bc b3 3b 2e 3c 8c e9 62 bc 7a fc d8 3b
       -0.012958248 0.010634351 -0.013849627 0.0066218944
0000b0 10 47 8e bb a5 d0 22 3c b3 5b 0e bc 34 38 56 3c
       -0.0043419674 0.00993744 -0.008688855 0.013074923
0000c0 8a 37 c8 bc 24 74 12 3d e5 3d a7 bd 90 e9 a8 3d
       -0.024440546 0.03575529 -0.08166102 0.082476735
0000d0 1b 38 c2 3b 6e b5 b2 bb 3c 15 48 3b d1 0a 04 3b
       0.0059270984 -0.005453757 0.0030530235 0.0020148049
0000e0 43 2a 0a bd 3c c2 24 3d e4 6d ca bc 76 08 fa 3c
       -0.03373171 0.0402243 -0.024710603 0.030521613
0000f0 74 97 ce bc 6e 2c 87 3c 84 4b 02 bd 15 55 8f 3c
       -0.025218703 0.016500678 -0.0318103 0.017496625
000100 83 a5 d7 3b e5 7b 46 bc 9b 71 dc bb 8d d1 70 3a
       0.00658101 -0.0121145 -0.00672741 0.0009186499
000110 89 75 78 3a 9d 19 78 bc 06 77 c0 bc e4 74 b3 3c
       0.00094779633 -0.015142825 -0.023494255 0.021906324
000120 bf 8c 5f bc b9 8b d7 3c e6 ad f8 bb bb a7 1c 3c
       -0.013644396 0.026311742 -0.0075890897 0.009561474
000130 3e 45 44 3b 9a 76 6a 3b 76 2b cd bd 92 75 e1 3d
       0.0029948498 0.0035776258 -0.10018055 0.11008753
000140 f2 26 01 3e 15 f3 0a be 74 e0 ca ba 11 7f 5f bb
       0.12612513 -0.13569291 -0.0015478269 -0.0034102837
000150 c4 22 34 3c f1 ae 7a bc 3c d9 96 bc da 48 6e 3c
       0.010994617 -0.015300498 -0.018414132 0.014543736
000160 29 a9 9f 3d c2 6b 9a bd 53 69 0d 3c f8 aa 1b bc
       0.077959366 -0.075400844 0.008631068 -0.009501211
000170 2d b8 d5 3d ab 32 e9 bd 23 51 6e bd 40 1e 57 3d
       0.10435519 -0.11386617 -0.058182847 0.052519083
000180 9f e4 d3 bc 53 5b c1 3c dc 3d 5b 3c 90 56 9c bc
       -0.025865851 0.023603117 0.013381448 -0.019084245
000190 a4 bd 52 bc 9f 95 d5 3c c9 37 0c bd 19 21 fc 3c
       -0.012862597 0.026072321 -0.03423289 0.030777501
0001a0 b6 a0 19 bd 08 86 a7 3c 21 f6 04 bd c9 92 f6 3c
       -0.03750678 0.020449653 -0.03246129 0.03009929
0001b0 ed 0a d2 3a 7e 4c 6f bb 31 9c 87 3d 28 ca 88 bd
       0.0016024985 -0.0036514099 0.06621588 -0.06679183
0001c0 b1 c8 04 3b 51 44 80 3c 0e 61 6b bd 24 06 4d 3d
       0.0020261223 0.015657576 -0.057465605 0.050054684
0001d0 b9 57 c4 3d b2 59 c8 bd d8 b5 49 3c 66 5d 47 bc
       0.09587044 -0.09782733 0.012311421 -0.012168264
0001e0 b2 8f 09 3e 4c e3 15 be 1b 5c 95 3b 4e c9 92 bc
       0.13433722 -0.14637488 0.004558099 -0.017918255
0001f0 79 ed 43 3c be 05 84 bc 1e bd e9 bc 40 da 85 3c
       0.011958473 -0.01611602 -0.02853256 0.016339421
000200 aa 66 ad bc 85 a5 d3 3c 8e 94 86 bc 3f 10 a5 3c
       -0.021167118 0.025835762 -0.016428258 0.020149348
000210 54 a1 1e 3c e3 9e 85 bb bb 2b 00 bc 9f 1a 0e 3c
       0.009682018 -0.0040777787 -0.007822926 0.008673339
000220 e9 97 34 bd 14 a4 00 3d c2 8b 76 bc 91 84 a0 3c
       -0.044090185 0.031406477 -0.015047969 0.019594463
000230 c5 2e 87 bb 50 8f 63 3c ff eb 08 bc 7b 1c 51 bb
       -0.0041254484 0.013889149 -0.008357047 -0.0031907845
000240 47 dc 2b ba a0 61 37 3b 76 51 f0 bb 49 14 87 3b
       -0.0006555956 0.0027981773 -0.0073339297 0.004122291
000250 fe 65 2d 3a d5 1e bd 3b 95 ee 46 bc 78 5e 6a 3c
       0.0006614624 0.0057714977 -0.012141843 0.01430475
000260 b1 9f 22 3c 59 aa af 3b e0 f3 a3 3d 2a 2a 8c bd
       0.009925769 0.005360883 0.080055 -0.0684398
000270 70 7f 4a bc 17 10 2d 3c fd 9e 19 3b 92 ca 85 bc
       -0.012359485 0.010562918 0.0023440712 -0.016331945
000280 b7 49 f8 3c a2 d6 00 bd 41 ac 60 bc b6 16 7c 3b
       0.030308587 -0.03145469 -0.0137129435 0.0038465685
000290 a5 66 c3 bc 0b 93 e3 3b 08 7c 52 bb 8f 13 5b ba
       -0.023852656 0.006945019 -0.0032117385 -0.00083571015
0002a0 4f 44 07 be ee e7 ed 3d 99 89 8a 3c ca 06 f8 bc
       -0.13209651 0.11616503 0.016911315 -0.030276675
0002b0 b7 01 8b bd b1 81 90 3d 2f 36 fc bc c0 0b 2c 3d
       -0.067874365 0.07055987 -0.030787556 0.042003393
0002c0 f8 92 45 bc d6 d1 80 3b 88 f2 e0 bc c6 76 21 3d
       -0.012058966 0.0039312644 -0.027459398 0.03941991
0002d0 87 a8 dd 3b 08 2a 91 bb ad 85 a4 3c 62 9a da bc
       0.006764475 -0.0044300593 0.020083273 -0.026684944
0002e0 42 f5 5d 3c 39 76 c9 bc 48 7d 5a bc f4 40 56 bb
       0.013547244 -0.024592506 -0.013335533 -0.0032692524
0002f0 87 79 1b bd 60 bb 07 3d d3 fc f5 3b a5 9b 9a bb
       -0.037957694 0.03313768 0.0075069456 -0.0047182613
000300 8e 66 45 bb fc 5f 7e 3a 4e e2 b3 3b ed 9e e4 bb
       -0.0030120942 0.0009703634 0.005489624 -0.0069769532
000310 31 91 38 3c 8b d7 45 39 75 18 3a ba 77 c8 8a 3b
       0.011265085 0.0001886768 -0.00070989813 0.004235323
